models/game_predictor_final.pth (torch, 70123 bytes, 39 tensors)

winner_head.0.weight f4 [128, 24]
0	0xbda10054	-0.07861391
1	0x3e777e62	0.24169305
2	0xbd8d8472	-0.069100276
3	0x3e7ca556	0.24672446
4	0x3da4d79c	0.08048937
5	0xbd2c7d11	-0.04211146
6	0x3e006bb2	0.12541083
7	0x3dd5a5c3	0.10432007
8	0x3d1bdc0a	0.038051642
9	0xbe0f6d8c	-0.14006633
10	0xbe9cc376	-0.30617875
11	0xbd8f2cb9	-0.06990952
12	0xbc9b6814	-0.018970527
13	0xbd213a8c	-0.039362475
14	0x3dbecb87	0.093161635
15	0x3dd59794	0.10429302
16	0x3d7cd1e7	0.061723616
17	0x3e09f76e	0.13473293
18	0x3e7b4c1b	0.2454075
19	0xbd725fd8	-0.059173435
20	0xbe3f7441	-0.18696691
21	0xbdedc992	-0.11610712
22	0xbb94c655	-0.0045402446
23	0xbdcbf548	-0.09958893
24	0xbd8c9b96	-0.06865613
25	0xbe9111c8	-0.2833388
26	0x3e10cefe	0.14141461
27	0xbea669ef	-0.32502696
28	0xbe249e77	-0.16076075
29	0xbe036cea	-0.12834516
30	0xbdc2be58	-0.095089614
31	0x3e36855f	0.17824315
32	0xbe5785a6	-0.21047077
33	0xbe1536c0	-0.14571667
34	0x3e414089	0.18872274
35	0xbb9a769f	-0.004713848
36	0x3df3f1eb	0.119113766
37	0xbde6461c	-0.11243841
38	0x3ce0e8bc	0.027454726
39	0xbd3fa78f	-0.046790656
40	0xbe537e56	-0.20653662
41	0xbe633782	-0.22189143
42	0xbdfa3c4d	-0.12218533
43	0x3ccce7fb	0.02501296
44	0x3d91a24b	0.07111033
45	0x3e609f08	0.21935666
46	0x3db1a22f	0.08673512
47	0xbdd9014c	-0.105959505
48	0x3e1cca46	0.15311536
49	0x3d811517	0.06302851
50	0xbe3b2eb6	-0.18279538
51	0xbb89122c	-0.0041830745
52	0x3ddd996d	0.10820279
53	0xbb211932	-0.0024581668
54	0xbab7c986	-0.0014021851
55	0xbcb5fffa	-0.022216786
56	0xbe0d3a81	-0.13791849
57	0xbd802b4c	-0.06258258
58	0xbd8a2b79	-0.06746573
59	0xbe2d0f1b	-0.16900294
60	0xbd944118	-0.07238978
61	0xbdc9fe29	-0.0986293
62	0xbec47853	-0.3837305
63	0x3d867aa2	0.06566359
64	0xbdba5b2c	-0.09099421
65	0xbcd71794	-0.02625636
66	0x3d79d7c5	0.06099679
67	0xbd0a5a05	-0.033777256
68	0xbe7bac7a	-0.24577513
69	0xbe1bdcb5	-0.15220912
70	0x3e81b893	0.2533613
71	0xbd90bbab	-0.07067045
72	0x3af100b5	0.0018387052
73	0x3e0559fa	0.13022605
74	0xbe2e1552	-0.1700032
75	0xbe6d436f	-0.23170255
76	0x3e18b7b6	0.1491383
77	0x3e3e576a	0.18588033
78	0xbc16896c	-0.009188037
79	0xbe7ab7e8	-0.24484217
80	0xbe6dc2e1	-0.23218872
81	0xbc2ef687	-0.010678894
82	0xbc3d9330	-0.011570737
83	0xbdc8e93f	-0.09810113
84	0xbe32cbf7	-0.17460619
85	0xbe80c7cb	-0.2515243
86	0xbe229afb	-0.15879433
87	0x3d736c19	0.05942926
88	0xbc11d40d	-0.0089006545
89	0xbe3f0c70	-0.18657088
90	0x3e826e1e	0.25474638
91	0xbe82bba5	-0.25533786
92	0xbde1d3ac	-0.11026701
93	0x3dc052b6	0.09390776
94	0x3e8f8f6b	0.28039107
95	0xbd1886b1	-0.037237827
96	0x3eca3672	0.39494663
97	0xbe19c2fb	-0.15015785
98	0x3daaa1ac	0.08331618
99	0x3bc75810	0.006083496
100	0x3c95c8c2	0.018284205
101	0xbe250f69	-0.1611916
102	0x3e52faa9	0.20603432
103	0x3d9feb7b	0.07808586
104	0xbea27b2a	-0.31734592
105	0xbe3418ae	-0.1758754
106	0x3df5f75e	0.12010072
107	0x3d857e92	0.06518282
108	0x3de9d3ad	0.11417327
109	0x3e09816f	0.13428281
110	0x3793142d	1.753316e-05
111	0x3b4dbbc5	0.0031392437
112	0x3e1c4c6f	0.15263532
113	0xbd942b6e	-0.07234846
114	0xbd412990	-0.047158778
115	0xbd62ad1c	-0.05534087
116	0xbe81b2ce	-0.2533173
117	0xbd877dba	-0.06615777
118	0x3d8b8b9c	0.06813738
119	0xbe31f801	-0.17379762
120	0xbe21b836	-0.15792927
121	0x3e899f99	0.26879576
122	0x3d99bcaf	0.07506692
123	0xbd00f93e	-0.031487696
124	0x3e97cf8b	0.2965053
125	0xbde404cb	-0.11133727
126	0x3d06a0d9	0.03286824
127	0xbe201491	-0.15632845
128	0xbc77e225	-0.015129601
129	0xbe88dfe5	-0.26733318
130	0xbe603fbc	-0.21899313
131	0x3c23f2e9	0.010006645
132	0xbdb79943	-0.08964779
133	0x3e011587	0.12605868
134	0x3dafbd5b	0.085810386
135	0xbdfa3c53	-0.12218537
136	0xbe930d36	-0.28721017
137	0x3e35551f	0.17708252
138	0x3cf63673	0.03005526
139	0xbdb275cb	-0.087138735
140	0xbe20d83c	-0.15707487
141	0x39ce338b	0.00039329784
142	0x3e0d4528	0.13795912
143	0xbba8c0bf	-0.0051499302
144	0xbcd48414	-0.025941886
145	0xbd920e45	-0.07131628
146	0xbe12399e	-0.14279792
147	0x3dbb0e96	0.091336414
148	0x3e20c20c	0.15699023
149	0xbdc791e6	-0.09744625
150	0x3da2de8d	0.079526044
151	0x3d6c2862	0.0576557
152	0xbd1d73d7	-0.03844055
153	0xbd49916a	-0.049210943
154	0xbdc67c6c	-0.096917
155	0x3e8b6a3b	0.27229485
156	0xbdb66890	-0.089066625
157	0x3cea97eb	0.028636893
158	0xbe1ef36c	-0.15522546
159	0xbdee04fc	-0.116220444
160	0xbe11823b	-0.14209835
161	0xbc902f6d	-0.01760074
162	0x3df2fb59	0.11864347
163	0xbd7bd454	-0.06148179
164	0x3dfef00c	0.12448129
165	0x3d883404	0.06650546
166	0x3e8cd760	0.27508068
167	0x3e1dbcc2	0.15404037
168	0x3d95b530	0.073099494
169	0xbdd50f94	-0.10403362
170	0xbe463a70	-0.1935823
171	0xbe658751	-0.224149
172	0xbd7a65d6	-0.061132275
173	0x3e14adff	0.14519499
174	0xbdb39005	-0.08767704
175	0xbca12d30	-0.019674867
176	0x3c394e42	0.011310162
177	0xbd83eebe	-0.06442021
178	0x3e2c6322	0.16834691
179	0x3e09c740	0.13454914
180	0xbec35485	-0.3815042
181	0x3d7bb7e9	0.061454687
182	0x3d95cf9e	0.073149905
183	0x3d250c81	0.040295128
184	0x3e14574f	0.1448643
185	0x3e458198	0.19287717
186	0x3d4956b6	0.04915496
187	0x3e0787f5	0.13235457
188	0x3c97e86a	0.01854344
189	0x3e6efb9b	0.23338167
190	0x3dd82f4c	0.10555896
191	0x3cb5dd57	0.02220027
192	0x3da87f5f	0.08227419
193	0xbdc21401	-0.09476472
194	0xbc3b174e	-0.0114191305
195	0x3e27abac	0.16374081
196	0x3c0601ca	0.0081791375
197	0x3b2461ac	0.002508263
198	0x3e3ee07d	0.18640323
199	0xbd807d91	-0.0627395
200	0xbbeb4d11	-0.007180818
201	0xbe2a4188	-0.1662656
202	0xbe6fe2ee	-0.2342641
203	0xbe5b6181	-0.21423914
204	0xbe359478	-0.17732418
205	0xbd4486e6	-0.04798021
206	0x3e577135	0.21039279
207	0x3de116ef	0.10990702
208	0xbe16d473	-0.1472948
209	0x3a4eb585	0.0007885325
210	0x3cdd7897	0.02703504
211	0xbd0ea171	-0.03482193
212	0xbdc38141	-0.095461376
213	0x3d0b8bdb	0.034068923
214	0xbde29332	-0.110632315
215	0xbc7e0e30	-0.015506312
216	0x3bab4fab	0.005228003
217	0xbe7344f9	-0.2375678
218	0x3d7954b8	0.06087181
219	0xbe879998	-0.2648437
220	0xbd8bc1af	-0.068240516
221	0xbe918723	-0.28423414
222	0xbe932d4c	-0.28745496
223	0x3e399d0a	0.18126312
224	0x3d9e0aba	0.0771689
225	0xbe54a21c	-0.20764965
226	0x3d9d1206	0.07669453
227	0x3cb0a865	0.021564672
228	0x3d1cc2a9	0.03827158
229	0x3d0e40b9	0.034729693
230	0x3b5a3269	0.0033294207
231	0x3c8d94ed	0.017282927
232	0xbc9fe294	-0.01951722
233	0x3d1354f1	0.03596968
234	0x3caed812	0.021343265
235	0xbddf4def	-0.109035365
236	0xbe69a1e9	-0.2281567
237	0xbd1aeb6a	-0.037822165
238	0xbe66191e	-0.22470519
239	0xbd33a521	-0.04385865
240	0xbdbc7bdf	-0.09203314
241	0x3c5dab3f	0.013529598
242	0xbd496e18	-0.04917726
243	0x3dcef4bf	0.10105275
244	0xbe54c171	-0.20776917
245	0xbd4fda93	-0.050745558
246	0xbda29182	-0.0793791
247	0x3e87d66f	0.26530787
248	0xbd891f84	-0.06695464
249	0xbe2e99b4	-0.1705082
250	0xbdb63d35	-0.08898393
251	0x3dddd4ec	0.10831627
252	0x3d60ae0c	0.054853484
253	0x3c960ed6	0.018317621
254	0x3dc8e1a3	0.09808662
255	0x3e8ebbc0	0.27877617

winner_head.0.bias f4 [128]
0	0x3e242641	0.16030218
1	0xbd35864f	-0.04431754
2	0xbda17f02	-0.07885553
3	0xbdf0c688	-0.11756617
4	0xbd5d75c8	-0.054067403
5	0xbd092967	-0.03348675
6	0xbed6871a	-0.4189995
7	0xbdb22dcc	-0.08700141
8	0x3e9b506b	0.30334792
9	0x3cdaccbb	0.026708951
10	0xbe29d540	-0.16585255
11	0x3dc70fab	0.09719785
12	0xbe60a9b0	-0.2193973
13	0xbe61ac56	-0.22038397
14	0xbdc75417	-0.09732836
15	0x3e9b1320	0.3028803
16	0x3e800bcd	0.25009003
17	0x3cdaed3d	0.026724452
18	0xbe0729d8	-0.13199556
19	0x3e9e156c	0.3087572
20	0xbecf55cf	-0.40495154
21	0xbe2d1e5c	-0.16906112
22	0xbdf2679d	-0.11836169
23	0xbe4e33d6	-0.20136961
24	0xbe174317	-0.14771686
25	0xbe02f40c	-0.12788409
26	0xbe293b74	-0.16526586
27	0x3dc13476	0.09433834
28	0xbe83f70f	-0.25774428
29	0xbde152be	-0.1100211
30	0x3e916aff	0.28401944
31	0xbecd1794	-0.4005705
32	0xbdf96012	-0.12176527
33	0xbe45cd1f	-0.19316529
34	0x3dacb981	0.084338196
35	0xbe125804	-0.14291388
36	0xbea18f3c	-0.31554592
37	0x3d60f88f	0.054924544
38	0xbdf2554c	-0.11832675
39	0x3e674195	0.22583611
40	0x3d1463f8	0.03622815
41	0x3e44f316	0.19233355
42	0xbdf7c666	-0.120983884
43	0xbde63f5a	-0.11242552
44	0xbe9f7e8f	-0.31151244
45	0xbea1f6b6	-0.31633538
46	0xbd4f8638	-0.05066511
47	0x3e5bca6b	0.21463935
48	0x3e974b83	0.29549798
49	0xbcb307da	-0.02185433
50	0x3d0d7267	0.03453293
51	0x3dbaa4f6	0.09113495
52	0x3e7c160c	0.24617785
53	0x3e060a5f	0.13089894
54	0x3e35bb96	0.1774734
55	0x3e293d08	0.16527188
56	0x3df28d1a	0.11843319
57	0xbd7c5d68	-0.061612517
58	0x3e4f20de	0.20227382
59	0xbd8ae827	-0.06782561
60	0xbe503f78	-0.20336711
61	0x3e144700	0.1448021
62	0xbe96a0bd	-0.2941951
63	0xbe990b4a	-0.29891425
64	0x3e25751f	0.1615796
65	0x3d9c3991	0.076281674
66	0x3e419e98	0.18908155
67	0xbdd49eb5	-0.103818335
68	0x3e8b41bf	0.27198598
69	0xbcaa12e9	-0.02076097
70	0x3eac5324	0.3365718
71	0xbca04cd2	-0.01956788
72	0xbe550723	-0.20803504
73	0xbe282bac	-0.1642291
74	0x3a3600a6	0.00069428456
75	0xbcf9a386	-0.030473482
76	0xbe3cd133	-0.18439178
77	0x3d4db2b5	0.050219256
78	0xbda82d25	-0.08211736
79	0x3e263237	0.16230093
80	0xbe79552a	-0.24348894
81	0xbeff8fd3	-0.49914417
82	0xbd885bf5	-0.066581644
83	0x3d9eddae	0.07757126
84	0xbeceb296	-0.40370625
85	0xbee051a8	-0.438123
86	0xbe89b63f	-0.26896855
87	0xbdfd3b75	-0.12364856
88	0xbe9f6c35	-0.31137243
89	0x3cb6ec06	0.022329342
90	0x3e774578	0.24147594
91	0xbee47659	-0.44621542
92	0xbd3888a2	-0.04505218
93	0xbe14ce4f	-0.14531825
94	0xbdf47d0f	-0.119379155
95	0x3e816c4b	0.25277933
96	0xbe08e365	-0.13367994
97	0x3ea73cc4	0.32663548
98	0x3e40706f	0.1879289
99	0xbec82913	-0.39093837
100	0xbd5b947d	-0.053608406
101	0xbe114cc1	-0.14189436
102	0x3d833f91	0.06408609
103	0x3e9bb8aa	0.30414325
104	0x3e3706f8	0.17873752
105	0x3d4137dc	0.047172412
106	0x3c110de6	0.008853411
107	0x3bd28e8a	0.0064256834
108	0xbdb499ff	-0.08818435
109	0xbe8e8533	-0.27835998
110	0xbed8833f	-0.42287633
111	0xbdd53fe2	-0.10412575
112	0xbec1ffe8	-0.37890553
113	0xbe891cc7	-0.26779768
114	0xbda684b3	-0.08130779
115	0xbe655289	-0.22394766
116	0xbe12da27	-0.14341031
117	0x3e184654	0.14870578
118	0xbeec0418	-0.46096873
119	0xbe5c2999	-0.21500243
120	0xbe1f87ca	-0.15579143
121	0xbe09556b	-0.1341149
122	0xbe757b3e	-0.23972794
123	0x3dc22492	0.094796315
124	0x3d8ef3d5	0.06980101
125	0x3e8659da	0.26240426
126	0xbe151443	-0.1455851
127	0xbceda1f4	-0.02900789

winner_head.2.weight f4 [128]
0	0x3f5474d1	0.8299075
1	0x3f445fe2	0.76708806
2	0x3f2af172	0.66774666
3	0x3f596e0b	0.8493354
4	0x3f7d5608	0.989594
5	0x3f7d9aeb	0.9906451
6	0x3f57fa96	0.8436674
7	0x3f38c107	0.72169536
8	0x3f80eed3	1.0072883
9	0x3f842657	1.03242
10	0x3f3f648e	0.7476281
11	0x3f7c4e53	0.98557013
12	0x3f78aacc	0.97135615
13	0x3f563bcd	0.83685
14	0x3f75e2eb	0.96049374
15	0x3f86d5e5	1.0534025
16	0x3f63ccdf	0.88984483
17	0x3f5bba8f	0.8583154
18	0x3f693563	0.91097087
19	0x3f82b88c	1.0212569
20	0x3f48c98c	0.78432536
21	0x3f548580	0.83016205
22	0x3f4882cf	0.783246
23	0x3f47b602	0.78012097
24	0x3f45d043	0.7727091
25	0x3f4e76ec	0.8065021
26	0x3f64cc18	0.8937392
27	0x3f431516	0.7620405
28	0x3f58924d	0.8459824
29	0x3f494f7a	0.78636897
30	0x3f835a2a	1.0261891
31	0x3f464dcb	0.7746245
32	0x3f7677fa	0.9627682
33	0x3f4fb2b5	0.8113206
34	0x3f7eb090	0.99488163
35	0x3f53b764	0.82701707
36	0x3f58ca26	0.84683454
37	0x3f331454	0.69952893
38	0x3f5d5149	0.86452156
39	0x3f861c2b	1.0477346
40	0x3f451bfc	0.76995826
41	0x3f8de4fc	1.1085505
42	0x3f52897b	0.8224103
43	0x3f593416	0.848451
44	0x3f6c5b3a	0.923267
45	0x3f874f8f	1.0571154
46	0x3f389b4f	0.7211198
47	0x3f3a6f24	0.7282584
48	0x3f8f49f7	1.1194447
49	0x3f40f840	0.753788
50	0x3f6deb05	0.92936736
51	0x3f66576f	0.89977163
52	0x3f464daf	0.77462286
53	0x3f82ea95	1.0227839
54	0x3f32a6f4	0.69786
55	0x3f6477bc	0.892452
56	0x3f694bb6	0.9113115
57	0x3f4c44e8	0.7979264
58	0x3f771841	0.96521384
59	0x3f4a7912	0.7909099
60	0x3f3a9265	0.7287963
61	0x3f3497fe	0.7054442
62	0x3f5f72e0	0.8728466
63	0x3f6f970c	0.93589854
64	0x3f801a45	1.0008017
65	0x3f765a96	0.96231973
66	0x3f7768d0	0.96644306
67	0x3f434d88	0.7629018
68	0x3f829747	1.0202416
69	0x3f6c7c4d	0.9237717
70	0x3f817a84	1.0115514
71	0x3f2d295d	0.6764124
72	0x3f56a15c	0.83839965
73	0x3f6d4e79	0.92697865
74	0x3f6b9068	0.9201722
75	0x3f6f337a	0.9343792
76	0x3f6f5256	0.9348501
77	0x3f788f67	0.97093815
78	0x3f788b53	0.9708759
79	0x3f8ccaf1	1.0999433
80	0x3f6acf6a	0.9172274
81	0x3f587d65	0.84566337
82	0x3f589155	0.8459676
83	0x3f780de6	0.9689621
84	0x3f7eac1d	0.99481374
85	0x3f6e9bde	0.93206584
86	0x3f6103dd	0.8789652
87	0x3f860115	1.046908
88	0x3f6d90cb	0.9279906
89	0x3f576d91	0.8415156
90	0x3f9101af	1.1328639
91	0x3f59d91e	0.8509692
92	0x3f78622f	0.97024816
93	0x3f5a1742	0.8519174
94	0x3f4e15fa	0.80502284
95	0x3f66e8ac	0.9019878
96	0x3f740071	0.95313174
97	0x3f78001e	0.9687518
98	0x3f428b6a	0.7599398
99	0x3f4355f2	0.7630302
100	0x3f57cc98	0.8429656
101	0x3f67175c	0.9027002
102	0x3f60cf7a	0.87816584
103	0x3f6e8ce8	0.93183756
104	0x3f7a5123	0.97780055
105	0x3f2c5581	0.6731797
106	0x3f6cc676	0.9249033
107	0x3f7e01df	0.99221605
108	0x3f43cd5c	0.7648523
109	0x3f47b7f4	0.78015065
110	0x3f78ef67	0.972403
111	0x3f3f81af	0.74807256
112	0x3f74fdcd	0.9569977
113	0x3f6370f4	0.8884423
114	0x3f237d8a	0.6386343
115	0x3f6b71f3	0.9197075
116	0x3f638be7	0.8888535
117	0x3f79a2ac	0.9751384
118	0x3f875e7d	1.057571
119	0x3f58314a	0.8445021
120	0x3f6b5e02	0.9194032
121	0x3f479489	0.7796102
122	0x3f33a017	0.7016615
123	0x3f70a33b	0.9399907
124	0x3f76246d	0.9614933
125	0x3f764450	0.96197987
126	0x3f7054fa	0.93879664
127	0x3f6a613f	0.91554636

winner_head.2.bias f4 [128]
0	0x3dfad6b9	0.12247986
1	0xbe3d4ee0	-0.1848712
2	0x3f01ede2	0.50753605
3	0xbf3024c3	-0.68806094
4	0x3efc1bc6	0.4923994
5	0xbe941245	-0.2892019
6	0xbf44f4ee	-0.76936233
7	0xbf254f32	-0.6457397
8	0xbeaf3d94	-0.34226668
9	0x3eb2887a	0.34869748
10	0x3f202bad	0.62566644
11	0x3f02f819	0.51159817
12	0x3f29bc9d	0.66303426
13	0x3f30aa65	0.6901
14	0x3eb94cca	0.36191398
15	0xbef6d81d	-0.48211756
16	0xbe77c13b	-0.24194805
17	0xbe89fe67	-0.26951906
18	0xbe8443b3	-0.258329
19	0xbdb7503e	-0.08950852
20	0xbf0d4589	-0.5518423
21	0xbf0d8a71	-0.5528937
22	0xbf00b97b	-0.5028302
23	0x3f580702	0.84385693
24	0x3ea77924	0.3270961
25	0xbd5ec7b2	-0.054389663
26	0xbf38d4c7	-0.7219967
27	0xbdb35ae6	-0.08757572
28	0xbefd6a36	-0.49495095
29	0xbeb2ebbc	-0.34945476
30	0xbe7577d7	-0.23971497
31	0x3f0e95db	0.5569741
32	0xbef19c6f	-0.47189662
33	0x3f066dd2	0.5251132
34	0x3ef0466b	0.46928725
35	0x3f213ba9	0.6298166
36	0xbefb334d	-0.49062577
37	0xbea2badc	-0.31783187
38	0xbf1d56dc	-0.6146066
39	0xbe8ce7a0	-0.27520466
40	0x3f4154b0	0.7551985
41	0xbf051106	-0.519791
42	0xbe276ad9	-0.16349353
43	0x3f44f6b0	0.76938915
44	0xbd0efecd	-0.034910966
45	0xbeea627a	-0.45778257
46	0xbee7d37f	-0.45278546
47	0x3f245eb3	0.64207
48	0x3ca4e90f	0.020130662
49	0xbe37dfa7	-0.1795641
50	0xbd9c73e6	-0.076392934
51	0x3e8b0534	0.27152407
52	0xbf336640	-0.70077896
53	0x3d486288	0.04892209
54	0x3f2afb5e	0.66789806
55	0x3d61890b	0.055062335
56	0xbe679654	-0.2261594
57	0xbef3fdbd	-0.47654524
58	0xbe91e8c3	-0.28497896
59	0xbed68373	-0.41897163
60	0xbe9b81f2	-0.30372578
61	0x3e3d3749	0.18478121
62	0xbf1a50a2	-0.60279286
63	0xbebd741c	-0.37002647
64	0xbea8e520	-0.32987309
65	0xbef18c40	-0.47177315
66	0x3ed7da56	0.42158765
67	0xbdc5415b	-0.09631606
68	0x3de3b87c	0.11119172
69	0x3f50952c	0.8147762
70	0xbeec2fed	-0.46130314
71	0xbe12c476	-0.14332756
72	0xbf158c75	-0.58417445
73	0x3e5be977	0.21475779
74	0xbeac66f0	-0.33672285
75	0x3e86f085	0.26355377
76	0x3f49effe	0.78881824
77	0xbed13700	-0.40862274
78	0xbed9f153	-0.42566928
79	0xbe8e7814	-0.27825987
80	0xbed7db91	-0.42159703
81	0xbe7d43c8	-0.24732888
82	0xbe650a25	-0.22367151
83	0x3e4fbb1e	0.20286223
84	0xbf11d652	-0.5696765
85	0xbefd7339	-0.4950197
86	0xbf25f47a	-0.64826167
87	0xbea6ff37	-0.32616588
88	0xbee22359	-0.44167593
89	0xbeff867a	-0.49907285
90	0xbea09c36	-0.3136918
91	0xbf2fe7af	-0.68712896
92	0xbd09839a	-0.03357277
93	0x3f051054	0.5197804
94	0xbdd773bd	-0.10520122
95	0xbe912f38	-0.28356338
96	0x3e7e2bb0	0.24821353
97	0xbee0a808	-0.43878198
98	0xbf1304f3	-0.57429427
99	0x3f50578d	0.8138359
100	0xbf0a6af8	-0.5406947
101	0xbe722b7c	-0.236494
102	0x3f1fb9fa	0.6239315
103	0x3aae3dbd	0.0013293546
104	0xbe55f030	-0.20892406
105	0x3ec6565c	0.38737762
106	0x3f364e69	0.71213394
107	0xbe95f09a	-0.29285127
108	0x3f63ce70	0.88986874
109	0xbf1eca75	-0.62027675
110	0xbee2175a	-0.4415844
111	0xbedf98b9	-0.43671206
112	0xbec5c4d7	-0.3862674
113	0xbf0baf87	-0.5456471
114	0x3f41a709	0.756455
115	0x3d71520e	0.058916144
116	0xbe55f4d2	-0.20894173
117	0xbf0f0b23	-0.5587637
118	0xbda8025a	-0.082035735
119	0xbf2f7812	-0.6854259
120	0xbf2d30ab	-0.67652386
121	0xbf0ab4ff	-0.5418243
122	0x3f3e2b94	0.74285245
123	0x3eacb915	0.33734956
124	0x3e2b23da	0.16712895
125	0xbee3e888	-0.44513345
126	0xbeda53cb	-0.42642054
127	0x3ebeade6	0.3724205

winner_head.2.running_mean f4 [128]
0	0x3ee03e1a	0.4379738
1	0x3eea53b3	0.45766982
2	0x3e915faa	0.28393298
3	0x3e73c4d4	0.23805553
4	0x3e915d3d	0.28391448
5	0x3e941f46	0.2893011
6	0x3d93b68c	0.072125524
7	0x3e87bf98	0.26513362
8	0x3ed791a0	0.4210329
9	0x3ec9f1cf	0.39442298
10	0x3e8dd4fb	0.27701554
11	0x3ecd21d3	0.40064868
12	0x3e8d3da3	0.27586088
13	0x3e5fdd13	0.21861677
14	0x3e9912d2	0.2989717
15	0x3edc5d79	0.43040064
16	0x3edbd4fd	0.42935935
17	0x3ec6c969	0.3882554
18	0x3e8624ad	0.26199856
19	0x3ef9617a	0.4870718
20	0x3e153a7e	0.14573094
21	0x3e5e8e6f	0.21734022
22	0x3e826784	0.254696
23	0x3e87404a	0.26416236
24	0x3e91b56f	0.28458735
25	0x3e63ff47	0.2226535
26	0x3e4738d8	0.19455278
27	0x3ebda914	0.3704306
28	0x3e89ae1c	0.26890647
29	0x3e93a7c9	0.28838947
30	0x3eef5a63	0.46748647
31	0x3e03991d	0.12851377
32	0x3e85f199	0.26160887
33	0x3e765fd2	0.2405999
34	0x3ed26cef	0.41098735
35	0x3e9469b7	0.28986904
36	0x3e79ab01	0.24381639
37	0x3eaa3207	0.33241293
38	0x3e8eb1e2	0.2787009
39	0x3edbe775	0.42950025
40	0x3ece7572	0.4032398
41	0x3ec5262c	0.38505685
42	0x3e851abc	0.2599696
43	0x3ea22985	0.31672302
44	0x3e205277	0.15656458
45	0x3dcd24c4	0.10016778
46	0x3e9de37c	0.3083762
47	0x3edc3b2d	0.43013898
48	0x3ede23b2	0.43386608
49	0x3edad0e4	0.42737496
50	0x3e8834c1	0.26602748
51	0x3ec412e7	0.3829567
52	0x3f0e828e	0.5566796
53	0x3eae2fa0	0.3402071
54	0x3eca56e4	0.39519417
55	0x3f02f10e	0.5114907
56	0x3eb9ce7c	0.36290348
57	0x3ece3113	0.40271816
58	0x3ee035df	0.437911
59	0x3e8d46cc	0.27593076
60	0x3e208ea2	0.1567941
61	0x3ec99ab6	0.39375848
62	0x3e2f58e6	0.17123756
63	0x3e22df5c	0.15905517
64	0x3eb599a5	0.35468784
65	0x3eb9c543	0.3628331
66	0x3ee63b22	0.4496699
67	0x3e937452	0.28799683
68	0x3f0b198d	0.5433586
69	0x3ede6745	0.43438163
70	0x3ee4c016	0.446778
71	0x3eca1b01	0.39473727
72	0x3e1fd2ea	0.15607801
73	0x3e6c60e9	0.23083843
74	0x3e91c6cd	0.28471985
75	0x3e8c70eb	0.274299
76	0x3eb73dd9	0.35789374
77	0x3eb0553c	0.3444003
78	0x3ed25ec3	0.41087922
79	0x3eef936d	0.46792164
80	0x3eac85d4	0.33695853
81	0x3dd04d99	0.101710506
82	0x3e90dbc8	0.2829268
83	0x3eec2af9	0.46126536
84	0x3e0e166b	0.1387574
85	0x3e400842	0.1875315
86	0x3e726fc6	0.2367545
87	0x3e93b6ef	0.28850505
88	0x3e639be6	0.2222744
89	0x3e9def50	0.30846643
90	0x3ecdd028	0.40197873
91	0x3dc63955	0.09678904
92	0x3e5a7415	0.21333344
93	0x3e9ed245	0.31019798
94	0x3e47c3f1	0.1950834
95	0x3ed95299	0.4244583
96	0x3e62c4b6	0.22145352
97	0x3eec2dfa	0.46128827
98	0x3ed9b18f	0.4251828
99	0x3e125f39	0.14294137
100	0x3e8538f2	0.26020008
101	0x3e5c0d0d	0.21489353
102	0x3ecc5e9e	0.39915937
103	0x3eeae035	0.4587418
104	0x3eac941a	0.33706743
105	0x3eb90b1e	0.36141294
106	0x3eb392c6	0.35072917
107	0x3ee8081e	0.45318693
108	0x3ea44ce2	0.32089907
109	0x3e459c09	0.19297804
110	0x3da07af4	0.078359514
111	0x3e8e41bf	0.27784535
112	0x3df32ad3	0.118734024
113	0x3e2a1b44	0.16611964
114	0x3ed6e8f4	0.41974604
115	0x3e3164bd	0.17323585
116	0x3e8c1419	0.27359083
117	0x3ec7170c	0.3888477
118	0x3d3bfcfe	0.04589557
119	0x3e15c6a1	0.14626552
120	0x3e864669	0.26225594
121	0x3ed34933	0.41266784
122	0x3e59f389	0.21284308
123	0x3edeb2a9	0.43495682
124	0x3ed9eba6	0.42562598
125	0x3ed37c5d	0.4130582
126	0x3eb9f2d5	0.3631808
127	0x3eb395cc	0.35075223

winner_head.2.running_var f4 [128]
0	0x3ea83aa5	0.32857242
1	0x3eed980f	0.46405074
2	0x3e4506b6	0.19240841
3	0x3e339ddb	0.17540686
4	0x3e279dab	0.1636874
5	0x3e3abfb5	0.18237193
6	0x3d1bc259	0.03802714
7	0x3e14b8c4	0.14523607
8	0x3e4ac783	0.1980267
9	0x3ea8482f	0.32867572
10	0x3e51a2a3	0.20472197
11	0x3e6e096e	0.23245785
12	0x3e73f447	0.23823653
13	0x3e137fae	0.14404175
14	0x3e558dcc	0.20854872
15	0x3e626a42	0.22110847
16	0x3e700c4b	0.2344219
17	0x3ea150d8	0.3150699
18	0x3e30788c	0.17233485
19	0x3e92d938	0.2868135
20	0x3dc0a1a1	0.09405828
21	0x3e09bd85	0.13451202
22	0x3e276de7	0.16350518
23	0x3e6b5eaf	0.22985338
24	0x3e3fa584	0.18715483
25	0x3e1cb35e	0.15302798
26	0x3deba306	0.11505704
27	0x3e73bbed	0.23802157
28	0x3e59795a	0.21237698
29	0x3e51b53b	0.2047929
30	0x3e83a30e	0.25710338
31	0x3da38bb7	0.07985633
32	0x3e58bdee	0.21166202
33	0x3e0a6fa8	0.13519156
34	0x3e8c1804	0.27362072
35	0x3e5da636	0.21645436
36	0x3e3c2717	0.18374287
37	0x3e5fae4f	0.21843837
38	0x3e59cc4e	0.21269342
39	0x3e6bef0b	0.23040406
40	0x3ebdad55	0.37046304
41	0x3e57de8e	0.21080992
42	0x3e3d206d	0.184694
43	0x3e824215	0.25441042
44	0x3da31edc	0.0796487
45	0x3d3c7d42	0.046017893
46	0x3e5e2d6a	0.21697012
47	0x3e9bda0e	0.304398
48	0x3e782a1e	0.24234816
49	0x3ecc41cc	0.3989395
50	0x3e1998db	0.14999716
51	0x3e606525	0.21913584
52	0x3ed9bd8f	0.42527434
53	0x3e520d04	0.20512778
54	0x3e8996c0	0.26872826
55	0x3ef29158	0.47376513
56	0x3e3ecb6f	0.18632291
57	0x3eb47b2c	0.35250223
58	0x3e93253c	0.28739345
59	0x3e3ab697	0.18233715
60	0x3da1529a	0.07877083
61	0x3e8a101c	0.26965415
62	0x3de09eb2	0.10967769
63	0x3dcc7d0d	0.09984789
64	0x3e4487ae	0.19192383
65	0x3e60e2c9	0.21961512
66	0x3eaa0179	0.3320425
67	0x3e3ee518	0.1864208
68	0x3ecdb091	0.40173772
69	0x3e9ae5fe	0.30253595
70	0x3e50ca37	0.20389639
71	0x3ebb3724	0.36565506
72	0x3dcc8e1f	0.09988045
73	0x3e0bbe5c	0.13646835
74	0x3e211601	0.1573105
75	0x3e1cdfeb	0.15319793
76	0x3e9080c1	0.2822323
77	0x3e830935	0.25592962
78	0x3ec05f0e	0.3757252
79	0x3ebfd35e	0.37465948
80	0x3eb7e667	0.3591797
81	0x3d8953cc	0.06705436
82	0x3e4beca5	0.19914491
83	0x3ec007c7	0.37505934
84	0x3da8ff5a	0.082518294
85	0x3e0db3e4	0.13838154
86	0x3e311a27	0.17295133
87	0x3e505d97	0.20348202
88	0x3e1f1f6c	0.1553933
89	0x3e74c8a8	0.2390467
90	0x3e72fae5	0.23728521
91	0x3d5cf181	0.053941254
92	0x3dd406a8	0.10352832
93	0x3e6867c5	0.22695835
94	0x3dcc192b	0.09965738
95	0x3e710cc8	0.23540032
96	0x3deaf925	0.11473302
97	0x3e6661e3	0.22498278
98	0x3e82afdd	0.25524798
99	0x3d9fdd9c	0.078059405
100	0x3e1d7024	0.1537481
101	0x3e033dcb	0.12816541
102	0x3e948b16	0.29012364
103	0x3e83a956	0.2571513
104	0x3e1991b9	0.14996995
105	0x3e6bbde5	0.23021658
106	0x3e79dc6f	0.24400495
107	0x3ecc5bbb	0.39913735
108	0x3e6d8923	0.23196845
109	0x3e0b31c9	0.1359321
110	0x3d281b77	0.041041818
111	0x3e425021	0.18975879
112	0x3d86a925	0.065752305
113	0x3dc2c596	0.09510343
114	0x3ee5387e	0.44769663
115	0x3dce5fc4	0.100768596
116	0x3e2cede1	0.16887619
117	0x3e81f539	0.25382403
118	0x3ccd83c0	0.025087237
119	0x3de03720	0.10948014
120	0x3e31d736	0.17367253
121	0x3eec1a8d	0.46114007
122	0x3e1f0c5c	0.15532058
123	0x3eb2f918	0.34955668
124	0x3ea13ea1	0.31493095
125	0x3e50cdc4	0.20390993
126	0x3e9fd665	0.31218258
127	0x3e8d7d23	0.27634534

winner_head.4.weight f4 [64, 128]
0	0xbd9e36bc	-0.077252835
1	0x3952f8c6	0.00020119836
2	0xbcf1d631	-0.02952108
3	0xbe0c10bd	-0.1367826
4	0x3d975d32	0.073908225
5	0xbd0d4ef2	-0.034499116
6	0xbde00c7a	-0.1093988
7	0x398dc3b9	0.0002703944
8	0xbe155d1f	-0.14586304
9	0x3e42cfed	0.1902463
10	0x3e18a7fa	0.14907828
11	0xbcef2ff2	-0.029197667
12	0x3df10984	0.11769393
13	0x3dbafb96	0.091300175
14	0x3cede803	0.029041296
15	0xbe24cd9f	-0.16094063
16	0xbdc0c5ee	-0.09412752
17	0xbcb3b0b7	-0.02193485
18	0x3b77d859	0.0037818162
19	0xbe113f4b	-0.141843
20	0xbd255c94	-0.040371493
21	0xbde8dfad	-0.11370788
22	0xbd68e3c6	-0.056857847
23	0x3d892c0c	0.066978544
24	0xbe1ac842	-0.15115455
25	0xbc79af90	-0.015239611
26	0xbdbdf040	-0.0927434
27	0xbdd98898	-0.10621756
28	0xbd48ea16	-0.049051367
29	0xbc88c1e1	-0.016694011
30	0xbdfe67ea	-0.12422164
31	0x3d4eafda	0.050460674
32	0xbd335e93	-0.043791365
33	0xbd97bc7a	-0.07408996
34	0xbdd4d784	-0.10392669
35	0x3d849d44	0.064753085
36	0x3ce5b071	0.028038235
37	0x3b5fd0c4	0.0034151534
38	0xbde1eb04	-0.11031154
39	0x3c01ebf5	0.007929792
40	0x3d97d536	0.07413714
41	0xbda90a0d	-0.0825387
42	0x3dc75fb8	0.09735054
43	0x3e324cd7	0.17412125
44	0x3b2a9a2e	0.002603184
45	0xbd57a6ca	-0.052649297
46	0x3cd828d5	0.026386658
47	0x3d4a189c	0.049339876
48	0xbe4f55ee	-0.20247623
49	0x3da89e41	0.082333095
50	0x3d87b1d0	0.06625712
51	0xbd2ff42d	-0.042957474
52	0xbda56b43	-0.08077099
53	0x3caa32e3	0.020776218
54	0x3d8be46d	0.06830678
55	0x3c630bbc	0.013857778
56	0xbd8862d4	-0.06659475
57	0xbd9bb05a	-0.07601996
58	0xbd68a6e5	-0.056799788
59	0xbd912d96	-0.07088773
60	0xbdd894be	-0.10575245
61	0xbd9c5ecf	-0.07635271
62	0xbd91689a	-0.07100029
63	0xbd53e903	-0.05173589
64	0xbe529e3f	-0.20568179
65	0x3aa230ce	0.0012374164
66	0x3daa0661	0.08301998
67	0x3c574987	0.013140089
68	0xbd158864	-0.036507025
69	0x3cfd2af7	0.030904276
70	0xbe14f1e0	-0.14545393
71	0xbd5a3d35	-0.053281028
72	0xbdc6b4d0	-0.09702456
73	0x3d594709	0.05304626
74	0xbe06aee3	-0.13152651
75	0xbdf46765	-0.119337834
76	0x3d07fc54	0.033199623
77	0xbe3b849e	-0.18312308
78	0xbd49e4a2	-0.049290307
79	0xbdf6e6c7	-0.12055736
80	0x3ca0d89a	0.019634534
81	0xbdb969f4	-0.09053412
82	0xbd527991	-0.051385466
83	0x3cfb7c8a	0.030699033
84	0xbdcac9eb	-0.09901794
85	0xbe085c73	-0.13316517
86	0xbcab12ed	-0.020883048
87	0xbd142fa8	-0.03617826
88	0xbd988777	-0.07447713
89	0xbde6b4f1	-0.112649806
90	0xbd4552bb	-0.0481746
91	0xbe139fc4	-0.14416414
92	0xbdf53ec9	-0.11974866
93	0xbd2da2c2	-0.042391546
94	0xbd4d1ca9	-0.05007616
95	0xbd94724f	-0.07248365
96	0x3c967821	0.018367829
97	0xbd5a0aa3	-0.0532328
98	0xbd89cd32	-0.06728591
99	0x3d25bb0e	0.040461592
100	0xbd0f4cb4	-0.03498526
101	0x393bd1b1	0.00017911826
102	0xbda3819c	-0.079837054
103	0xbce1144a	-0.027475495
104	0xbe041860	-0.12899923
105	0x3dbf602b	0.093445145
106	0x3dbc33e7	0.09189587
107	0xbdaf35d9	-0.085551925
108	0xbe089110	-0.13336587
109	0xbc89ee2c	-0.016837202
110	0xbe0955ff	-0.13411711
111	0xbcdb4e60	-0.02677077
112	0xbc69725b	-0.014248456
113	0xbd101af4	-0.035181955
114	0x3d2b2879	0.041786645
115	0xbdb496e9	-0.08817846
116	0xbd68e580	-0.056859493
117	0xbdb7a3d9	-0.08966798
118	0xbd66dcd9	-0.05636296
119	0xbdff0556	-0.124521896
120	0xbdd90bca	-0.10597952
121	0x3d2e829f	0.04260504
122	0x3da227b3	0.07917728
123	0x3da49d7d	0.08037851
124	0xbcbc4562	-0.022982303
125	0xbe1c4bf0	-0.15263343
126	0x3d1c93cd	0.03822689
127	0x3dea8302	0.11450769
128	0x3d4c755a	0.049916603
129	0xbe0f989e	-0.14023063
130	0x3d4d602a	0.050140537
131	0xba3b5311	-0.0007145862
132	0xbd5a01f9	-0.053224538
133	0xbdd823cc	-0.10553703
134	0x3d247d10	0.04015833
135	0x3d06f170	0.032945096
136	0xbdc088e2	-0.09401108
137	0x3d8355d3	0.06412854
138	0xbc695f26	-0.014243877
139	0x3da382d9	0.079839416
140	0x3d12249a	0.035679437
141	0x3d98a873	0.07454004
142	0x3a239ab6	0.000624101
143	0xbd8e7f67	-0.06957894
144	0x3ce195a7	0.02753718
145	0xbb0fbc53	-0.0021932318
146	0xbe015217	-0.12628971
147	0x3b59b62e	0.003322016
148	0xbd80d212	-0.06290068
149	0xbd06d132	-0.032914348
150	0xbdfc4b04	-0.123189956
151	0x3d6ea5ca	0.058263578
152	0x3df56c99	0.11983604
153	0xbaa79fce	-0.0012788714
154	0x3d46fd42	0.04858137
155	0x3d614939	0.05500147
156	0xbd46da98	-0.04854831
157	0xbd87124f	-0.06595289
158	0xbdc28a74	-0.09499064
159	0xbe2135be	-0.15743157
160	0xbe2dcfe0	-0.1697383
161	0x3d52d210	0.051469862
162	0xbd569e2b	-0.052396934
163	0xbdbb0144	-0.09131101
164	0xbc19117e	-0.009342549
165	0x3d032fca	0.032027997
166	0xbda23f0b	-0.07922181
167	0xbd4291bc	-0.047502264
168	0x3e3c6fa5	0.18401964
169	0x3ce7aade	0.028279718
170	0xbd9f2e36	-0.07772486
171	0xbdc5fc99	-0.0966732
172	0xbd289e43	-0.041166555
173	0xbdedb60f	-0.116069905
174	0x3d7fd96d	0.062463213
175	0x3da5cc83	0.08095648
176	0x3d3497a3	0.044089925
177	0xbdce293f	-0.10066461
178	0xbe667eeb	-0.22509353
179	0x3c8c75dd	0.017146045
180	0x3c5522f2	0.01300882
181	0x3cf6d061	0.03012866
182	0xbd0cdb3d	-0.03438877
183	0xbcd1b44a	-0.025598664
184	0xbdda4fa6	-0.10659723
185	0xbcb00ec2	-0.021491412
186	0xbd806e93	-0.0627109
187	0x3d433df3	0.0476665
188	0x3d92186f	0.071335666
189	0xbd509800	-0.05092621
190	0xbc155f7c	-0.0091170035
191	0xbd4543c4	-0.04816033
192	0x3dd649af	0.10463273
193	0xbd829894	-0.06376758
194	0x3d9a896e	0.07545744
195	0xbdee4e1b	-0.11635991
196	0xbc515c32	-0.012778329
197	0xbd08c807	-0.033393886
198	0x3cbe4c2e	0.023229685
199	0xbd618c62	-0.05506552
200	0xbd93c6fe	-0.07215689
201	0x3ca6f7a4	0.020381756
202	0xbc98613a	-0.018601049
203	0xbd3cab44	-0.04606177
204	0xbdb2fb02	-0.08739282
205	0xbdf093dd	-0.11746953
206	0xbdf0f070	-0.1176461
207	0x3d0fb943	0.03508879
208	0x3c0a05d8	0.008424245
209	0xbe19b061	-0.1500869
210	0xbda25eaa	-0.07928212
211	0xbd255106	-0.040360473
212	0xbde75f99	-0.11297531
213	0xbd1ba958	-0.038003296
214	0xbe60bfd3	-0.21948175
215	0x3d93b34b	0.07211932
216	0xbd37e4f3	-0.044896077
217	0xbd36b123	-0.044602524
218	0xbdc93a7b	-0.098256074
219	0xbde15ca8	-0.11004001
220	0xbbd61f02	-0.006534458
221	0xbe04074f	-0.12893413
222	0xbdfb47a1	-0.122695215
223	0x3dbc351f	0.091898195
224	0x3b87c9a4	0.0041439105
225	0x3d8a742e	0.06760441
226	0xbdbd77b8	-0.0925135
227	0x3cfe060d	0.031008745
228	0x3cc46f3c	0.023978822
229	0xbcb9643e	-0.022630807
230	0xbc93c7ff	-0.018039702
231	0xbdb5c6b3	-0.088757895
232	0x3c2a1e92	0.010383265
233	0xbd5ef176	-0.054429494
234	0x3d19c42a	0.037540592
235	0x3cef7fd3	0.029235756
236	0x3ca4e78b	0.02012994
237	0xbd5246b9	-0.051336978
238	0xbda9bb3b	-0.082876645
239	0xbcff9474	-0.031198718
240	0xbdaeaa7a	-0.085286096
241	0xbded59ec	-0.11589417
242	0xbb582acd	-0.0032984496
243	0x3dc56b87	0.0963965
244	0xbdb3d2f6	-0.08780472
245	0x3d88a618	0.06672305
246	0xbc621f91	-0.013801471
247	0xbd40ed40	-0.04710126
248	0x3d86fe9c	0.06591532
249	0xbd29941a	-0.041401006
250	0xbd976195	-0.07391659
251	0x3d828cdb	0.06374522
252	0xbd04c83c	-0.03241752
253	0xbe32466b	-0.17409675
254	0xbd39bf42	-0.045348413
255	0x3d243778	0.04009196

winner_head.4.bias f4 [64]
0	0x3ee4f71f	0.44719788
1	0xbc80abe2	-0.01570696
2	0x3eddcb51	0.4331918
3	0x3efaeacb	0.49007258
4	0xbde23139	-0.11044545
5	0x3e61873e	0.22024247
6	0xbee8f9ff	-0.45503232
7	0x3eddf459	0.43350485
8	0xbed20ca5	-0.41025272
9	0xbe29d593	-0.16585378
10	0xbf1d235a	-0.6138207
11	0x3ed93990	0.4242673
12	0x3ec70c42	0.3887654
13	0x3dd068d1	0.10176242
14	0x3eb40d0e	0.3516621
15	0x3ec597a9	0.3859227
16	0x3ea708af	0.32623813
17	0xbe060ab9	-0.13090028
18	0x3e891e23	0.26780805
19	0x3eea50b4	0.45764697
20	0xbe2e50e3	-0.17023043
21	0xbf1e5b6a	-0.61858237
22	0xbf02cd28	-0.51094294
23	0x3ee067d8	0.43829226
24	0xbeb3574f	-0.3502755
25	0xbef576b6	-0.47942132
26	0xbe5215e8	-0.20516169
27	0xbe02b7f5	-0.12765487
28	0xbec09be9	-0.3761895
29	0xbdf5a2bb	-0.11993929
30	0x3e7e2d46	0.24821958
31	0x3c7d106d	0.015445811
32	0xbdc1ca70	-0.0946244
33	0xbe0ca52e	-0.13734886
34	0xbf0524a4	-0.52009034
35	0xbf067edf	-0.5253734
36	0x3e93fe6f	0.28905055
37	0x3ef998bb	0.48749337
38	0xbed43f19	-0.4145439
39	0x3dac5afa	0.0841579
40	0x3ee9b9f4	0.45649683
41	0xbe605527	-0.21907483
42	0x3ee0d4c6	0.43912333
43	0x3eb9840d	0.3623356
44	0x3e6b6a95	0.22989877
45	0x3e8f36bc	0.27971447
46	0xbe58c5ae	-0.21169159
47	0x3e9b2ae1	0.30306152
48	0xbf003b8b	-0.50090855
49	0xbd842412	-0.06452192
50	0xbeb41ec0	-0.3517971
51	0x3e2df19c	0.16986698
52	0x3ee98329	0.4560788
53	0x3c8a22ef	0.01686236
54	0xbe60683f	-0.21914767
55	0xbf2e5d85	-0.6811145
56	0x3e98383c	0.29730403
57	0x3c72a850	0.014810637
58	0x3d8e46c5	0.06947092
59	0xbf0c771a	-0.54869235
60	0xbd9fa1e5	-0.07794551
61	0x3ec48b87	0.383877
62	0xbed7c223	-0.42140302
63	0x3e3c5315	0.18391068

winner_head.6.weight f4 [64]
0	0x3ee12076	0.43970078
1	0x3e563db4	0.20921975
2	0x3f1a85f4	0.60360646
3	0x3eda1625	0.4259502
4	0x3ed1b4ba	0.40958196
5	0x3f04be55	0.51852924
6	0x3f54f43a	0.8318516
7	0x3e64a3fe	0.22328183
8	0x3f09606d	0.5366276
9	0x3eb63995	0.35590807
10	0x3f4d4d40	0.80196
11	0x3edeff44	0.43554127
12	0x3ef49d94	0.47776473
13	0x3e08bbc6	0.1335288
14	0x3e2fd9ac	0.17172879
15	0x3f112796	0.5670103
16	0x3f2c231e	0.67241085
17	0x3ea07b9d	0.3134431
18	0x3ed32e16	0.41246098
19	0x3f064555	0.5244954
20	0x3e49661f	0.19667862
21	0x3f456382	0.7710496
22	0x3f4af18d	0.7927483
23	0x3ec5e756	0.38653058
24	0x3f3d9f22	0.7407094
25	0x3f5143f5	0.8174432
26	0x3ed0bb60	0.40767956
27	0x3ee01916	0.4376914
28	0x3f256776	0.64610994
29	0x3ecf56bd	0.40495864
30	0x3e1e1703	0.15438466
31	0x3e53fc76	0.20701775
32	0x3e432a10	0.19059014
33	0x3e85bd91	0.2612119
34	0x3f3659b6	0.7123064
35	0x3f4d4052	0.8017627
36	0x3ed998cc	0.42499387
37	0x3f24ef66	0.64427793
38	0x3f43b4da	0.7644783
39	0x3e40d6a1	0.18831874
40	0x3f1ad1f0	0.6047659
41	0x3e17b1c1	0.14813901
42	0x3f21a6a2	0.63144886
43	0x3ecf6f30	0.40514517
44	0x3edf828a	0.4365428
45	0x3f00589a	0.50135195
46	0x3e5b4790	0.21414018
47	0x3f0337e3	0.5125715
48	0x3f36b258	0.7136588
49	0x3e8c9d6e	0.2746386
50	0x3f2b07f6	0.6680902
51	0x3effb259	0.49940756
52	0x3ef775ae	0.4833197
53	0x3e2dd318	0.16975057
54	0x3f073533	0.5281555
55	0x3f5db5b1	0.86605364
56	0x3ec59c0b	0.38595614
57	0x3e74593f	0.2386217
58	0x3e7bc986	0.24588594
59	0x3f4a8af3	0.7911827
60	0x3ea98f29	0.33117035
61	0x3ee3fdca	0.44529563
62	0x3f5ce932	0.8629333
63	0x3ed77727	0.42083094

winner_head.6.bias f4 [64]
0	0x3f35fbd3	0.7108738
1	0xbe530616	-0.2060779
2	0x3f43011c	0.7617357
3	0x3f352228	0.70755243
4	0x3c449fd0	0.012000993
5	0x3f1adcec	0.6049335
6	0x3c9ec10a	0.019379158
7	0x3eb19543	0.3468419
8	0x39bdc7dd	0.000361978
9	0x3b245261	0.0025073516
10	0x3bd29b19	0.0064271805
11	0x3f31f2e8	0.6951127
12	0x3f254f28	0.6457391
13	0xbd48f25e	-0.049059264
14	0x3ec50050	0.384768
15	0x3f2a9747	0.6663708
16	0x3f3f8d75	0.7482522
17	0x3c8153cc	0.015787028
18	0x3f0ab994	0.5418942
19	0x3f3cb280	0.7370987
20	0x3be4a64f	0.0069778333
21	0x3bd1c197	0.0064012515
22	0x3ca1ee5f	0.019766985
23	0x3f18c371	0.5967322
24	0x3bb3a8f5	0.0054827877
25	0x3c4896e1	0.012243004
26	0x3d0f0be3	0.034923445
27	0x3d04105a	0.032242157
28	0x3cc228e5	0.02370114
29	0x3c06718a	0.008205781
30	0x3e4afb02	0.19822314
31	0x3d38c383	0.04510833
32	0xbd75739e	-0.059924714
33	0xbc4e4864	-0.012590501
34	0xbb127a88	-0.0022350866
35	0x3c93f330	0.018060297
36	0x3f38ee10	0.72238255
37	0x3f4812a2	0.7815343
38	0x3c3e9733	0.011632728
39	0x3d8cdbff	0.068778984
40	0x3f30a247	0.68997616
41	0xbeb76677	-0.35820362
42	0x3f409d67	0.75240177
43	0x3f38ba27	0.72159046
44	0x3f2710d6	0.65260065
45	0x3f26befa	0.6513516
46	0xbcff31ea	-0.03115173
47	0x3f332f5d	0.69994146
48	0x3c12a6bd	0.008950886
49	0x3c148d2a	0.009066859
50	0x3cee5175	0.029091576
51	0x3f16f995	0.5897458
52	0x3f39306e	0.7233952
53	0xbba2ae5a	-0.004964632
54	0x3accb6f3	0.0015618488
55	0x3c631385	0.013859634
56	0x3f239127	0.6389336
57	0x3d4be2bb	0.049776774
58	0xbe56bd79	-0.20970716
59	0x3b222d87	0.0024746375
60	0x3d11727f	0.035509583
61	0x3f2131a0	0.62966347
62	0x3c07dd5b	0.008292521
63	0x3efb059c	0.49027717

winner_head.6.running_mean f4 [64]
0	0x405e476d	3.4731095
1	0x3fb628da	1.4231217
2	0x406c9396	3.696508
3	0x3fc5dc9a	1.5457947
4	0x3893545c	7.0252194e-05
5	0x3f3737bd	0.71569425
6	0x3a5dfc20	0.00084680505
7	0x402ae98f	2.6705053
8	0x3acca28e	0.001561241
9	0x3bc8bb56	0.006125848
10	0x3a039d5f	0.00050207035
11	0x400bd160	2.1846542
12	0x40671d9c	3.6111822
13	0x3effd315	0.4996573
14	0x3fe4b522	1.7867777
15	0x404a5b99	3.1618407
16	0x405754aa	3.3645425
17	0x3b93b16b	0.004507234
18	0x3fe9cd59	1.8265792
19	0x40758886	3.8364577
20	0x3cc1e722	0.023669783
21	0x3984b799	0.00025313793
22	0x3ad6a5bf	0.00163763
23	0x3fc02fc7	1.501458
24	0x3976a13e	0.00023520456
25	0x39852eec	0.00025402696
26	0x3b3e1d10	0.0029009022
27	0x3c029fb2	0.007972645
28	0x3a8048f0	0.0009787362
29	0x3a7f9985	0.0009750354
30	0x4009134f	2.1418035
31	0x3f886abe	1.0657575
32	0x3f7da437	0.99078697
33	0x38161309	3.5780515e-05
34	0x392f65d1	0.0001672723
35	0x3aeb5f06	0.0017957396
36	0x403a7f6a	2.9140267
37	0x407e4d20	3.9734573
38	0x39209f39	0.00015318104
39	0x3f77de90	0.9682398
40	0x4060b368	3.51095
41	0x3fb9da27	1.45197
42	0x40611505	3.516908
43	0x4011cb3a	2.278029
44	0x3f91ab8a	1.1380475
45	0x3fba2f6c	1.4545722
46	0x3cf4f5ce	0.029902365
47	0x40672bb2	3.612042
48	0x381fc0be	3.808806e-05
49	0x3910d3ee	0.0001381186
50	0x3c2c9177	0.010532728
51	0x3f16a6f0	0.58848476
52	0x3fe9648f	1.8233813
53	0x3f654a2a	0.8956629
54	0x3c11cd4d	0.008899045
55	0x3ae5fd6f	0.0017546843
56	0x40397850	2.8979683
57	0x3ed3e459	0.41385153
58	0x3f94d765	1.1628233
59	0x38cbfa75	9.7264456e-05
60	0x3bdbcbaf	0.0067076306
61	0x4006bbc4	2.1052103
62	0x3a1e2b6a	0.0006033691
63	0x3f83f410	1.0308857

winner_head.6.running_var f4 [64]
0	0x40b21b0e	5.5658026
1	0x3f9fd641	1.248726
2	0x41206823	10.025424
3	0x3fc9a318	1.5752897
4	0x3864ffdb	5.459772e-05
5	0x3fb6bb7e	1.4275968
6	0x3a530184	0.0008049237
7	0x408b6a44	4.356722
8	0x3af7661f	0.0018875039
9	0x3c7b3fd7	0.015335045
10	0x39bfca36	0.00036581018
11	0x40719b65	3.7751095
12	0x4106fd0a	8.436777
13	0x3f3c0887	0.7345051
14	0x3fe74f16	1.807101
15	0x40c90188	6.281437
16	0x410d5522	8.833284
17	0x3be9b64f	0.0071323286
18	0x4016e43a	2.3576798
19	0x4115c04d	9.359448
20	0x3d4306e8	0.04761401
21	0x392a645f	0.00016249855
22	0x3ae01d66	0.0017098605
23	0x3ff95ba5	1.9481093
24	0x38eae0c5	0.00011199856
25	0x394354f7	0.00018628301
26	0x3b6e2aa5	0.0036341336
27	0x3c1df9d8	0.009642087
28	0x3a8356f3	0.001002042
29	0x3a62a775	0.0008646169
30	0x402a6c0f	2.6628454
31	0x3fb6882d	1.4260308
32	0x3fb2109a	1.3911316
33	0x372a972c	1.0167987e-05
34	0x3890d8c8	6.906834e-05
35	0x3b1d3ed0	0.0023993738
36	0x40b42f8c	5.630804
37	0x41202280	10.008423
38	0x388d8d74	6.7497516e-05
39	0x3fc00206	1.5000618
40	0x410c148a	8.755014
41	0x401963a7	2.3967073
42	0x4114146f	9.254989
43	0x4008f596	2.1399894
44	0x400300e4	2.0469294
45	0x40008fcc	2.0087767
46	0x3d230444	0.03979899
47	0x41082e53	8.51131
48	0x37b7388c	2.1841632e-05
49	0x3835ad8e	4.33154e-05
50	0x3cdb9cb5	0.026808122
51	0x3f99ddc1	1.2020799
52	0x405456d6	3.3178
53	0x3f93c0cf	1.1543216
54	0x3c72258a	0.014779458
55	0x3b2c3594	0.0026277052
56	0x40b118e2	5.5342875
57	0x3f33fc1f	0.7030658
58	0x3fb93cd5	1.447169
59	0x38903fc7	6.8783345e-05
60	0x3c470ddb	0.0121492995
61	0x4081c0b3	4.054773
62	0x39edb4e6	0.00045338942
63	0x3fea6de4	1.8314786

winner_head.8.weight f4 [32, 64]
0	0xbe1a9403	-0.15095524
1	0x3cd25e9f	0.025679884
2	0xbea95a1a	-0.33076555
3	0xbe1f7e73	-0.1557558
4	0x3ba018cc	0.0048857685
5	0xbe213b22	-0.15745214
6	0xbc9de16c	-0.019272529
7	0xbcecc539	-0.028902637
8	0x3c823c6a	0.015897948
9	0x3cf80a59	0.030278372
10	0x3bd19d64	0.0063969363
11	0xbe5569f0	-0.20841193
12	0xbe80a363	-0.25124654
13	0x3ae64568	0.0017568292
14	0xbcb540ec	-0.022125684
15	0xbe4b12fc	-0.1983146
16	0xbe91a7f4	-0.2844845
17	0xb92e245f	-0.00016607482
18	0xbd90ffc7	-0.07080036
19	0xbe89f06d	-0.26941243
20	0xbb96b800	-0.004599571
21	0x3c78b0cf	0.015178873
22	0xbcc7b4d1	-0.024378212
23	0xbe019617	-0.12654911
24	0x3cadbcff	0.021208284
25	0x3cb93f2c	0.02261313
26	0x3b5aa8b0	0.0033364706
27	0x3d013cc3	0.031552088
28	0x3ce9410b	0.028473398
29	0x3c014004	0.007888798
30	0xbc8fb748	-0.01754345
31	0x3cb17dc4	0.021666415
32	0x3c024966	0.00795207
33	0x3c93e486	0.018053304
34	0xbc390d78	-0.011294715
35	0x3c749cb3	0.014929938
36	0xbdc3234f	-0.09528219
37	0xbeaa1974	-0.33222544
38	0x3c83b3ea	0.016077
39	0xbc65d31c	-0.014027383
40	0xbe95c9c3	-0.29255494
41	0x3c55eaee	0.0130565
42	0xbe93cba2	-0.28866297
43	0xbe0fe166	-0.14050826
44	0xbe410ad6	-0.1885179
45	0xbe337bca	-0.1752769
46	0x3c43f098	0.0119592175
47	0xbe5fcfca	-0.21856609
48	0xbb15c5e6	-0.0022853552
49	0xb9de74f3	-0.00042430274
50	0xbb820e81	-0.003969014
51	0xbdfc886f	-0.1233071
52	0xbe3af699	-0.18258132
53	0xba0a9e88	-0.0005287905
54	0x3d44023c	0.047853693
55	0xbc5580f8	-0.013031237
56	0xbdea7d03	-0.11449625
57	0x3b0d42d0	0.0021554716
58	0x3c5956a8	0.013265289
59	0x3cb86863	0.022510713
60	0x3bbb4c54	0.005715886
61	0xbe1788ad	-0.14798231
62	0x3cb9ed02	0.022696022
63	0xbdd0af75	-0.10189716
64	0x3bda19bc	0.0066559
65	0xbb9142b3	-0.004433
66	0x3b28acf9	0.0025737865
67	0x3adc2f4c	0.0016798764
68	0xbc0e2466	-0.00867567
69	0x3b7de672	0.0038742092
70	0xbdb4e271	-0.08832253
71	0xbafc9080	-0.0019269139
72	0xbcb93f31	-0.02261314
73	0xbcbdfd21	-0.02319199
74	0xbc6ef52d	-0.014584822
75	0x3c226eee	0.009914143
76	0x394d9a50	0.0001960781
77	0xbccefc4c	-0.025266789
78	0xbc49b52d	-0.012311262
79	0xbbb4f0fe	-0.0055218926
80	0xbaa0bf77	-0.0012264092
81	0xbc8327b8	-0.01601015
82	0x3ba4cadd	0.005029066
83	0xba0d6d93	-0.0005395051
84	0xbd3463f2	-0.044040628
85	0xbd9708ce	-0.07374726
86	0xbd987501	-0.07444192
87	0xbb111837	-0.0022139677
88	0xbc9f3bb4	-0.019437648
89	0xbd3b11c0	-0.045671225
90	0x3cc303f4	0.023805596
91	0x3d164d9b	0.036695104
92	0xbd14bbe8	-0.036312014
93	0xbcd54167	-0.026032163
94	0xbc1b0aee	-0.009463055
95	0x3a751584	0.00093492144
96	0x3ac556fd	0.0015055832
97	0xbc9949c7	-0.018711938
98	0xbd95968d	-0.07304106
99	0xbdcacfb8	-0.099029005
100	0x3b206cf9	0.0024479015
101	0xb9ece362	-0.0004518284
102	0xbdd1743c	-0.10227248
103	0xbbfd67c3	-0.0077333166
104	0xba89607d	-0.0010481026
105	0xba9b24aa	-0.0011836488
106	0x3a0eea59	0.00054517906
107	0x3c29ea11	0.010370747
108	0xbb9fe952	-0.004880109
109	0xbbadb322	-0.0053008953
110	0xba09f290	-0.000526228
111	0x3bbf31a7	0.0058347764
112	0xbd02bd5a	-0.03191886
113	0x3cab57a7	0.02091582
114	0x3dd8ba69	0.1058243
115	0x3ac771b6	0.0015216384
116	0x3c31a5b0	0.010842726
117	0x3bac5fe2	0.0052604536
118	0x3b896793	0.004193255
119	0xbd990caf	-0.07473122
120	0xbbbcf44f	-0.0057664285
121	0x3bc2b60b	0.0059421114
122	0xbc046ebf	-0.008083045
123	0xbcb67d32	-0.022276495
124	0xbd4d5961	-0.050134066
125	0xbb4fe4ba	-0.0031722025
126	0xbd4efb7e	-0.05053281
127	0xba2e8bc3	-0.00066583994
128	0xbc20919d	-0.009800342
129	0x3bd63ed2	0.0065382505
130	0xbb3ff0f2	-0.0029287902
131	0x3b55b0bd	0.0032606565
132	0x3cc30df9	0.023810374
133	0x3b93d27b	0.004511175
134	0xbd96281a	-0.073318675
135	0x3bc6b4b0	0.00606402
136	0xbcb3011f	-0.02185112
137	0xbc4d6911	-0.012537257
138	0xbc041d8d	-0.008063686
139	0xba9d4ee9	-0.0012001666
140	0xbbeb60c7	-0.0071831676
141	0xbae7e6dc	-0.0017692703
142	0xbb8e120d	-0.004335648
143	0xbc0c6b9a	-0.008570576
144	0xbb7d9ca8	-0.003869811
145	0xbcc0787a	-0.023494948
146	0x3b17196f	0.002305593
147	0xbba5ad4f	-0.0050560604
148	0x3d083337	0.033251967
149	0xbd9d21cf	-0.07672464
150	0xbdd8d2ef	-0.105871074
151	0xbb4a0260	-0.003082417
152	0x3cddc05d	0.027069265
153	0xbd6efc2b	-0.058345955
154	0x3d95de16	0.0731775
155	0xbc383233	-0.011242437
156	0xbd901c07	-0.07036596
157	0xb998cada	-0.00029142835
158	0xb95975ea	-0.00020738659
159	0xbcbcf46e	-0.023065772
160	0xbc6c5886	-0.0144254025
161	0x3c61e5c2	0.013787689
162	0xbd3a7048	-0.045517236
163	0xbd9f174d	-0.07768116
164	0xbbb75eda	-0.005596024
165	0x3b723194	0.003695582
166	0xbca90e9b	-0.020636847
167	0xbc39c104	-0.011337522
168	0x3b6111c2	0.003434286
169	0x3b9105ee	0.0044257557
170	0xbafe97e6	-0.0019423931
171	0xbbb5b885	-0.005545678
172	0xbb29cdf4	-0.002591011
173	0x3bf9d382	0.0076240906
174	0x3af1910a	0.0018430066
175	0x3c284627	0.010270632
176	0xbb972107	-0.0046120915
177	0xbb2b2c19	-0.0026118814
178	0xbc74cecb	-0.014941881
179	0x3bd72feb	0.0065669916
180	0x3b5ed23c	0.0033999821
181	0xbca675bd	-0.020319814
182	0x3c19ed09	0.0093948925
183	0xbd24ae45	-0.04020526
184	0xba51b856	-0.00080001855
185	0x3bf22d73	0.007390672
186	0xbc20fcda	-0.0098259095
187	0xbce7afa3	-0.028281992
188	0x3cf07e50	0.029357105
189	0xb86a15f7	-5.5810404e-05
190	0xbd6f57c1	-0.058433298
191	0x3b06ba1e	0.0020557712
192	0xbe4312a1	-0.19050075
193	0x3d130353	0.035891842
194	0xbeba8a64	-0.3643371
195	0xbe3fde5d	-0.18737169
196	0x3c81ed57	0.015860243
197	0xbe1df59a	-0.15425721
198	0x3c874573	0.016512608
199	0xbcc492dd	-0.023995811
200	0x3ca9eaa1	0.020741763
201	0x3cce8e1d	0.02521425
202	0x3ced7b4f	0.028989462
203	0xbe592f32	-0.2120941
204	0xbe84b7c0	-0.2592144
205	0x3c462a94	0.012095112
206	0xbc78a85e	-0.015176861
207	0xbe56bf6e	-0.20971462
208	0xbe8d0788	-0.27544808
209	0x3c675951	0.014120416
210	0xbd9ff9f6	-0.07811348
211	0xbe978bf2	-0.29598957
212	0x3d37a36a	0.04483358
213	0x3cc93994	0.024563588
214	0x3bd7154f	0.0065638195
215	0xbd9509f3	-0.07277288
216	0x3d3303e3	0.04370488
217	0x3d3a1a5c	0.045435295
218	0x3d65db4b	0.056117337
219	0x3d407aff	0.0469923
220	0x3d672f9b	0.056441884
221	0xbc3b376d	-0.011426789
222	0xb9f01daf	-0.00045798483
223	0x3c106f2a	0.008815566
224	0x3c2262cb	0.009911249
225	0x3c7c18d6	0.015386781
226	0x3d03d8a2	0.03218902
227	0x3cf4e5a3	0.029894656
228	0xbdd9e42b	-0.10639223
229	0xbe9654e3	-0.29361638
230	0x3d03dff0	0.032195985
231	0x3c0fed24	0.008784566
232	0xbe8d0329	-0.27541474
233	0x3c484383	0.012223127
234	0xbe922c0c	-0.2854923
235	0xbe000843	-0.12503152
236	0xbe0f4872	-0.1399248
237	0xbe31a61f	-0.17348526
238	0xbaeeda9b	-0.0018223108
239	0xbe6e2244	-0.23255259
240	0x3c9b8c6d	0.018987859
241	0x3be53c60	0.0069957227
242	0xbc6e4355	-0.01454242
243	0xbdfc549d	-0.12320826
244	0xbe4580b5	-0.19287379
245	0xbace3b5a	-0.0015734241
246	0x3d365c5f	0.044521686
247	0x3cef6c02	0.029226307
248	0xbdf5651c	-0.11982176
249	0xbc010c83	-0.007876518
250	0x3cd7c220	0.026337683
251	0x3d487a15	0.04894455
252	0xbbc609d9	-0.0060436544
253	0xbe27a2a5	-0.16370638
254	0x3d36b020	0.04460156
255	0xbdaf2947	-0.08552795

winner_head.8.bias f4 [32]
0	0x3eb5434b	0.35402903
1	0x3fcda156	1.6064861
2	0x3fd5ea39	1.6712104
3	0x3eb1488f	0.3462567
4	0x3fc25bb6	1.5184238
5	0x3eb6e6a3	0.35722837
6	0x3ed89e7c	0.42308414
7	0x3eab8645	0.33500877
8	0x3fb8650c	1.4405837
9	0x3fc8f0e1	1.569851
10	0x3fe09592	1.7545645
11	0x3ead43ca	0.3384078
12	0x3fcb41e6	1.5879486
13	0x3eb3ef17	0.3514335
14	0x3ea8feb2	0.33006817
15	0x3eabcf46	0.33556575
16	0x3fb1fab3	1.3904632
17	0x3eb983c0	0.3623333
18	0x3fc7a014	1.5595727
19	0x3eb79264	0.35853875
20	0x3e8f4060	0.27978802
21	0x3fba27de	1.4543417
22	0x3ec45579	0.3834646
23	0x3ec0acb3	0.3763176
24	0x3e9b9e13	0.3039404
25	0x3ee6dd1f	0.45090577
26	0x3eabca6c	0.33552873
27	0x3eae3da7	0.34031412
28	0x3fcdca5d	1.6077381
29	0x3fc84568	1.5646181
30	0x3fd1847b	1.6368555
31	0x3fc38536	1.5275028

winner_head.10.weight f4 [32]
0	0x401bacbd	2.432418
1	0x4017d905	2.3726208
2	0x401c6cfc	2.4441519
3	0x401f6c0b	2.4909694
4	0x40191ad5	2.3922627
5	0x401fd6c3	2.497483
6	0x4023375d	2.550254
7	0x401d5753	2.4584548
8	0x4013d2d3	2.3097427
9	0x401676bd	2.3509972
10	0x401fefb2	2.4990048
11	0x4018c173	2.3868072
12	0x401a4d1f	2.410957
13	0x4021e7b4	2.529767
14	0x401bf1da	2.4366364
15	0x401c8e2a	2.446177
16	0x4012c06d	2.2929947
17	0x401c797c	2.4449148
18	0x401940bf	2.3945768
19	0x401a97b5	2.4155095
20	0x4019b598	2.4017086
21	0x40129ed5	2.2909443
22	0x401a47f5	2.410642
23	0x401b7a80	2.4293518
24	0x4016ffdb	2.3593662
25	0x40207c6c	2.507594
26	0x401b9038	2.4306774
27	0x40220739	2.5316908
28	0x4014fba9	2.32786
29	0x4016b2b6	2.3546576
30	0x40198ceb	2.399226
31	0x4017c649	2.3714774

winner_head.10.bias f4 [32]
0	0xc000a3be	-2.009994
1	0x40007a6c	2.007472
2	0x4008b742	2.1361852
3	0xc0053291	-2.0812113
4	0x40031a9e	2.0484996
5	0xc006d4b0	-2.1067314
6	0xc00a3ec0	-2.16008
7	0xc00252bb	-2.0362995
8	0x3ffaf5dc	1.960628
9	0x400018bd	2.00151
10	0x400a7c4d	2.1638367
11	0xbff9ded3	-1.9521126
12	0x4003fb95	2.0622303
13	0xc00a8346	-2.1642623
14	0xc000a398	-2.009985
15	0xc001d686	-2.0287185
16	0x3ff6cf8e	1.9282091
17	0xc001a989	-2.0259726
18	0x4003da7a	2.0602098
19	0xbffea82b	-1.9895071
20	0xbffca875	-1.9738909
21	0x3ff5712f	1.9175166
22	0xbffd9d30	-1.9813595
23	0xc0000744	-2.0004435
24	0xbff42852	-1.9074805
25	0xc008faff	-2.1403196
26	0xc000b3c0	-2.010971
27	0xc0098aeb	-2.1491039
28	0x3ffda5cc	1.9816222
29	0x40001cd9	2.0017607
30	0x4003b089	2.0576499
31	0x4001b469	2.0266364

winner_head.10.running_mean f4 [32]
0	0x39f84d2f	0.00047359752
1	0x3fd02c21	1.6263467
2	0x3fd4eb88	1.6634378
3	0x3b85eb96	0.004086922
4	0x3fc32d5c	1.5248218
5	0x39261153	0.00015837447
6	0x3b0b9cb8	0.0021303128
7	0x3a6d3a47	0.00090495165
8	0x3fbca691	1.4738332
9	0x3fc71a6f	1.5554942
10	0x3fdda245	1.7315146
11	0x3bdfb21c	0.006826652
12	0x3fc9e0b1	1.5771695
13	0x386aaeaf	5.5952634e-05
14	0x3bbaca35	0.0057003745
15	0x3af1e3a8	0.0018454688
16	0x3fafa4dc	1.3722186
17	0x3b892548	0.0041853525
18	0x3fca8207	1.5820931
19	0x3ab82703	0.0014049712
20	0x3b3afba4	0.0028531337
21	0x3fb7f418	1.4371367
22	0x3b2c15eb	0.0026258181
23	0x3c34ae1b	0.011027838
24	0x3b15cb75	0.0022856866
25	0x3aeed8a4	0.0018222523
26	0x3bcc68c9	0.0062380773
27	0x3aa608ca	0.0012667414
28	0x3fcebb38	1.6150885
29	0x3fcbdf6a	1.5927556
30	0x3fd260db	1.6435808
31	0x3fc2b02f	1.5210017

winner_head.10.running_var f4 [32]
0	0x39cb89bc	0.00038821797
1	0x3c54edca	0.012996146
2	0x3c19415c	0.009353962
3	0x3c2946df	0.010331838
4	0x3c8dffd8	0.01733391
5	0x38e5c4e7	0.00010956247
6	0x3b819fcb	0.0039558164
7	0x3ae80663	0.0017702099
8	0x3bf804e4	0.0075689424
9	0x3c2cb31c	0.01054075
10	0x3c574521	0.01313904
11	0x3c9e69cd	0.01933756
12	0x3c2fd9e9	0.010733106
13	0x37cacb90	2.4175068e-05
14	0x3c637c3a	0.013884598
15	0x3b498398	0.0030748602
16	0x3ca077a6	0.019588303
17	0x3c250cac	0.010073822
18	0x3c20c07e	0.009811519
19	0x3b2506f8	0.0025181156
20	0x3bee3b65	0.007270264
21	0x3c0e2be9	0.008677461
22	0x3bc10119	0.0058900234
23	0x3d20ed4b	0.0392888
24	0x3baf6f75	0.005353863
25	0x3b64f932	0.003493857
26	0x3c88c04a	0.016693253
27	0x3b05996b	0.0020385634
28	0x3c40e2eb	0.011772851
29	0x3c579da9	0.013160148
30	0x3c72d211	0.014820592
31	0x3c1d7653	0.00961073

winner_head.12.weight f4 [1, 32]
0	0xba5d1750	-0.0008433955
1	0x3cbdb81c	0.02315908
2	0x3cb75e4a	0.022383828
3	0xba906563	-0.0011016544
4	0x3b46906a	0.003029848
5	0xbc218345	-0.009857957
6	0xbbcecdc2	-0.0063111493
7	0xbb93277f	-0.0044907923
8	0xbc9f1ca4	-0.019422837
9	0xbacae806	-0.0015480525
10	0xbc8342a5	-0.01602299
11	0x3baae94f	0.005215801
12	0xbc27a4b5	-0.01023214
13	0xba92c992	-0.0011198989
14	0x3bb02656	0.0053756637
15	0x3b82f4e7	0.00399648
16	0x3bfa4cc7	0.007638547
17	0xbc35db40	-0.011099637
18	0x3bc4dc87	0.006007734
19	0xbb70dd6f	-0.0036753078
20	0x3b6b1c4d	0.0035875023
21	0x36c219a6	5.7846364e-06
22	0x3b69a130	0.0035649054
23	0x3a31529d	0.00067643245
24	0x3a781d65	0.00094648293
25	0x3c0bbd99	0.00852909
26	0xb9ae0d66	-0.0003319785
27	0xba827dc8	-0.0009955699
28	0xbc16035c	-0.009156074
29	0xbcc0f32b	-0.023553452
30	0x3bfeecb1	0.0077796807
31	0xbbf3cbd3	-0.007440069
