models/game_predictor_best.pth (torch, 70092 bytes, 39 tensors)

winner_head.0.weight f4 [128, 24]
-0.10172479 0.23239748 -0.063620545 0.2207357 0.07225169 -0.0646083 0.097442314 0.08351139
0.013614966 -0.16382825 -0.33025548 -0.08348127 0.019686855 -0.04983055 0.101840176 0.08917356
0.08660416 0.12551321 0.22770473 -0.08795315 -0.17594965 -0.117115945 -0.01786022 -0.09102118
-0.052978233 -0.26247892 0.16915415 -0.32801816 -0.1515601 -0.139787 -0.11549911 0.19146451
-0.1864894 -0.13642623 0.19638088 0.012558564 0.10023583 -0.1004203 0.030174773 -0.041223533
-0.19451651 -0.21417996 -0.120658614 0.041235197 0.08394068 0.21879964 0.095365405 -0.11964319
0.22635591 -0.043178085 -0.2108048 -0.02535299 -0.0008924878 -0.025271365 0.09123144 -0.041191675
-0.05265606 0.012683996 0.031389076 -0.23684604 -0.101389505 -0.013470024 -0.28945312 0.06334094
-0.040197577 -0.0016981369 0.1379063 0.0071262075 -0.1759201 -0.17882405 0.2304969 -0.09292524
-0.00228866 0.1727999 -0.14768845 -0.23412028 0.16595788 0.1798435 -0.038403086 -0.22745249
-0.24193817 -0.014538326 -0.021332782 -0.061691184 -0.152023 -0.26780567 -0.16193147 0.05454468
-0.010169542 -0.2159639 0.21996373 -0.25612062 -0.102806404 0.110581554 0.2822048 -0.01055798
0.410259 -0.13793746 0.10309905 0.0035250077 0.015358081 -0.17537339 0.18749362 0.09069649
-0.31076437 -0.16166508 0.12666883 0.082048446 0.106497414 0.12883843 0.0053284205 -0.0051893187
0.14943999 -0.072980665 -0.03161127 -0.052406296 -0.24094434 -0.04890201 0.07972168 -0.16835873
-0.16186687 0.26426038 0.06852162 -0.037458826 0.28741425 -0.1147965 0.019734045 -0.15701485
-0.02616278 -0.27946013 -0.23288311 0.020245409 -0.08742155 0.10405913 0.061000425 -0.11036069
-0.28344345 0.16973548 0.026939886 -0.09494879 -0.16075622 0.020641763 0.14617766 -0.015188618
0.01316371 -0.06899647 -0.114724874 0.07473944 0.14562097 -0.13111193 0.04728632 0.06570548
-0.019777918 -0.01920683 -0.062171426 0.29371047 -0.08592903 0.03204701 -0.14896788 -0.121550605
-0.14416507 -0.018540401 0.112016335 -0.0706592 0.12807767 0.06722972 0.2860178 0.16536497
0.11773848 -0.085357696 -0.14115043 -0.23989664 -0.04696674 0.0947061 -0.15185419 -0.004357527
0.027355874 -0.037699223 0.18777508 0.15553513 -0.34114894 0.043784343 0.082361445 0.024325084
0.13905984 0.18006448 0.03130293 0.10444529 0.006257561 0.22855043 0.10685089 0.045899298
0.0689664 -0.06545819 0.024387544 0.15284207 0.037260253 0.0054035373 0.15212551 -0.06531171
-0.031383324 -0.1865828 -0.25992495 -0.18740274 -0.13218871 -0.07976109 0.19442914 0.10042658
-0.16787319 -0.02923243 -0.006703801 -0.07138177 -0.105791695 0.0517891 -0.13242939 0.012632176
0.008670829 -0.2320344 0.05218702 -0.25503394 -0.07157429 -0.2824124 -0.28509873 0.18839197
0.06836184 -0.18804191 0.08491817 0.026214577 0.031404547 0.024181148 0.008448286 0.006258597
-0.016402591 0.017049346 0.018605834 -0.10636375 -0.24266052 -0.044900898 -0.22112879 -0.05298617
-0.11357969 -0.0053051035 -0.11482215 0.13909817 -0.22163521 -0.025898114 -0.030819269 0.2635456
-0.059710354 -0.182087 -0.094812095 0.09892521 2.1639577e-05 0.038292814 0.12242424 0.2676979
00000000: 1655 d0bd 9bf9 6d3e 7d4b 82bd 8a08 623e
00000010: b2f8 933d 5b51 84bd d68f c73d 0508 ab3d
00000020: 4e11 5f3c 98c2 27be 3f17 a9be 3af8 aabd
00000030: 5446 a13c 1e1b 4cbd 9591 d03d a1a0 b63d
00000040: 865d b13d 8986 003e 6e2b 693e c820 b4bd
00000050: 252c 34be 7cda efbd 994f 92bc 5069 babd
00000060: b4ff 58bd a363 86be bf36 2d3e fff1 a7be
00000070: 9232 1bbe 5324 0fbe cc8a ecbd 460f 443e
00000080: 14f7 3ebe 51b3 0bbe 1218 493e 6fc2 4d3c
00000090: 7148 cd3d 29a9 cdbd 1631 f73c 02da 28bd
000000a0: 562f 47be fe51 5bbe dd1b f7bd 3de6 283d
000000b0: 17e9 ab3d 030d 603e f04e c33d 7d07 f5bd
000000c0: d8c9 673e 81db 30bd 37dd 57be 13b1 cfbc
000000d0: d8f5 69ba e505 cfbc 8dd7 ba3d 9ab8 28bd
000000e0: e1ad 57bd 89d0 4f3c d591 003d c587 72be
000000f0: 4da5 cfbd 60b1 5cbc 3333 94be e5b8 813d
00000100: 37a6 24bd 0594 deba 4f37 0d3e f682 e93b
00000110: 6624 34be a71d 37be 6107 6c3e 974f bebd
00000120: 58fd 15bb 75f2 303e a43b 17be 3abd 6fbe
00000130: ddf0 293e e528 383e 8e4c 1dbd 4ee9 68be
00000140: a4be 77be 2932 6ebc 16c2 aebc e5af 7cbd
00000150: ebab 1bbe d31d 89be 5dd1 25be 3e6a 5f3d
00000160: 279e 26bc a425 5dbe 2c3e 613e 3e22 83be
00000170: 2a8c d2bd 9578 e23d 267d 903e 61fb 2cbc
00000180: 780d d23e 7a3f 0dbe 9825 d33d d103 673b
00000190: 76a0 7b3c 1595 33be 54fe 3f3e 15bf b93d
000001a0: 821c 9fbe 888b 25be 79b5 013e 0409 a83d
000001b0: 511b da3d 39ee 033e 089a ae3b 290b aabb
000001c0: cc06 193e e376 95bd d27a 01bd fca7 56bd
000001d0: 1dba 76be 794d 48bd 1f45 a33d 3b66 2cbe
000001e0: 6ec0 25be 234d 873e 1055 8c3d 6d6e 19bd
000001f0: f627 933e 6d1a ebbd 4ba9 a13c 80c8 20be
00000200: 5453 d6bc 6615 8fbe e978 6ebe b3d9 a53c
00000210: 120a b3bd f41c d53d 95db 793d c904 e2bd
00000220: 801f 91be 23cf 2d3e 09b1 dc3c 8374 c2bd
00000230: 479d 24be ea18 a93c 99af 153e aed9 78bc
00000240: 9aac 573c 054e 8dbd e0f4 eabd fe10 993d
00000250: aa1d 153e 3542 06be 4daf 413d 9890 863d
00000260: 4d05 a2bc a457 9dbc 77a7 7ebd 3861 963e
00000270: 8ffb afbd ba43 033d 098b 18be 86ef f8bd
00000280: 02a0 13be 0ae2 97bc d268 e53d c5b5 90bd
00000290: cb26 033e bcaf 893d ed70 923e 6f55 293e
000002a0: df20 f13d 04d0 aebd bd89 10be 77a7 75be
000002b0: 3260 40bd 46f5 c13d aa7f 1bbe 96c9 8ebb
000002c0: 6d19 e03c 806a 1abd 1c48 403e 9a44 1f3e
000002d0: 13ab aebe 3657 333d 1ead a83d 6645 c73c
000002e0: b465 0e3e d362 383e 8037 003d 6ae7 d53d
000002f0: 3a0c cd3b 2009 6a3e a4d4 da3d e700 3c3d
00000300: 423e 8d3d f20e 86bd 63c8 c73c a282 1c3e
00000310: 359e 183d 2810 b13b cac6 1b3e 25c2 85bd
00000320: cd8b 00bd 900f 3fbe e214 85be 81e6 3fbe
00000330: 7a5c 07be c859 a3bd 6f18 473e 73ac cd3d
00000340: f3e6 2bbe d978 efbc 8fab dbbb 9b30 92bd
00000350: 51a9 d8bd cf20 543d 929b 07be 30f7 4e3c
00000360: 1810 0e3c 6d9a 6dbe 0fc2 553d cf93 82be
00000370: 8b95 92bd 5c98 90be 76f8 91be d3e9 403e
00000380: 4b01 8c3d 0f8e 40be 94e9 ad3d f4bf d63c
00000390: 0ea2 003d 8b17 c63c ae6a 0a3c eb14 cd3b
000003a0: ba5e 86bc 12ab 8b3c 436b 983c 3dd5 d9bd
000003b0: 007c 78be 01ea 37bd 966f 62be 0708 59bd
000003c0: 789c e8bd 6fd6 adbb e027 ebbd c06f 0e3e
000003d0: 57f4 62be 4828 d4bc b178 fcbc 73ef 863e
000003e0: d892 74bd 0475 3abe d82c c2bd 4d99 ca3d
000003f0: a386 b537 edd8 1c3d 8fb9 fa3d b30f 893e

winner_head.0.bias f4 [128]
0.16516016 -0.040087465 -0.07682 -0.14822282 -0.053738113 -0.04203051 -0.39512232 -0.10782704
0.30897915 0.009784188 -0.116599545 0.073250584 -0.23330303 -0.22589791 -0.12517372 0.30805963
0.20352001 0.019626176 -0.13191232 0.2971551 -0.40491304 -0.17096706 -0.13678066 -0.23743455
-0.12947445 -0.12755392 -0.14043167 0.09957488 -0.22060111 -0.101548746 0.29252017 -0.35809046
-0.13289808 -0.19170864 0.1015202 -0.10563524 -0.30652943 0.046235465 -0.08246515 0.2635842
0.080490276 0.17028128 -0.12527592 -0.09142221 -0.32725766 -0.28739244 -0.0449143 0.19372031
0.29368824 0.0018826531 0.013451672 0.05349704 0.26560047 0.12793675 0.1629853 0.12506469
0.1242951 -0.078437716 0.1933822 -0.099890806 -0.21658325 0.1436804 -0.3122958 -0.2999408
0.16603167 0.07279242 0.16332667 -0.08518752 0.2638361 -0.05658001 0.3260006 0.022466015
-0.19626515 -0.16850093 -0.039515153 -0.03129687 -0.2715015 0.03633166 -0.11352474 0.1550668
-0.22920573 -0.45272654 -0.04035638 0.07110668 -0.4027861 -0.43179592 -0.29668838 -0.11440458
-0.29032728 0.034963924 0.22241879 -0.42976555 -0.038766008 -0.14161544 -0.11237979 0.2837185
-0.122020446 0.29486856 0.1839701 -0.37876314 -0.050340254 -0.12716155 0.0750536 0.29910585
0.20235299 0.047702115 0.048118163 0.017693995 -0.07203106 -0.29078493 -0.41961002 -0.12624693
-0.3845971 -0.2758262 -0.08399698 -0.23478 -0.18326291 0.11377598 -0.45303807 -0.25088134
-0.19623889 -0.12830044 -0.25065014 0.08968651 0.10184306 0.23631655 -0.15013307 -0.0546005
00000000: bf1f 293e c132 24bd ce53 9dbd b9c7 17be
00000010: 7f1c 5cbd 2f28 2cbd 794d cabe 6cd4 dcbd
00000020: 8432 9e3e dc4d 203c becb eebd 6704 963d
00000030: fde6 6ebe c851 67be 8a2d 00be feb9 9d3e
00000040: 8d67 503e 13c7 a03c 0614 07be b724 983e
00000050: c350 cfbe fd11 2fbe 3b10 0cbe 0b22 73be
00000060: f394 04be 7f9d 02be 52cd 0fbe eaed cb3d
00000070: 42e5 61be caf8 cfbd 34c5 953e a257 b7be
00000080: 6f16 08be 454f 44be d3e9 cf3d 4a57 d8bd
00000090: 6df1 9cbe 6661 3d3d 7de3 a8bd 82f4 863e
000000a0: 16d8 a43d 375e 2e3e 5548 00be 913b bbbd
000000b0: 518e a7be 1a25 93be 0ff8 37bd 9e5e 463e
000000c0: 4e5e 963e 5bc3 f63a 6764 5c3c b61f 5b3d
000000d0: c9fc 873e da01 033e 9ee5 263e f510 003e
000000e0: 6e8e fe3d f4a3 a0bd fc05 463e 8d93 ccbd
000000f0: 00c8 5dbe f420 133e 3ce5 9fbe d791 99be
00000100: 3504 2a3e 3114 953d 1b3f 273e cb76 aebd
00000110: 8615 873e 71c0 67bd 8de9 a63e a60a b83c
00000120: bbf9 48be 828b 2cbe a4da 21bd 2631 00bd
00000130: 3f02 8bbe 82d0 143d a97f e8bd d5c9 1e3e
00000140: e8b4 6abe c6cb e7be bb4c 25bd 61a0 913d
00000150: fb39 cebe 5b14 ddbe 8ae7 97be f34c eabd
00000160: c7a5 94be 5536 0f3d c0c1 633e 3b0a dcbe
00000170: 1bc9 1ebd a303 11be 6027 e6bd 8d43 913e
00000180: dbe5 f9bd 03f9 963e a862 3c3e 3eed c1be
00000190: 9531 4ebd a336 02be b4b5 993d 6724 993e
000001a0: 9f35 4f3e 4b63 433d 8d17 453d fff2 903c
000001b0: 0585 93bd c3e1 94be 20d7 d6be e046 01be
000001c0: e9e9 c4be 1739 8dbe 9c06 acbd 2b6a 70be
000001d0: 46a9 3bbe 6203 e93d 9bf4 e7be 8573 80be
000001e0: d9f2 48be 3161 03be 3755 80be 90ad b73d
000001f0: 1893 d03d f7fc 713e 7cbc 19be c6a4 5fbd

winner_head.2.weight f4 [128]
0.8413566 0.7779777 0.6966452 0.87421143 0.9970918 1.001348 0.8398832 0.73453575
0.9981085 1.0237637 0.7692093 1.0068678 0.98687476 0.858392 0.9514089 1.0364008
0.86561733 0.87947315 0.9530792 1.0149324 0.8276168 0.85178286 0.8159081 0.7733683
0.7804767 0.79571843 0.88652414 0.77781254 0.871436 0.7876774 1.0142288 0.79056704
0.97352713 0.82009864 1.0105283 0.79879534 0.87110215 0.7472822 0.8553922 1.0027033
0.82101345 1.0931507 0.8190542 0.8551397 0.9258511 1.0481293 0.7462774 0.7349176
1.1222332 0.786672 0.94090974 0.9208403 0.7648184 1.0137173 0.6950104 0.89002603
0.88893896 0.8216169 0.9876874 0.7988308 0.73808974 0.7183575 0.89276063 0.94578034
1.0079406 0.9451956 0.96163327 0.7617859 0.9608028 0.8886733 0.9889988 0.6985164
0.82602483 0.92905796 0.9195556 0.96219826 0.8991085 0.9553964 0.989754 1.1007289
0.9289689 0.87132853 0.86679816 0.97351784 1.0052501 0.9425933 0.9015702 1.0716608
0.93671364 0.83919847 1.1151825 0.88134223 0.97959584 0.8824179 0.84227264 0.87528485
0.96749824 0.985348 0.7956358 0.7763358 0.87270206 0.8817546 0.9145732 0.9237873
0.9389741 0.66877925 0.9475043 0.9844567 0.76174414 0.7920892 0.9901733 0.7411264
0.960511 0.91177535 0.63721275 0.9138088 0.9154439 0.9976841 1.0571483 0.8628115
0.8909341 0.78672206 0.6596075 0.9411086 0.9435266 0.9825236 0.961572 0.8895902
00000000: 2563 573f 8c29 473f 5757 323f 52cc 5f3f
00000010: 6941 7f3f 2c2c 803f 9602 573f 890a 3c3f
00000020: 0a84 7f3f b00a 833f e7ea 443f 0be1 803f
00000030: d3a3 7c3f 94bf 5b3f 898f 733f c8a8 843f
00000040: 1999 5d3f 2725 613f 00fd 733f 4ee9 813f
00000050: b2de 533f 710e 5a3f 5adf 503f 77fb 453f
00000060: 52cd 473f 34b4 4b3f 3ff3 623f b91e 473f
00000070: 6e16 5f3f 3aa5 493f 40d2 813f 9a62 4a3f
00000080: 1339 793f fcf1 513f fe58 813f da7d 4c3f
00000090: 8d00 5f3f e34d 3f3f fcfa 5a3f 9558 803f
000000a0: f02d 523f 5dec 8b3f 89ad 513f 6fea 5a3f
000000b0: 9404 6d3f 1a29 863f 090c 3f3f 8f23 3c3f
000000c0: 56a5 8f3f 5663 493f 76df 703f 31bc 6b3f
000000d0: 23cb 433f 7dc1 813f 34ec 313f bfd8 633f
000000e0: 8191 633f 7c55 523f 15d9 7c3f 2d80 4c3f
000000f0: 73f3 3c3f 47e6 373f f68b 643f a91e 723f
00000100: 3304 813f 57f8 713f 992d 763f 6704 433f
00000110: 2cf7 753f 1880 633f 062f 7d3f f9d1 323f
00000120: 5d76 533f bed6 6d3f ff67 6b3f a052 763f
00000130: fa2b 663f dc94 743f 8560 7d3f afe4 8c3f
00000140: e8d0 6d3f 630f 5f3f 7ce6 5d3f 7738 793f
00000150: 09ac 803f cb4d 713f 4ecd 663f 2e2c 893f
00000160: 77cc 6f3f b6d5 563f 4dbe 8e3f a59f 613f
00000170: cbc6 7a3f 24e6 613f 2e9f 573f ab12 603f
00000180: f7ad 773f c43f 7c3f caae 4b3f f1bd 463f
00000190: 6769 5f3f abba 613f 7821 6a3f 537d 6c3f
000001a0: 9b60 703f 1e35 2b3f a48f 723f 5b05 7c3f
000001b0: aa01 433f 5cc6 4a3f ff7b 7d3f 76ba 3d3f
000001c0: 0de4 753f 1c6a 693f 6020 233f 60ef 693f
000001d0: 885a 6a3f 3a68 7f3f a350 873f 37e1 5c3f
000001e0: 4214 643f 9e66 493f 0adc 283f 7eec 703f
000001f0: f68a 713f ab86 7b3f 9529 763f 2fbc 633f

winner_head.2.bias f4 [128]
0.119907334 -0.17294906 0.4863127 -0.68062854 0.48231623 -0.28104776 -0.7547224 -0.62947214
-0.3461982 0.34190437 0.6210673 0.5274234 0.6446593 0.65125215 0.359562 -0.46397907
-0.18008772 -0.25955206 -0.2495128 -0.09003266 -0.54159766 -0.5465753 -0.49159354 0.78834766
0.3556152 -0.06619484 -0.7269293 -0.07974624 -0.49612287 -0.33436462 -0.23506925 0.54619896
-0.47217953 0.5174477 0.4573272 0.60892355 -0.48654574 -0.30825576 -0.62252766 -0.26757672
0.74740386 -0.51888615 -0.1645037 0.7661047 -0.03744899 -0.4713212 -0.46129444 0.62088954
0.019399062 -0.1775961 -0.09043602 0.26013863 -0.6854052 0.06595647 0.65734977 0.033621524
-0.1847419 -0.4744284 -0.26367337 -0.39168584 -0.29302582 0.19667159 -0.5617582 -0.36434928
-0.29605657 -0.4749397 0.41245386 -0.092751846 0.14351521 0.78945714 -0.4384437 -0.1456966
-0.6098714 0.21234798 -0.3422267 0.27203384 0.7421179 -0.3860565 -0.3751909 -0.28317264
-0.44249412 -0.21076766 -0.22464263 0.19641465 -0.5649216 -0.48458785 -0.6469366 -0.32983384
-0.443832 -0.4864119 -0.2963038 -0.6422899 -0.030172667 0.5132777 -0.099417076 -0.26530367
0.2316292 -0.42306978 -0.5566143 0.7869667 -0.5203154 -0.23313959 0.59998846 -0.007561466
-0.2057538 0.36080584 0.6647261 -0.3030841 0.8659667 -0.6007999 -0.4268803 -0.40695074
-0.3903844 -0.5177762 0.7683876 0.05653646 -0.20436718 -0.543735 -0.08157048 -0.6667477
-0.65674216 -0.5395642 0.7205396 0.3243474 0.14483468 -0.4212936 -0.42428583 0.37962335
00000000: fa91 f53d 8f19 31be fafd f83e ac3d 2ebf
00000010: 27f2 f63e 7ee5 8fbe 7d35 41bf 1625 21bf
00000020: e440 b1be 170e af3e 44fe 1e3f 3805 073f
00000030: 6408 253f 76b8 263f 8318 b83e aa8e edbe
00000040: ea68 38be 02e4 84be 4980 7fbe 0b63 b8bd
00000050: 25a6 0abf 5cec 0bbf 26b2 fbbe 27d1 493f
00000060: 3213 b63e 2991 87bd 0a18 3abf ff51 a3bd
00000070: d103 febe d731 abbe feb5 70be b2d3 0b3f
00000080: 84c1 f1be 7477 043f ca26 ea3e 6ae2 1b3f
00000090: 861c f9be b3d3 9dbe f95d 1fbf d1ff 88be
000000a0: dc55 3f3f b9d5 04bf a873 28be 701f 443f
000000b0: 1d64 19bd 0351 f1be c92e ecbe 9ef2 1e3f
000000c0: c8ea 9e3c c1db 35be 8536 b9bd e430 853e
000000d0: b776 2fbf 3014 873d 1348 283f b9b6 093d
000000e0: fb2c 3dbe 47e8 f2be 3200 87be 0c8b c8be
000000f0: 7b07 96be 4764 493e 63cf 0fbf fd8b babe
00000100: ba94 97be 4c2b f3be 272d d33e aef4 bdbd
00000110: a7f5 123e dd19 4a3f b17b e0be 7d31 15be
00000120: 8820 1cbf c071 593e 5738 afbe 0548 8b3e
00000130: 70fb 3d3f 33a9 c5be 0619 c0be 01fc 90be
00000140: 978e e2be 7ad3 57be b808 66be ec20 493e
00000150: b49e 10bf e61b f8be a39d 25bf fbdf a8be
00000160: f33d e3be fb0a f9be 22b5 97be 1c6d 24bf
00000170: ab2c f7bc 2b66 033f 2e9b cbbd e2d5 87be
00000180: 3430 6d3e 9a9c d8be 467e 0ebf a676 493f
00000190: 6433 05bf 25bc 6ebe d898 193f 2dc6 f7bb
000001a0: 20b1 52be 8bbb b83e 7d2b 2a3f d72d 9bbe
000001b0: feaf 5d3f 06ce 19bf 0e90 dabe d95b d0be
000001c0: 77e0 c7be fb8c 04bf 0db5 443f c692 673d
000001d0: a145 51be 3832 0bbf 6c0e a7bd faaf 2abf
000001e0: 4120 28bf e120 0abf 4975 383f dd10 a63e
000001f0: 8b4f 143e cbb3 d7be fe3b d9be fe5d c23e

winner_head.2.running_mean f4 [128]
0.43595904 0.44732895 0.27091128 0.22498623 0.2831287 0.29462823 0.07057758 0.24265514
0.43087354 0.3814381 0.3006761 0.39586824 0.26029167 0.21971512 0.28232208 0.41698396
0.4016494 0.3659662 0.241234 0.47844657 0.12587123 0.21884908 0.21763927 0.19197212
0.28454503 0.22349678 0.20797504 0.38131863 0.26332188 0.2689242 0.45967576 0.15275297
0.24304631 0.25881782 0.45047057 0.27584478 0.23678876 0.32573637 0.29012752 0.43800458
0.4316586 0.3608375 0.25449222 0.3320574 0.13878623 0.105991505 0.2999994 0.38325876
0.45003417 0.40758145 0.25604156 0.35514098 0.53514194 0.3309224 0.36672926 0.48076984
0.37999582 0.3703623 0.42728817 0.2541933 0.14698866 0.41505554 0.16135147 0.1536932
0.36247766 0.36132616 0.42887506 0.32011196 0.5318924 0.40135595 0.4566196 0.40494522
0.1655395 0.2194264 0.28261647 0.26889107 0.28594807 0.3403483 0.3605316 0.45106494
0.34191808 0.116841316 0.29794413 0.44513822 0.131576 0.17917797 0.21569735 0.27785498
0.2290552 0.29518694 0.3819079 0.09355404 0.21474653 0.30572227 0.2042773 0.4151774
0.22928126 0.43718222 0.40711552 0.15846768 0.26288974 0.20026578 0.4192518 0.45511335
0.36208478 0.33852583 0.364074 0.45506525 0.33543417 0.18414608 0.074441366 0.24146937
0.10030765 0.1429537 0.40437758 0.16325052 0.2451162 0.36412984 0.050227877 0.11992316
0.23573585 0.410002 0.21183941 0.41715297 0.46929297 0.3994991 0.34525755 0.32603893
00000000: 0636 df3e 4d08 e53e e2b4 8a3e ca62 663e
00000010: 3ff6 903e 83d9 963e fa8a 903d 977a 783e
00000020: 759b dc3e db4b c33e 38f2 993e 3eaf ca3e
00000030: f344 853e 00fd 603e 858c 903e ec7e d53e
00000040: fda4 cd3e ec5f bb3e 0c06 773e f3f6 f43e
00000050: 63e4 003e f919 603e d4dc 5e3e 5794 443e
00000060: e3af 913e 57dc 643e 69f7 543e 323c c33e
00000070: 20d2 863e 6fb0 893e 9f5a eb3e 466b 1c3e
00000080: 22e1 783e c583 843e 14a4 e63e 873b 8d3e
00000090: c178 723e ebc6 a63e 988b 943e 2342 e03e
000000a0: 5b02 dd3e b1bf b83e ce4c 823e 6d03 aa3e
000000b0: fa1d 0e3e 1312 d93d 8599 993e 7e3a c43e
000000c0: e16a e63e 84ae d03e e117 833e 0ad5 b53e
000000d0: 10ff 083f a96e a93e f0c3 bb3e 7727 f63e
000000e0: d08e c23e 21a0 bd3e 84c5 da3e a025 823e
000000f0: 3284 163e 2982 d43e 5239 253e c061 1d3e
00000100: ac96 b93e beff b83e 8395 db3e b7e5 a33e
00000110: 1a2a 083f 877e cd3e 0bca e93e fb54 cf3e
00000120: 3083 293e 50b1 603e 1bb3 903e 17ac 893e
00000130: c967 923e 2242 ae3e 9997 b83e fcf1 e63e
00000140: e30f af3e 804a ef3d 228c 983e 28e9 e33e
00000150: dcbb 063e 6e7a 373e c4df 5c3e 0243 8e3e
00000160: 728d 6a3e be22 973e 6f89 c33e 4399 bf3d
00000170: 84e6 5b3e a187 9c3e 122e 513e 2292 d43e
00000180: b5c8 6a3e 59d6 df3e 7271 d03e 5a45 223e
00000190: 7c99 863e 7912 4d3e 2ca8 d63e 9e04 e93e
000001a0: 2d63 b93e 4253 ad3e e867 ba3e 50fe e83e
000001b0: 07be ab3e ca90 3c3e b774 983d bf43 773e
000001c0: 196e cd3d 7462 123e 940a cf3e 252b 273e
000001d0: beff 7a3e 3a6f ba3e bfbb 4d3d 469a f53d
000001e0: bd64 713e c8eb d13e 6eec 583e 1395 d53e
000001f0: 2b47 f03e 258b cc3e 99c5 b03e 93ee a63e

winner_head.2.running_var f4 [128]
0.31880856 0.44076854 0.18161955 0.16683595 0.1667734 0.18462586 0.032148078 0.13788347
0.19963412 0.31890526 0.2232995 0.24247405 0.2147568 0.15211402 0.19839846 0.19405136
0.22235714 0.28405565 0.14164783 0.27652365 0.0774412 0.13538574 0.124119245 0.16155276
0.19108656 0.15776302 0.11276886 0.25907457 0.19286756 0.17204654 0.24420604 0.101942174
0.20422827 0.14843275 0.29822955 0.17445672 0.16701154 0.2143833 0.20563486 0.2113726
0.3693755 0.19331114 0.17283626 0.2681919 0.06537394 0.047275316 0.2036336 0.24588773
0.26258093 0.35420924 0.14448683 0.19392586 0.39230552 0.18973058 0.24865636 0.44771498
0.19604658 0.3069527 0.26605865 0.17058721 0.068542056 0.28795382 0.09860557 0.09488666
0.20551357 0.21872176 0.3183597 0.21415463 0.37546545 0.2645067 0.21952641 0.34459817
0.10831909 0.12374155 0.1818598 0.15888734 0.21411075 0.24873501 0.31358722 0.35122976
0.36311063 0.076932155 0.2139516 0.35212618 0.07446264 0.12611865 0.15260164 0.18430504
0.15610123 0.23122153 0.20842181 0.048979823 0.102789775 0.21805136 0.10223318 0.20455153
0.12121678 0.23476258 0.22910203 0.08837276 0.15111281 0.10869764 0.30382293 0.25203973
0.14947516 0.21293087 0.24317105 0.4053774 0.24317788 0.12531477 0.03638212 0.15661019
0.05345669 0.07437707 0.42265812 0.095148005 0.14979146 0.243353 0.026804408 0.093205296
0.1414641 0.4485868 0.15963006 0.3289294 0.35521388 0.19587189 0.2801302 0.2541751
00000000: e03a a33e 6aac e13e 7afa 393e 0bd7 2a3e
00000010: a5c6 2a3e 900e 3d3e b4ad 033d 5331 0d3e
00000020: e36c 4c3e 8d47 a33e a0a8 643e 1e4b 783e
00000030: 35e9 5b3e c7c3 1b3e f728 4b3e 66b5 463e
00000040: 97b1 633e be6f 913e 210c 113e 8294 8d3e
00000050: 7e99 9e3d 8fa2 0a3e 3b32 fe3d 166e 253e
00000060: 32ac 433e a18c 213e 5cf3 e63d 6ca5 843e
00000070: 137f 453e f82c 303e 2611 7a3e 0fc7 d03d
00000080: 3721 513e c1fe 173e 8bb1 983e c8a4 323e
00000090: 1305 2b3e 4c87 5b3e f291 523e 0f72 583e
000000a0: c91e bd3e 5bf3 453e fdfb 303e 7350 893e
000000b0: c6e2 853d c3a3 413d 5485 503e fec9 7b3e
000000c0: 0271 863e ea5a b53e 5bf4 133e 8094 463e
000000d0: 45dc c83e bc48 423e c69f 7e3e e63a e53e
000000e0: 6fc0 483e e728 9d3e d738 883e 6aae 2e3e
000000f0: c75f 8c3d af6e 933e b8f1 c93d f053 c23d
00000100: 2672 523e 99f8 5f3e 0b00 a33e 5a4b 5b3e
00000110: 023d c03e 6c6d 873e 88cb 603e 2c6f b03e
00000120: 66d6 dd3d 366c fd3d 7539 3a3e 5db3 223e
00000130: d93f 5b3e 64b4 7e3e 818e a03e 63d4 b33e
00000140: a3e9 b93e 9b8e 9d3d 2116 5b3e e249 b43e
00000150: de7f 983d 3f25 013e 9b43 1c3e 76ba 3c3e
00000160: 00d9 1f3e 56c5 6c3e 876c 553e 119f 483d
00000170: 7283 d23d db48 5f3e a15f d13d f575 513e
00000180: 8140 f83d 9a65 703e b999 6a3e c7fc b43d
00000190: 51bd 1a3e de9c de3d ae8e 9b3e 5a0b 813e
000001a0: 0410 193e 8d0a 5a3e d501 793e a08d cf3e
000001b0: 9f03 793e 8452 003e 6b05 153d 6c5e 203e
000001c0: 67f5 5a3d 0153 983d a566 d83e f5dc c23d
000001d0: ef62 193e 8731 793e eb94 db3c 6be2 be3d
000001e0: f7db 103e 2bad e53e 1076 233e 6f69 a83e
000001f0: 98de b53e a492 483e 3a6d 8f3e 3d23 823e

winner_head.4.weight f4 [64, 128]
-0.08479663 0.0021111383 -0.04037441 -0.13540587 0.09483231 -0.028001755 -0.10348775 0.0068511735
-0.15308952 0.19719392 0.14044206 -0.03731924 0.11379853 0.08654598 0.018686676 -0.17421588
-0.079097666 -0.026102377 0.013837364 -0.13047951 -0.04438504 -0.10751454 -0.059693072 0.053277586
-0.16607869 -0.011074982 -0.091156796 -0.097170405 -0.043851424 -0.016392602 -0.13759895 0.05386524
-0.05637297 -0.079806075 -0.11018419 0.05739889 0.03288272 -0.0003897543 -0.10448345 0.006636905
0.059222095 -0.08821058 0.09809614 0.17474045 0.010060205 -0.051480733 0.031160003 0.05278168
-0.20839843 0.08858227 0.06211892 -0.039521582 -0.073208675 0.022014968 0.06805899 0.021526366
-0.0651891 -0.06819419 -0.059379186 -0.062614165 -0.10356154 -0.072437175 -0.07058845 -0.045138765
-0.19262579 0.0015132513 0.089527845 0.01342308 -0.02822591 0.02279372 -0.14099106 -0.04954588
-0.07637645 0.054443464 -0.13410945 -0.12710918 0.053053647 -0.18086123 -0.04087074 -0.117554344
0.019304685 -0.07959035 -0.060604222 0.0382909 -0.094566904 -0.12957662 -0.02262225 -0.030382933
-0.07194294 -0.105162956 -0.05317188 -0.14527646 -0.12434573 -0.04179339 -0.056682594 -0.07269794
0.023578906 -0.060728032 -0.06376793 0.04033614 -0.0298166 -0.0056933034 -0.085759126 -0.028287405
-0.13438152 0.07882627 0.08884992 -0.08545572 -0.12876491 -0.020179156 -0.13777226 -0.021797117
-0.005791428 -0.033134893 0.047238432 -0.10361071 -0.05923554 -0.07506826 -0.061218772 -0.11937603
-0.11227488 0.047677707 0.05737425 0.083583996 -0.024143752 -0.15593736 0.03479707 0.11640804
0.04375361 -0.13815397 0.064437225 0.0007738804 -0.05035051 -0.09379835 0.030940648 0.026479045
-0.10681152 0.05300743 0.008188169 0.0972091 0.029744033 0.063927926 0.025641516 -0.047160625
0.044252902 -0.015566088 -0.14608768 0.015020013 -0.07641312 -0.03313068 -0.11898652 0.041571014
0.11979678 0.022700349 0.036942236 0.06757806 -0.0858856 -0.064192474 -0.08029564 -0.15170595
-0.14853601 0.060454782 -0.0057423245 -0.092075944 -0.009347891 0.053793516 -0.09307279 -0.05236347
0.17187671 0.04740246 -0.05268591 -0.07949028 -0.020225633 -0.11772753 0.037918027 0.085843645
0.050474863 -0.11015463 -0.20830044 0.02200807 -0.001446184 0.035089597 -0.008297168 -0.009956893
-0.08705574 -0.0071079587 -0.05737445 0.046583816 0.060601294 -0.03839297 -0.028712481 -0.032686125
0.08412128 -0.0701362 0.064659536 -0.098161936 -0.011990502 -0.016765807 0.030652707 -0.06922395
-0.04057842 0.0005872395 -0.019502673 -0.05765832 -0.096473694 -0.10442965 -0.10587082 0.016483612
-0.0057442673 -0.13464557 -0.06588339 -0.030400354 -0.1361688 -0.033997476 -0.18722706 0.041577335
-0.100501105 -0.051655985 -0.07285383 -0.11171321 0.051047895 -0.09858886 -0.108056866 0.09523988
-0.014405626 0.04910263 -0.07322676 0.026220495 0.030857291 -0.00596637 -0.0065711085 -0.061088786
0.013672761 -0.04185288 0.062113613 0.035002235 0.07582839 -0.07775155 -0.058631666 -0.0011378463
-0.104463995 -0.10279504 0.0018289309 0.09492409 -0.10189075 0.0481486 -0.031682126 -0.041713133
0.051147692 -0.035802644 -0.05739444 0.04402057 -0.008987792 -0.15382864 -0.032728083 0.024653966
00000000: dba9 adbd 065b 0a3b a35f 25bd d6a7 0abe
00000010: 7137 c23d f063 e5bc 63f1 d3bd cf7f e03b
00000020: 80c3 1cbe 34ed 493e 0bd0 0f3e 0fdc 18bd
00000030: 340f e93d 053f b13d cd14 993c a665 32be
00000040: f5fd a1bd a7d4 d5bc 1cb6 623c 6c9c 05be
00000050: 16cd 35bd 9530 dcbd b980 74bd 9939 5a3d
00000060: 8810 2abe d773 35bc 6ab0 babd 4701 c7bd
00000070: 8d9d 33bd c749 86bc bde6 0cbe cca1 5c3d
00000080: 58e7 66bd 5e71 a3bd 40a8 e1bd 191b 6b3d
00000090: 08b0 063d f057 ccb9 6bfb d5bd 657a d93b
000000a0: de92 723d c0a7 b4bd a1e6 c83d 29ef 323e
000000b0: 8fd3 243c 76dd 52bd 4343 ff3c 9a31 583d
000000c0: 6666 55be 9f6a b53d 6970 7e3d 62e1 21bd
000000d0: 6eee 95bd bc58 b43c 8362 8b3d 1058 b03c
000000e0: dd81 85bd 65a9 8bbd 9737 73bd db3b 80bd
000000f0: 1318 d4bd f159 94bd ad90 90bd 6de3 38bd
00000100: b23f 45be 4a58 c63a 605a b73d 7aec 5b3c
00000110: 063a e7bc e5b9 ba3c f65f 10be 9ff0 4abd
00000120: 426b 9cbd 1c00 5f3d fd53 09be e928 02be
00000130: c84e 593d b033 39be 1468 27bd 55c0 f0bd
00000140: dc24 9e3c 4400 a3bd 223c 78bd ebd6 1c3d
00000150: 4bac c1bd bcaf 04be 4c52 b9bc a1e5 f8bc
00000160: d256 93bd ad5f d7bd c2ca 59bd 5ac3 14be
00000170: f9a8 febd 8c2f 2bbd 022c 68bd a8e2 94bd
00000180: 8d28 c13c f5bd 78bd c398 82bd 8237 253d
00000190: f141 f4bc e48e babb 7ba2 afbd fdba e7bc
000001a0: 4f9b 09be ab6f a13d f2f6 b53d 6903 afbd
000001b0: f3da 03be c24e a5bc 2c14 0dbe de8f b2bc
000001c0: 05c6 bdbb 74b8 07bd 167d 413d da31 d4bd
000001d0: f7a0 72bd 63bd 99bd 89c0 7abd 6c7b f4bd
000001e0: 5ff0 e5bd b349 433d 4301 6b3d 162e ab3d
000001f0: 1ec9 c5bc 0bae 1fbe 5f87 0e3d 5767 ee3d
00000200: fc36 333d 3c78 0dbe aaf7 833d 3cde 4a3a
00000210: 563c 4ebd 5919 c0bd 3e77 fd3c 95ea d83c
00000220: 00c0 dabd 521e 593d ac27 063c 9115 c73d
00000230: c2a9 f33c a5ec 823d 280e d23c 802b 41bd
00000240: 8842 353d e808 7fbc 0298 15be 8016 763c
00000250: 7b7e 9cbd 09b4 07bd 34af f3bd 5e46 2a3d
00000260: 0458 f53d 15f6 b93c be50 173d 5e66 8a3d
00000270: cae4 afbd 5877 83bd 0a72 a4bd ce58 1bbe
00000280: d319 18be 6f9f 773d 1c2a bcbb 5092 bcbd
00000290: e627 19bc 9756 5c3d f29c bebd 147b 56bd
000002a0: 7300 303e 1529 423d 2ecd 57bd cdcb a2bd
000002b0: 3ab0 a5bc 221b f1bd ef4f 1b3d cbce af3d
000002c0: bbbe 4e3d c098 e1bd b64c 55be 454a b43c
000002d0: e28d bdba 1cba 0f3d d8f0 07bc 3c22 23bc
000002e0: 484a b2bd e1e9 e8bb 7901 6bbd acce 3e3d
000002f0: 1039 783d f241 1dbd 7036 ebbc e3e1 05bd
00000300: c747 ac3d 91a3 8fbd 386c 843d 2009 c9bd
00000310: cf73 44bc 7258 89bc 631b fb3c 49c5 8dbd
00000320: 8f35 26bd faf0 193a 12c4 9fbc 212b 6cbd
00000330: 0094 c5bd 36df d5bd cdd2 d8bd a408 873c
00000340: 683a bcbb 87e0 09be dfed 86bd 2a0a f9bc
00000350: d56f 0bbe f040 0bbd 73b8 3fbe ff4c 2a3d
00000360: 86d3 cdbd 3a95 53bd 6434 95bd e5c9 e4bd
00000370: 9917 513d f5e8 c9bd eb4c ddbd 200d c33d
00000380: 9305 6cbc d71f 493d e9f7 95bd 5dcc d63c
00000390: 6ec8 fc3c 8a81 c3bb 7452 d7bb 3c38 7abd
000003a0: b703 603c ed6d 2bbd d86a 7e3d 815e 0f3d
000003b0: ea4b 9b3d 343c 9fbd c227 70bd c923 95ba
000003c0: 38f1 d5bd 3586 d2bd bdb8 ef3a 9067 c23d
000003d0: 19ac d0bd 7737 453d 1ec5 01bd 64db 2abd
000003e0: 3e80 513d cba5 12bd 6f16 6bbd ea4e 343d
000003f0: 8841 13bc 4185 1dbe e20d 06bd 1df7 c93c

winner_head.4.bias f4 [64]
0.44279805 0.011215012 0.426622 0.47937948 -0.10056461 0.24438056 -0.44730246 0.43063802
-0.41820526 -0.16652955 -0.6089515 0.43524873 0.38796172 0.09124999 0.36375844 0.39994758
0.32254717 -0.119025305 0.2634894 0.45525643 -0.1670279 -0.6006482 -0.5039628 0.4496294
-0.3468768 -0.4473056 -0.20295677 -0.13213764 -0.341328 -0.11043848 0.25759435 0.0142320935
-0.07399627 -0.07418294 -0.5069228 -0.5335888 0.28286254 0.48146394 -0.41547808 0.1010211
0.45379767 -0.20910823 0.43136045 0.36018288 0.23724154 0.2721257 -0.21186344 0.30340418
-0.49223432 -0.008038589 -0.3689923 0.1809204 0.4637455 0.028362704 -0.22933029 -0.68790764
0.2979787 0.017797478 0.07372668 -0.5332311 -0.060922164 0.38888776 -0.4244134 0.20000754
00000000: 6db6 e23e 2bbf 373c 336e da3e 3a71 f53e
00000010: d1f4 cdbd e63e 7a3e d404 e5be 967c dc3e
00000020: 001f d6be b986 2abe 3fe4 1bbf ecd8 de3e
00000030: eba2 c63e 46e1 ba3d 8c3e ba3e eec5 cc3e
00000040: e724 a53e 8ac3 f3bd 15e8 863e 5f17 e93e
00000050: 5d09 2bbe 15c4 19bf b503 01bf d335 e63e
00000060: d699 b1be 3d05 e5be e6d3 4fbe 174f 07be
00000070: 8bc2 aebe 922d e2bd 68e3 833e ba2d 693c
00000080: 5b8b 97bd 3aed 97bd b1c5 01bf 4799 08bf
00000090: 5cd3 903e 7182 f63e 8bb9 d4be 27e4 ce3d
000000a0: 2b58 e83e 7820 56be 47db dc3e e469 b83e
000000b0: 72ef 723e 0f54 8b3e bbf2 58be cb57 9b3e
000000c0: 2306 fcbe 49b4 03bc 8fec bcbe 3343 393e
000000d0: 0d70 ed3e e758 e83c 8fd5 6abe b71a 30bf
000000e0: aa90 983e 04cc 913c 03fe 963d d581 08bf
000000f0: 8589 79bd 4c1c c73e b74c d9be c7ce 4c3e

winner_head.6.weight f4 [64]
0.46552116 0.27943432 0.6281923 0.43666172 0.41431502 0.557154 0.8184206 0.34257263
0.5267295 0.35854307 0.79014033 0.47475612 0.5117857 0.21790229 0.24357155 0.59493524
0.70062697 0.37821573 0.46190807 0.5629945 0.26422518 0.7483582 0.7626627 0.4518386
0.7318392 0.8077014 0.3847176 0.45374265 0.6004159 0.4151768 0.27383578 0.2757817
0.27531412 0.29051423 0.70165575 0.80978197 0.4877087 0.6681724 0.7124888 0.31483284
0.6412936 0.2882476 0.66907674 0.43601492 0.4653392 0.52922827 0.30205074 0.5405504
0.7250553 0.25818488 0.6306698 0.5498402 0.51906794 0.23510133 0.51111543 0.8663983
0.4632549 0.32000303 0.31587225 0.80339897 0.34400904 0.48519194 0.84317285 0.4731941
00000000: ca58 ee3e 0412 8f3e 36d1 203f 2092 df3e
00000010: 1921 d43e a5a1 0e3f 0384 513f ae65 af3e
00000020: bfd7 063f f592 b73e a346 4a3f 3c13 f33e
00000030: 6304 033f c721 5f3e d26a 793e ad4d 183f
00000040: 4a5c 333f 7ea5 c13e 377f ec3e 6820 103f
00000050: 8648 873e 6794 3f3f dd3d 433f 6457 e73e
00000060: d059 3b3f 85c5 4e3f b5f9 c43e f550 e83e
00000070: dbb4 193f 0e92 d43e 3434 8c3e 4233 8d3e
00000080: f9f5 8c3e 48be 943e b69f 333f df4d 4f3f
00000090: f4b4 f93e 590d 2b3f aa65 363f c531 a13e
000000a0: d12b 243f 3095 933e 9d48 2b3f 593d df3e
000000b0: f140 ee3e 817b 073f 65a6 9a3e 8361 0a3f
000000c0: 399d 393f cf30 843e 9373 213f 54c2 0c3f
000000d0: a3e1 043f 67be 703e 76d8 023f 47cc 5d3f
000000e0: bf2f ed3e 70d7 a33e 02ba a13e 8eab 4d3f
000000f0: f421 b03e 146b f83e 2dda 573f 7f46 f23e

winner_head.6.bias f4 [64]
0.72942245 -0.28226966 0.76619995 0.7252539 0.025467867 0.6132711 0.020123925 0.34635028
0.02293577 -0.004014133 0.018116495 0.6907994 0.64984334 -0.07929615 0.45162502 0.6796941
0.7528866 0.054100066 0.5674762 0.7307655 0.052598868 0.03861212 0.03902496 0.5957512
0.048804455 0.032151125 0.09549741 0.035017803 -0.06960675 0.010824606 0.21820849 0.10397545
-0.10894867 0.034582764 0.025740765 0.026239514 0.72705287 0.78648067 0.012484207 0.068137236
0.6810757 -0.45886934 0.74030733 0.7298747 0.6649035 0.6649116 -0.0020240876 0.7090872
0.011463213 -0.0012317589 0.043029033 0.602935 0.7278381 0.04165011 0.016483635 0.011929104
0.6414571 0.074368656 -0.2759099 0.031968426 0.075355455 0.6379498 0.04405966 0.5041536
00000000: 6ebb 3a3f a685 90be ae25 443f 3daa 393f
00000010: fda1 d03c 56ff 1c3f eeda a43c d354 b13e
00000020: cce3 bb3c fd88 83bb 0b69 943c 3bd8 303f
00000030: 225c 263f 0566 a2bd 653b e73e 6f00 2e3f
00000040: 2dbd 403f 0898 5d3d 1f46 113f 7313 3b3f
00000050: e971 573d be27 1e3d a3d8 1f3d 2783 183f
00000060: 2ee7 473d e6b0 033d 2594 c33d d46e 0f3d
00000070: fc8d 8ebd b059 313c 0c72 5f3e 15f1 d43d
00000080: 7b20 dfbd a8a6 0d3d 4cde d23c 40f4 d63c
00000090: 2320 3a3f cc56 493f 8f8a 4c3c 898b 8b3d
000000a0: fa5a 2e3f ecf0 eabe c884 3d3f 11d9 3a3f
000000b0: 1e37 2a3f a637 2a3f 8ea6 04bb bd86 353f
000000c0: 33d0 3b3c f872 a1ba 363f 303d f359 1a3f
000000d0: 9953 3a3f 4e99 2a3d b008 873c 4a72 433c
000000e0: 8836 243f 984e 983d 1044 8dbe 53f1 023d
000000f0: f653 9a3d ae50 233f e777 343d 3610 013f

winner_head.6.running_mean f4 [64]
3.2518814 1.6217339 3.4896753 1.3022543 0.0006321407 1.224117 0.0004018076 2.5838406
0.0030551818 0.016077615 0.0019795303 2.400371 3.41771 0.35257453 1.792948 3.0960422
3.1677463 0.022561919 1.8216609 3.6997476 0.0037831385 0.011076903 0.0014620903 1.7869201
0.00026701606 0.00369956 0.008010993 0.012200957 0.017168608 0.005036866 2.1085126 1.0277045
1.1088699 0.0014068629 0.0038695764 0.0033383989 2.8101974 3.7404485 0.0022039015 1.1029739
3.4214098 1.4444453 3.3966155 2.2705464 1.1346775 1.6941049 0.013776166 3.4292367
0.0013032496 0.0063490835 0.025514754 0.92124593 1.8399941 1.0040116 0.0051848097 0.0026904393
2.7568898 0.5703814 1.287868 0.005953758 0.022148069 2.1952455 0.0032995853 1.3184208
00000000: d31e 5040 fa94 cf3f d756 5f40 45b0 a63f
00000010: 3fb6 253a deaf 9c3f b4a9 d239 a55d 2540
00000020: 7239 483b 34b5 833c 02bb 013b ae9f 1940
00000030: c3bb 5a40 a684 b43e 527f e53f 8e25 4640
00000040: 5bbc 4a40 c6d3 b83c 2f2c e93f aac8 6c40
00000050: 88ee 773b e67b 353c 9ca3 bf3a ccb9 e43f
00000060: 4afe 8b39 5174 723b 8a40 033c 86e6 473c
00000070: 2ea5 8c3c 4b0c a53b dff1 0640 d28b 833f
00000080: 73ef 8d3f 7c66 b83a b898 7d3b 0ac9 5a3b
00000090: 46da 3340 8263 6f40 556f 103b 402e 8d3f
000000a0: 61f8 5a40 95e3 b83f 2662 5940 a250 1140
000000b0: 1d3d 913f 6ed8 d83f 6eb5 613c 9d78 5b40
000000c0: cdd1 aa3a f90b d03b 5104 d13c c6d6 6b3f
000000d0: ed84 eb3f 7483 803f 56e5 a93b 1552 303b
000000e0: e270 3040 8404 123f dcd8 a43f be17 c33b
000000f0: de6f b53c e77e 0c40 db3d 583b 03c2 a83f

winner_head.6.running_var f4 [64]
5.6360617 1.4520675 9.879644 1.3674645 0.00054107665 2.1370015 0.0004480439 4.4757605
0.005236901 0.05191051 0.0028586546 4.024304 8.282731 0.46736622 1.6000146 6.5847497
9.070992 0.07006357 2.8408015 8.656312 0.0052206325 0.03428374 0.0018029666 2.471154
0.00024197219 0.0060639 0.017019413 0.03281086 0.051979877 0.009308803 3.2152574 1.2298673
1.3345147 0.001552672 0.00752007 0.0055832304 5.2908335 9.721833 0.0028122263 1.9329358
8.353549 1.9194286 8.312939 1.9228348 1.7079742 2.6883771 0.013622854 8.300981
0.0013044329 0.012709741 0.10396746 1.5414373 3.184817 1.2294912 0.010259352 0.004538188
5.209906 1.0364238 1.7851539 0.01306433 0.062086128 4.269218 0.0053458903 2.2873917
00000000: 9e5a b440 59dd b93f 0613 1e41 1409 af3f
00000010: 0ad7 0d3a a2c4 0840 6fe7 ea39 6e39 8f40
00000020: 4f9a ab3b 1da0 543d 4458 3b3b 19c7 8040
00000030: 1186 0441 a04a ef3e 47cd cc3f 45b6 d240
00000040: c922 1141 7d7d 8f3d b1cf 3540 4180 0a41
00000050: d711 ab3b 1b6d 0c3d 8551 ec3a 6327 1e40
00000060: eab9 7d39 aeb3 c63b 4c6c 8b3c ae64 063d
00000070: dae8 543d f383 183c c7c6 4d40 4b6c 9d3f
00000080: 61d1 aa3f 0783 cb3a eb6a f63b 88f3 b63b
00000090: 824e a940 a18c 1b41 544d 383b 716a f73f
000000a0: 23a8 0541 d6af f53f cc01 0541 731f f63f
000000b0: e69e da3f 5f0e 2c40 6432 5f3c d1d0 0441
000000c0: 81f9 aa3a 843c 503c e4ec d43d d14d c53f
000000d0: 0bd4 4b40 f85f 9d3f d716 283c 15b5 943b
000000e0: 8db7 a640 89a9 843f ec7f e43f c60b 563c
000000f0: 064e 7e3d 6f9d 8840 942c af3b a064 1240

winner_head.8.weight f4 [32, 64]
-0.15634684 0.026455704 -0.321756 -0.17338184 0.0043240744 -0.15267718 -0.017977072 -0.025794411
0.016303545 0.026229125 0.0066529494 -0.20362096 -0.2461269 0.0026379311 -0.025204776 -0.19880883
-0.28425813 0.013537517 -0.08771387 -0.27097893 0.0031584294 0.01257648 -0.01994757 -0.12862094
0.021964483 0.022849746 0.005423879 0.035268947 0.025339428 0.009689066 -0.01742664 0.022475673
0.008959755 0.018007323 -0.010705758 0.017119803 -0.09640318 -0.33283928 0.011301552 -0.013514251
-0.29158556 0.013070175 -0.28050202 -0.13330117 -0.18997726 -0.17633182 0.011810255 -0.22237329
-0.002656595 0.0015979172 -0.008714902 -0.12734641 -0.17935273 0.0002342457 0.03821602 0.018943327
-0.11236894 0.002308342 0.014854034 0.021364368 0.0049871863 -0.15054043 0.013599934 -0.10429469
0.004430242 -0.0010567094 -0.0001823103 -0.00015809502 -0.0117101595 0.0040099616 -0.04631596 0.0020921435
-0.024665251 -0.012652796 -0.026238233 -0.0002578336 -0.002012323 -0.025372861 0.0058858097 -0.00050615857
-0.0031128884 -0.018908506 0.0024427145 0.00063505676 -0.02547015 -0.06370025 -0.069516584 0.0010077251
-0.0033260833 -0.036452055 0.00016599613 -0.009914653 -0.012848958 -0.013675226 -0.0071979365 -0.003981405
0.0030715265 -0.022553343 -0.03490238 -0.040595513 -0.0029061441 0.0035969499 -0.035168123 -0.00554833
0.0031808298 -0.003104819 -0.007486642 -0.0007162272 -0.006753162 2.2889013e-05 -0.027497092 -0.0037407882
-0.036540844 0.01846279 0.060168948 0.005629466 0.0039293612 0.0002683802 0.0006497764 -0.035945356
-0.0021137015 0.00937365 -0.0033146476 -0.037290167 -0.030567821 -0.0049667996 -0.05953213 -0.0007439564
-0.0031782573 0.013068001 -0.0017724874 -0.00035510122 0.022520462 -0.001401475 -0.07267875 -0.0036384237
-0.029634694 -0.013380675 -0.029991165 0.006890338 -0.006546587 -0.00038236717 -0.001605389 0.0020540857
-0.0016574071 0.012206297 0.0014171647 0.0012037805 -0.0006818305 -0.069010645 -0.07962039 -0.0052153333
0.025807848 -0.069160186 0.036272354 0.02257785 -0.023132991 -0.0041185496 -0.0074758055 -0.01014877
-0.01423047 0.010179099 -0.044820186 -0.033802565 5.524235e-05 -0.0013139303 -0.03617814 -0.0009950923
0.0070029637 -0.011748786 -0.00063201116 -0.0016924514 0.00095417904 0.0055109765 -0.00039370634 -0.0012841916
-0.02601642 0.026364855 0.022877876 -0.0028810634 0.002159643 0.000119437915 0.020985913 -0.03806672
0.004406295 -0.0031585053 -0.005633531 -0.06800703 0.026621176 -0.0055080266 -0.05951774 -0.00061400747
-0.1903586 0.03203497 -0.3388449 -0.2232729 -0.0033193387 -0.16418812 -0.0071046227 -0.017776782
0.036179088 0.02958022 0.0031519313 -0.19710009 -0.26476353 0.009818878 -0.017559407 -0.2136148
-0.2707935 0.012649766 -0.07942669 -0.28890878 0.028277352 0.016039977 -0.017720489 -0.086207636
0.019337155 0.018788544 0.04129649 0.04311229 0.046443973 0.011417483 0.00092386093 0.0062607583
0.0044707633 0.01436907 -0.0069503505 0.0002684097 -0.090385064 -0.27965975 0.009944793 0.008319768
-0.29549462 0.013526687 -0.28205803 -0.110850595 -0.17133869 -0.15664747 -0.003200239 -0.23777275
-0.0073575038 0.02286498 -0.004248744 -0.13882676 -0.18426263 -0.0035800484 0.014302793 0.009070918
-0.11384261 -0.0022333276 0.016492574 0.023643704 0.002101213 -0.1615435 0.029739177 -0.099355064
00000000: 6319 20be a2b9 d83c 34bd a4be 028b 31be
00000010: f7b0 8d3b 6857 1cbe a744 93bc cd4e d3bc
00000020: 038f 853c 76de d63c fc00 da3b 0382 50be
00000030: b108 7cbe 24e1 2c3b 3f7a cebc 8b94 4bbe
00000040: 488a 91be 76cc 5d3c 54a3 b3bd c0bd 8abe
00000050: a7fd 4e3b 950d 4e3c 1669 a3bc 35b5 03be
00000060: dcee b33c 642f bb3c cbba b13b 2c76 103d
00000070: a294 cf3c e3be 1e3c 50c2 8ebc e71e b83c
00000080: f0cb 123c 1884 933c 3467 2fbc d43e 8c3c
00000090: 086f c5bd e969 aabe 252a 393c e16a 5dbc
000000a0: b44a 95be 4a24 563c f69d 8fbe 1a80 08be
000000b0: 6689 42be 5490 34be cd7f 413c d3b5 63be
000000c0: 451a 2ebb 3471 d13a f3c8 0ebc 1967 02be
000000d0: 3ea8 37be da9f 7539 6788 1c3d 092f 9b3c
000000e0: b021 e6bd 8d47 173b 565e 733c 5404 af3c
000000f0: 8d6b a33b 4527 1abe 42d2 5e3c 7498 d5bd
00000100: 902b 913b 4981 8aba 8c2a 3fb9 4fc6 25b9
00000110: f8db 3fbc ff65 833b ceb5 3dbd 581c 093b
00000120: c80e cabc ac4d 4fbc 90f1 d6bc d72d 87b9
00000130: 2de1 03bb bfda cfbc c0dd c03b baaf 04ba
00000140: 9a01 4cbb 03e6 9abc f315 203b f079 263a
00000150: c7a6 d0bc 4775 82bd b65e 8ebd a515 843a
00000160: 6bfa 59bb c04e 15bd 3f0f 2e39 1271 22bc
00000170: 7084 52bc 0e0e 60bc abdc ebbb 7276 82bb
00000180: aa4b 493b cac1 b8bc ccf5 0ebd 7b47 26bd
00000190: 0275 3ebb ceba 6b3b 730c 10bd c4ce b5bb
000001a0: 7875 503b 387a 4bbb 8152 f5bb 32c1 3bba
000001b0: a149 ddbb c801 c037 9541 e1bc 0328 75bb
000001c0: daab 15bd 473f 973c b773 763d 6277 b83b
000001d0: dfc1 803b 61b5 8c39 c255 2a3a 703b 13bd
000001e0: 0786 0abb f093 193c 8f3a 59bb 93bd 18bd
000001f0: 5e69 fabc 89c0 a2bb f6d7 73bd 1206 43ba
00000200: 4f4a 50bb 2b1b 563c cf52 e8ba e12c bab9
00000210: d57c b83c b3b1 b7ba 99d8 94bd 9f72 6ebb
00000220: 75c4 f2bc 9e3a 5bbc 08b0 f5bc 58c8 e13b
00000230: c184 d6bb 7478 c8b9 eb6b d2ba d79d 063b
00000240: 5b3d d9ba ecfc 473c 28c0 b93a 2cc8 9d3a
00000250: dfbc 32ba 7455 8dbd 0410 a3bd 63e5 aabb
00000260: fb6a d33c dba3 8dbd 5292 143d 2ff5 b83c
00000270: 6681 bdbc e6f4 86bb 9af7 f4bb 0747 26bc
00000280: eb26 69bc 3cc6 263c 5f95 37bd 8f74 0abd
00000290: 06b4 6738 2f38 acba 882f 14bd c26d 82ba
000002a0: 1e79 e53b fb7d 40bc 8dad 25ba 3fd5 ddba
000002b0: df21 7a3a 6c95 b43b 5f6a ceb9 5252 a8ba
000002c0: 6320 d5bc 1cfb d73c 626a bb3c 39d0 3cbb
000002d0: cc88 0d3b be7a fa38 a6ea ab3c d9eb 1bbd
000002e0: ae62 903b edfe 4ebb 7c99 b8bb 4547 8bbd
000002f0: a714 da3c ad7c b4bb e0c8 73bd 58f5 20ba
00000300: 5ded 42be 1a37 033d 147d adbe a7a1 64be
00000310: 4389 59bb ee20 28be e5cd e8bb 9da0 91bc
00000320: 8630 143d 3852 f23c a290 4e3b 9bd4 49be
00000330: 168f 87be 5cdf 203c bfd8 8fbc d7bd 5abe
00000340: 72a5 8abe f740 4f3c 76aa a2bd daeb 93be
00000350: e8a5 e73c 4566 833c 8f2a 91bc a18d b0bd
00000360: f468 9e3c 6fea 993c 8226 293d 8396 303d
00000370: 093c 3e3d 6510 3b3c 422f 723a 0c27 cd3b
00000380: 7b7f 923b 3f6c 6b3c c4bf e3bb 57b9 8c39
00000390: ce1b b9bd 902f 8fbe 7cef 223c a34f 083c
000003a0: 124b 97be 0a9f 5d3c e969 90be a305 e3bd
000003b0: 6973 2fbe 3268 20be 1abb 51bb b37a 73be
000003c0: 3717 f1bb 574f bb3c 0c39 8bbb 9a28 0ebe
000003d0: 58af 3cbe 3f9f 6abb 4356 6a3c 309e 143c
000003e0: 5026 e9bd 055d 12bb 6f1b 873c 71b0 c13c
000003f0: 81b4 093b a96b 25be 939f f33c ab7a cbbd

winner_head.8.bias f4 [32]
0.3502571 1.4767443 1.5029087 0.35196874 1.4048111 0.3678052 0.4155696 0.3359248
1.3144382 1.379392 1.5795884 0.33207864 1.4129512 0.3842194 0.3382541 0.34063575
1.2759248 0.3664471 1.3759373 0.35923684 0.28740996 1.2887639 0.38698015 0.34316012
0.2996363 0.43891072 0.33304122 0.3490861 1.4515193 1.4446573 1.50092 1.3797975
00000000: e654 b33e f505 bd3f 505f c03f 3f35 b43e
00000010: dad0 b33f f750 bc3e 8ac5 d43e 56fe ab3e
00000020: 833f a83f eb8f b03f f42f ca3f 3606 aa3e
00000030: 96db b43f 68b8 c43e a42f ad3e cf67 ae3e
00000040: 8151 a33f f49e bb3e b71e b03f e4ed b73e
00000050: 6627 933e 37f6 a43f 4322 c63e afb2 af3e
00000060: ee69 993e e8b8 e03e 6184 aa3e 6abb b23e
00000070: 62cb b93f 88ea b83f 261e c03f 349d b03f

winner_head.10.weight f4 [32]
2.4310517 2.4101632 2.488068 2.4898038 2.4322183 2.4962006 2.5489576 2.457314
2.355226 2.3862634 2.5460782 2.3842466 2.4469445 2.5291336 2.4350276 2.4447532
2.3257735 2.4436195 2.4342518 2.4141452 2.4010472 2.3259895 2.4088333 2.4288642
2.3580563 2.506172 2.428999 2.5305893 2.3679128 2.3884394 2.43528 2.405045
00000000: 5a96 1b40 1d40 1a40 823c 1f40 f258 1f40
00000010: 77a9 1b40 c0c1 1f40 1f22 2340 a244 1d40
00000020: 06bc 1640 8ab8 1840 f2f2 2240 7f97 1840
00000030: bd9a 1c40 53dd 2140 7ed7 1b40 d676 1c40
00000040: 79d9 1440 4364 1c40 c8ca 1b40 5b81 1a40
00000050: c2aa 1940 03dd 1440 532a 1a40 8372 1b40
00000060: 65ea 1640 1f65 2040 b874 1b40 2df5 2140
00000070: e28b 1740 31dc 1840 a1db 1b40 42ec 1940

winner_head.10.bias f4 [32]
-1.9560971 1.9566698 2.0837283 -2.027757 1.9938444 -2.0527217 -2.1069124 -1.9828161
1.9091636 1.9502667 2.1117063 -1.8984481 2.0096536 -2.1112685 -1.9576346 -1.9739293
1.8752367 -1.972673 2.0065038 -1.9358326 -1.9201756 1.867411 -1.9276744 -1.9492497
-1.8551607 -2.0862186 -1.9570898 -2.0964622 1.9297948 1.9464284 2.002285 1.9757215
00000000: 6461 fabf 2874 fa3f ce5b 0540 c5c6 01c0
00000010: 4b36 ff3f cb5f 03c0 a7d7 06c0 ebcc fdbf
00000020: 795f f43f 57a2 f93f 3226 0740 5900 f3bf
00000030: 2a9e 0040 061f 07c0 c593 fabf b7a9 fcbf
00000040: c207 f03f 8d80 fcbf 8f6a 0040 5dc9 f7bf
00000050: 50c8 f5bf 5307 ef3f 09be f6bf 0481 f9bf
00000060: e875 edbf 9b84 05c0 eb81 fabf 702c 06c0
00000070: 8403 f73f 9124 f93f 7025 0040 71e4 fc3f

winner_head.10.running_mean f4 [32]
0.006753093 1.468763 1.4995344 0.008841906 1.393937 0.007258723 0.0071318904 0.008759636
1.3206619 1.3776486 1.5626725 0.0120497225 1.4207593 0.008880071 0.012986758 0.009644825
1.2659751 0.009376092 1.3696411 0.008672605 0.008394323 1.2688816 0.011385606 0.013152719
0.0043612006 0.0053576897 0.012292315 0.008756104 1.4395146 1.4523482 1.4766105 1.3823189
00000000: 0d49 dd3b 6d00 bc3f bef0 bf3f a4dd 103c
00000010: 876c b23f 95da ed3b a2b2 e93b 9484 0f3c
00000020: 730b a93f ca56 b03f a705 c83f 336c 453c
00000030: 71db b53f b87d 113c 69c6 543c 5405 1e3c
00000040: 790b a23f 2e9e 193c 6650 af3f 8b17 0e3c
00000050: 5888 093c b66a a23f b18a 3a3c 807e 573c
00000060: 67e8 8e3b 8f8f af3b b565 493c c375 0f3c
00000070: 0442 b83f 8ce6 b93f 9301 bd3f d3ef b03f

winner_head.10.running_var f4 [32]
0.016745333 0.009580414 0.009785872 0.026709277 0.0079571 0.018749991 0.018911328 0.027360456
0.0076120524 0.009059944 0.011244395 0.04520147 0.00958805 0.0273366 0.052642554 0.030660184
0.007911668 0.027874345 0.008616445 0.026062295 0.023041103 0.007824829 0.042934902 0.054953393
0.007641444 0.012896988 0.050188564 0.026581094 0.010236816 0.009651834 0.0104361195 0.008994832
00000000: 822d 893c 2bf7 1c3c ec54 203c 6acd da3c
00000010: 7f5e 023c 9599 993c eeeb 9a3c 0923 e03c
00000020: 866e f93b 2970 143c 693a 383c 2d25 393d
00000030: 3217 1d3c 01f1 df3c b89f 573d 112b fb3c
00000040: f19f 013c bd58 e43c fd2b 0d3c 9880 d53c
00000050: b2c0 bc3c b633 003c 82dc 2f3d cf16 613d
00000060: 1465 fa3b e34d 533c 8692 4d3d 98c0 d93c
00000070: 51b8 273c ba22 1e3c 42fc 2a3c 0f5f 133c

winner_head.12.weight f4 [1, 32]
0.009478166 0.0075844806 0.01855026 -0.0011062307 -0.012667808 -0.0016042428 0.0059677465 -0.0025619091
-0.020025209 -0.006299795 -0.00791765 0.005967935 0.007957413 -0.0016454585 -0.0024772696 -0.0065513593
-0.008961013 -0.004642995 0.005121599 0.0022183843 -0.0024158768 0.0054067215 -0.0056778197 -0.0011534508
-0.0069632777 -0.0007396116 0.00020611106 0.005314433 0.0090385415 0.0008969199 0.002411988 -0.02076111
00000000: 4f4a 1b3c 3c87 f83b b7f6 973c f1fe 90ba
00000010: a38c 4fbc 7545 d2ba 168d c33b b4e5 27bb
00000020: e80b a4bc 836e cebb 08b9 01bc ab8e c33b
00000030: cf5f 023c 6dac d7ba b059 22bb c9ac d6bb
00000040: 36d1 12bc 4424 98bb 16d3 a73b 5062 113b
00000050: b053 1ebb de2a b13b 010d babb 632f 97ba
00000060: 352c e4bb 7fe2 41ba 841f 5839 b224 ae3b
00000070: 6416 143c 471f 6b3a 7212 1e3b 3413 aabc
