models/player_projector_best.pth (torch, 218996 bytes, 20 tensors)

network.0.weight f4 [256, 33]
00000000: f982 013d 390f 973d 89e4 943e 08a8 cbbb
00000010: 75e4 b03d 5054 80bd 9d74 a5bd 85ed 8ebd
00000020: d4b7 91bd 2fd4 cf3d 9510 22be 76b5 023d
00000030: 7e7c b13d f5c8 9abd 2089 bc3c 14fd f4bd
00000040: a3c8 9d3d 9027 76bf ce4c 593d ecbc 58bd
00000050: c797 ffbc 9e3f 76bd 092a 28bd 8418 38bc
00000060: 7a30 08bd f1e9 e4bc 019a 293c fc48 8b3e
00000070: 95f9 41be 1e07 ddbe 6e44 99bd fc50 a93a
00000080: a643 19bd 21ea 36be 2e10 e5bd 3b0c a4bd
00000090: 7ca4 82be c9da 723e af28 dcbd b5cc 483d
000000a0: cd41 b73d 66de a8bd d7dd 29bd f155 0abc
000000b0: 72b4 cbbc f0fd 043c ab12 fdbd f6b0 983c
000000c0: e916 2dbe d154 253e c5ae 333c e090 d13c
000000d0: 28e7 663e 49dd f9bc 8094 b53c bd25 0a3d
000000e0: 7398 11bd 2dfa 463e db0f adbe f5cf 163e
000000f0: 932e 5a3f 8a0e 34bd 3a1b bf3d ca12 e3be
00000100: 3845 4bbf dd82 5c3d f76b 71be c0a4 04be
00000110: 99d8 d1bb 4cfa 56bd 687c a4bd 05a4 353e
00000120: 9fa1 54be 1e41 9c3d 53da 67bd 6a56 d0bd
00000130: 16e9 1a3e 17df f9be b86c 35bc 918b 313e
00000140: 94e4 323e f7b5 14be c84e 3ebe 6ea9 31be
00000150: 0113 fa3d c251 8e3d b4f9 8bbd 310c 993d
00000160: 3e55 05be 74c7 133e 1ec0 fd3d ac74 99bd
00000170: fc4f dabe 9b45 a83e 8bb7 323e 72ee d73e
00000180: d2c9 02be 23b1 01be 625d 92bd 50a9 bebb
00000190: 3485 233d 0767 34bd 74a3 18bf 67c6 0abd
000001a0: 5c8d a33e bcdd daba 0478 c2bc 2c60 8dbb
000001b0: 94e0 f53d d410 f13b 2d60 08be 9ff1 5a3d
000001c0: 2ef3 1bbc 887b 93bd 057b 09bb a5f9 783c
000001d0: 551e d93c b3e8 283d eabf afbc 2490 19bd
000001e0: 925e 9c3d 5cff 89bc a039 8dbd 5f27 f93d
000001f0: bbe1 a23c a6db f9bd f7af ebbe 0be2 30bd
00000200: ca6a 903e 76a9 2abb 06c5 cc3c 9926 8b3a
00000210: 5857 e6bc 0afc 773c c4bf 4e3c c206 aabb
00000220: 82bb 843b 360e a0bb 071b 553b 1d19 223a
00000230: 7421 2abc 92e1 733c 7345 68bc f0c0 b5bb
00000240: 7c49 69bc 7d86 1cbb 78f6 6f3b 3cc1 dcbb
00000250: 07d1 54ba 145d a1bc cac4 30bf 55ad b33a
00000260: 3960 2c3f e8b9 063b 5465 04bc 454b 78bc
00000270: 8354 883b 8193 8ebc 3bc7 f9bb b80f 263d
00000280: eaaa e6bc 038a 70bb ee7c d33a 5566 c43b
00000290: 52c6 f1b8 814c 3dbf 3da5 f1be 05c5 2d3f
000002a0: 45bd cf3d 4167 96bd cfb8 11bd 5a30 d53d
000002b0: c333 13bd a29b 18bd 7e29 be3d 1713 1fbd
000002c0: 1e60 28bd 4108 953d 5bc4 43bd becf 363d
000002d0: 44ff 34bc 53bf 0f3e d255 e0bd 4997 913d
000002e0: ac84 a7bc 98d4 24bd 06bd 373d a826 adbb
000002f0: 5dc5 ddbd 3e5d 09bd a1db 413d 3c66 743c
00000300: e188 bd3c 59a4 893e 04e1 6ebd 3fc3 e23a
00000310: 90b7 b93b 3c7c 0b3c ce90 703e d594 6ebe
00000320: 5b28 13be 95f0 8e3c c142 fdbd a878 c7bd
00000330: 87a1 103e e42e a1bd 67c8 febd b3a9 b8bd
00000340: a73d 61bd 2a33 8dbd 87be 213d cdc0 05be
00000350: 0f36 45bd 7984 e9be d59d b5bc 131f 1cbf
00000360: e2f8 34be 2231 bbbd f62c 62bc c956 fa3d
00000370: 01de c93c 36d4 763d 4768 08bd a2e4 793e
00000380: e961 ccbd 42ec 0b3f 6ea3 aa3b 7760 1d3f
00000390: 7d2f 38bd 2986 013e 8bab d5ba cbe0 203f
000003a0: b29b eb3d 89bf c93e 205b a23d c6bc 2cbe
000003b0: a06d b23c f1b7 83bd 1839 52bd 9646 21bd
000003c0: 11d1 06bd b56a a93c d6fa 40bd cb80 85bd
000003d0: f8ee 07bc 993c bbbc 063d 253e a86a 2cbe
000003e0: cda3 8fbe 29a8 52bd ab82 e4bc e73f 71bd
000003f0: 9089 573d c73a 24be fc52 15be 04df 84bd
0.031619046 0.0737595 0.29080608 -0.0062150992 0.08637325 -0.06266081 -0.08078883 -0.06978897
-0.071151406 0.10147893 -0.15826638 0.031911336 0.08666323 -0.07557861 0.023014605 -0.11962333
0.07704284 -0.9615412 0.053051762 -0.052914545 -0.031200303 -0.060119264 -0.041055713 -0.011236314
-0.033249356 -0.027943583 0.010351659 0.2720412 -0.18942864 -0.43169492 -0.07483755 0.0012917812
-0.03741803 -0.1786275 -0.11184727 -0.08010145 -0.25516117 0.23716272 -0.10749947 0.04902335
0.089480974 -0.08245544 -0.04147133 -0.008443342 -0.024866316 0.008117184 -0.12357076 0.018639069
-0.16903271 0.16145636 0.010966961 0.025581777 0.22549117 -0.030501025 0.022165537 0.033727396
-0.035545778 0.19431372 -0.3380116 0.14727767 0.85227317 -0.043959178 0.09331365 -0.44350272
-0.79402494 0.05383574 -0.23576342 -0.12953472 -0.0064039943 -0.052484795 -0.08031541 0.1773835
-0.20764779 0.076296076 -0.056604695 -0.10172732 0.15127978 -0.48803017 -0.011073284 0.17338397
0.17470008 -0.14522539 -0.1858474 -0.17349789 0.12210656 0.06949188 -0.068347365 0.074730285
-0.13020799 0.14431554 0.12390159 -0.074929565 -0.42639148 0.32865605 0.17452829 0.42174107
-0.12772301 -0.12665229 -0.071467176 -0.0058185235 0.039921954 -0.044043567 -0.5962441 -0.033880617
0.31943786 -0.0016698162 -0.023738869 -0.004314443 0.120057255 0.0073567424 -0.13317938 0.053453084
-0.009518428 -0.07201296 -0.0020977866 0.015196239 0.026503721 0.041237544 -0.021453816 -0.03749098
0.07635225 -0.016845398 -0.06895757 0.121657126 0.019883027 -0.12200098 -0.46032688 -0.04318432
0.28206474 -0.0026040948 0.024996292 0.0010616361 -0.02811782 0.015135774 0.012618963 -0.005188794
0.004050673 -0.0048845066 0.003251733 0.0006183552 -0.010383952 0.014885323 -0.014176714 -0.0055466816
-0.014238711 -0.0023883872 0.0036615413 -0.0067369025 -0.00081183057 -0.019697703 -0.69050276 0.0013708273
0.67334324 0.0020557586 -0.008080799 -0.015154664 0.004160465 -0.01740432 -0.007622627 0.040542334
-0.02815767 -0.0036703355 0.0016135254 0.0059936442 -0.000115287155 -0.7394486 -0.4719638 0.6787875
0.10143522 -0.07343913 -0.035576638 0.10409613 -0.035938036 -0.037257798 0.09285258 -0.038836565
-0.04110729 0.07276965 -0.04779468 0.044631712 -0.011047188 0.14037828 -0.10953869 0.071089335
-0.020449005 -0.040241808 0.044858 -0.005284149 -0.1082866 -0.03353619 0.047328595 0.014916953
0.023136558 0.268832 -0.05832006 0.001730062 0.0056676343 0.0085135065 0.23492739 -0.23298962
-0.14370863 0.017448703 -0.12366248 -0.0973981 0.14124118 -0.07870272 -0.124405675 -0.090167426
-0.054990437 -0.068945244 0.03948834 -0.13061829 -0.048147257 -0.4560888 -0.022169987 -0.60984915
-0.17673066 -0.09140231 -0.013804665 0.12223584 0.024641993 0.060260974 -0.03330257 0.24403623
-0.099796124 0.54657376 0.0052074706 0.6147532 -0.044967163 0.12648834 -0.0016301734 0.62843007
0.11504306 0.39403942 0.07927537 -0.16868886 0.021780789 -0.064315684 -0.05132398 -0.039373957
-0.032914225 0.020680765 -0.047114216 -0.06518706 -0.008296721 -0.022856044 0.1613656 -0.16837561
-0.28054658 -0.0514299 -0.027894339 -0.058898833 0.052621424 -0.16038047 -0.14582437 -0.06487849

network.0.bias f4 [256]
00000000: b5ff 39bf d91a 02bf 7f5b bfbe 3062 74bf
00000010: 8d6a 62bf 0503 11bf 2a87 9abe 3293 32bf
00000020: 1f95 dfbe 5d4a 49bf 1f0e 57bf 1d22 89be
00000030: 1737 04be 77cb 66bf b96a 27be 4ea7 13bf
00000040: c3bc 8b3d ebf7 a73d 399e 31be 8b72 4cbf
00000050: 7258 0cbf d68c 27bf decd e8be 1a24 0b3f
00000060: 57ee bf3f 6f58 b6bd c33f 09bf 0339 b03e
00000070: 5ef6 e73d b720 a7be a31b 28be 9dda 43bf
00000080: f40f 35bf 818f 803f 9917 47bf ce3f 523f
00000090: b831 d2be 22fb debe 716c 8e3e faf5 65be
000000a0: 7385 d5be 14a3 c0be 586a e7be 4b84 23bf
000000b0: f3bc 89be 1dc2 36be 3a1d b63f 3348 abbd
000000c0: ac8f 4dbe 0d38 0ebf a0d6 a8be 0c59 68bf
000000d0: ec07 43bf e60e 13bf eeaf 56bf e9a4 b43f
000000e0: c197 0ebf 8b10 1abf 24a2 98bf ee1e 463e
000000f0: a1c1 55be 9284 dcbe 5b82 8bbf 8da2 61be
00000100: c8b4 03be 60a6 d03e 4f93 f23e 2d11 65bd
00000110: 5b98 b3be 0fc5 acbe a062 01bf 7809 50bf
00000120: bf4e e23e 3e53 55bf 2d64 22bf c743 d7be
00000130: 4eea 10bf 0375 95be 9fe7 84bf 31f8 4dbf
00000140: bf17 a2bf 054b 34bf 7a05 a93f 3259 94bd
00000150: 6474 2ebf 0ea7 063f 4021 47bf 7797 3bbe
00000160: a28a 47bf cc1e 39bf 6a14 5a3d 4439 89be
00000170: f1d3 9ebe 4add bd3f cccc e93f 3012 533e
00000180: e8ba 08bf 442b e63d 098c 0a3f ef4f 92be
00000190: f010 4ebf 378d 85be b5ae 3bbf 63cb 71be
000001a0: 7c7d 10be 963a 43be af4b 7ebd 6ef6 0bbf
000001b0: 5d31 1bbf f094 e0be aeeb c8be f285 29be
000001c0: fdf8 f1be 1a43 ef3e 5a29 97be ce7b 81be
000001d0: 5c96 88bf ddbf b7be 67f6 0ebf 41b2 8abf
000001e0: c1c7 09bf 8f4c 88bf 20e2 d83d 44e5 44bf
000001f0: 2c9a b9be 7716 a4bf 65dd aabe f7c7 b93f
00000200: beaf 0d3f 60e2 ffbe 921d 4abf 66f6 3bbf
00000210: b36d 96bf a681 8cbf c8a3 253f 1c4a 86bf
00000220: 799d ad3f 10a8 03bf 712b 47bf 2994 3dbf
00000230: c056 ebbe f9a0 1fbf f0b2 15bf 8911 ba3f
00000240: 21c0 89be 4bc4 53be 2f92 bf3d 68d2 15bf
00000250: 03eb 28bf a221 d4be 9a6e 68bf 6859 10bd
00000260: 9d27 a3bd 3277 0bbf b466 eabe 1aca 83bf
00000270: 5747 c4be b30c 023e 6ca5 d3be c0e0 00bf
00000280: 6fdf 33bf 5aec bfbe d204 16bd 6684 66be
00000290: 5f0f 0e3f 49d2 2bbf 89ee 023c 9aa7 4dbf
000002a0: 129f 27bf 5633 19bf 2882 32bf 777d 94be
000002b0: 63ac 88be ea9e 20be 879b 4cbf 4dec 9ebd
000002c0: 3ae8 aebe 5f98 4ebf 9d08 85be 6c6b 1bbe
000002d0: 3862 25bf 582b 10be 50dd f73e a847 f83e
000002e0: bbe8 16bf 5cdb 1abf 8dbb 56be ef98 f3be
000002f0: 187b f9be 69b4 e93f 2151 0fbf 360b 9e3e
00000300: 50ad a6be 9ae3 ef3e 6d7e 9fbe aca4 87bd
00000310: e425 69bf a5c2 74bf 414a 8a3e b482 f8be
00000320: 4bf2 05bf 8978 debe 4e78 f6be 9b68 a1be
00000330: 926c c4be eaf0 88bf ec6f df3e 83b2 27bf
00000340: 88ba 77bc b25e b5bd 0cc2 32bf e5a8 05bf
00000350: 2144 a3bf 188d 6cbe b0b6 5b3e 8157 c23e
00000360: 1f0b c0be 10da d2bd c929 bfbe 15ae 02bf
00000370: c393 d5bb 4cda a53e 97d6 0d3f d9a3 e4be
00000380: a548 32bf 0fe8 7abe 8218 41be bef9 2cbf
00000390: 2445 e7be 95f4 0a3f 87be 0fbf bd16 31be
000003a0: 0b91 603e 1e21 f7be 407c 61bf c8e5 6a3e
000003b0: ede4 a03c 5e7b 30bf fa1e a53e ce21 1cbf
000003c0: ee70 26bf cf52 b5be 4e7a dfbe 0c8f f1bd
000003d0: a81d 6c3e 464f cdbe caf9 a63f be9d a8be
000003e0: 7b9b cabd 87ca c0bd 2b88 20bd 1544 29bf
000003f0: 8193 94be fee3 62bf fab2 3cbf 9d3b fdbe
-0.726558 -0.50822216 -0.37374493 -0.9546232 -0.88443834 -0.5664523 -0.30181247 -0.6975585
-0.43668458 -0.78629094 -0.8400592 -0.2678384 -0.1291164 -0.9015421 -0.16349305 -0.5767716
0.06823113 0.082015835 -0.17345513 -0.7986228 -0.54822457 -0.65449274 -0.45469564 0.5435196
1.499461 -0.08903586 -0.5361292 0.34418496 0.11326288 -0.32642147 -0.16416793 -0.7650545
-0.7072747 1.0043794 -0.7777038 0.8212861 -0.41053557 -0.43550974 0.2781711 -0.22457114
-0.41703376 -0.3762442 -0.4519832 -0.6387374 -0.2690197 -0.17847486 1.4227669 -0.0836338
-0.20074338 -0.55554277 -0.32976246 -0.90760875 -0.7618396 -0.5744461 -0.838622 1.4112827
-0.5570031 -0.6018149 -1.1924481 0.19347736 -0.20874645 -0.43069893 -1.0899156 -0.22034664
-0.12861931 0.40751934 0.47378013 -0.055924583 -0.35077175 -0.33744094 -0.50541115 -0.8126445
0.44200704 -0.8333014 -0.63434106 -0.42043898 -0.5660752 -0.29190835 -1.0383185 -0.80456835
-1.2663497 -0.7042697 1.3204796 -0.07243575 -0.6814635 0.52598655 -0.7778511 -0.18319498
-0.7794591 -0.7231262 0.053242125 -0.26801503 -0.31021073 1.4833157 1.8265624 0.20612407
-0.53410196 0.11238721 0.54119927 -0.2857661 -0.80494595 -0.260843 -0.73313457 -0.23612742
-0.14110368 -0.19065318 -0.062083896 -0.54672897 -0.606222 -0.4386363 -0.3924231 -0.16555002
-0.47260275 0.46730882 -0.29523736 -0.25289768 -1.0670886 -0.35888568 -0.5584473 -1.0835649
-0.53820425 -1.0648364 0.10590005 -0.7691233 -0.36250436 -1.2819356 -0.33372036 1.451415
0.55346286 -0.49977398 -0.7895137 -0.7342285 -1.1752228 -1.0977066 0.64703035 -1.0491366
1.3563682 -0.5142832 -0.7780066 -0.740542 -0.45964622 -0.62355 -0.5847616 1.4536601
-0.26904395 -0.20680349 0.09354054 -0.5852418 -0.659836 -0.4143191 -0.90793765 -0.035241514
-0.0796654 -0.5447875 -0.4578148 -1.0296052 -0.38335678 0.12700157 -0.41337144 -0.5034294
-0.7026281 -0.3748501 -0.03662569 -0.22511443 0.55492204 -0.67117745 0.0079914415 -0.80333865
-0.654771 -0.5984396 -0.6972985 -0.29001972 -0.2669402 -0.15685621 -0.79924816 -0.077599145
-0.3416155 -0.8070125 -0.25983134 -0.15177697 -0.64602995 -0.14079034 0.48411036 0.4849217
-0.5894887 -0.60490966 -0.20969982 -0.47577617 -0.48726726 1.8258182 -0.5598317 0.30867928
-0.32554102 0.46853334 -0.31151143 -0.066232055 -0.9107344 -0.95609504 0.27009776 -0.4853722
-0.52322835 -0.43451336 -0.4813866 -0.3152512 -0.38364083 -1.0698521 0.43640077 -0.6550676
-0.015120156 -0.08855952 -0.6982734 -0.5221084 -1.2755166 -0.23100698 0.21456409 0.37957385
-0.37508485 -0.10295498 -0.37336567 -0.5104688 -0.0065178587 0.3239311 0.55405563 -0.44656256
-0.69642097 -0.24502586 -0.18857005 -0.67568576 -0.45169938 0.5427945 -0.56150097 -0.1729383
0.2193033 -0.48267454 -0.88080215 0.22939217 0.01964041 -0.68938243 0.32250196 -0.6098908
-0.6501607 -0.3541474 -0.43648 -0.11794862 0.23058188 -0.40099543 1.304498 -0.32932848
-0.09892937 -0.09413629 -0.03919236 -0.6611951 -0.29018787 -0.8862914 -0.73710597 -0.49459544

network.2.weight f4 [256]
00000000: 2deb 3a3f 3247 533f 4acc 4d3f d00d 503f
00000010: d0c2 d33f a641 383f 2ee5 793f 8f34 233f
00000020: 27fb 6d3f 2350 2c3f 5052 2a3f e5ed 2c3f
00000030: 72e7 363f 7480 8d3f 343c 853f 7e39 373f
00000040: 4f6a 123f 5ff6 823f 78a7 6d3f 2cf9 3c3f
00000050: 32e1 563f 17cd 4f3f 6648 413f dabc 2a3f
00000060: 5ed7 ff3e ffa6 a53f bd6f 733f 7cc4 373f
00000070: 66ba 6e3f 7699 593f ffce 393f 4221 8e3f
00000080: eb94 b13f 8d5b 1f3f 202d b33f 0840 1b3f
00000090: ddb5 113f e9fa 463f f9ee 113f e2ec 243f
000000a0: c45d 643f 8963 253f 1571 433f 97a4 323f
000000b0: 4c25 483f fcf6 5d3f 1dc0 2a3f e3f6 233f
000000c0: 93dc 343f 33fa 223f 81e0 253f 72c0 463f
000000d0: 0490 733f 1782 753f 67b7 583f 6a25 d33e
000000e0: 95db 7c3f fc85 843f 89ba 933f 4adc 403f
000000f0: 21a9 433f 3045 203f d419 333f 1982 363f
00000100: c4e8 563f cf34 2f3f 2e11 0f3f 4d42 2d3f
00000110: 96b3 553f 7939 663f 952e 593f f0ef 9d3f
00000120: c4cd 363f 7a48 873f 5d5c 203f 026f 503f
00000130: 7258 3c3f d8f9 973f 5cb0 6b3f 0a4f 873f
00000140: 8397 a53f 7adb 8b3f c0d2 d03e 7aae 873f
00000150: 41bf 3f3f b55f 163f 4652 1d3f 0940 293f
00000160: da20 873f d619 893f 9fbd 1c3f ca2f 863f
00000170: 8f56 413f 9b37 cf3e 8d1c 2d3f 18b4 3e3f
00000180: 954e 6c3f 96b9 023f c709 233f 62fa 823f
00000190: 8f47 803f 50b9 723f 62ba 853f d509 623f
000001a0: e597 6c3f bbd1 333f 1dac 473f 401e 613f
000001b0: 02a8 5b3f 890a 233f afda 523f 6d76 5c3f
000001c0: c5a6 733f 9c71 2c3f 3dbf 103f 26c9 363f
000001d0: 3d1b 723f 5865 503f f34a 983f d660 183f
000001e0: 948f 0f3f c2b3 873f 0ee0 023f d29e 2f3f
000001f0: 5418 203f 6600 7e3f c1b8 833f 926a e33e
00000200: 9ad3 343f 2cd1 863f 5231 453f 6f62 583f
00000210: deaf 6b3f 5b26 403f 0470 353f 0ae3 563f
00000220: ce95 223f c65c 663f c21a 993f f9f9 903f
00000230: f768 363f e77f 823f db9e 083f b289 0a3f
00000240: 1fd4 703f 3ed9 0e3f 7db0 2d3f 2a75 343f
00000250: d210 4c3f 4213 303f 44ee bb3f 0f29 243f
00000260: 70c1 373f d751 7d3f 12a0 353f cb72 183f
00000270: 770f 2e3f e07b 7f3f 92b5 7d3f 38cb 233f
00000280: c688 913f d01d 373f a4dc 093f 0364 5a3f
00000290: e9fc 2e3f a697 7d3f 307d 633f 3717 3f3f
000002a0: 9a48 533f 3dc7 063f 3776 5e3f 1ce7 3d3f
000002b0: cbe4 443f a5fc 603f f499 923f 1573 513f
000002c0: 337f 713f 53c4 823f d60c 753f 2490 543f
000002d0: bd91 333f 9d7e 4a3f d2ce d33e 8071 413f
000002e0: 1b04 893f fe8f 863f d136 403f f692 633f
000002f0: 4a7c 473f bae1 2a3f 29ce 323f 2e0b 553f
00000300: d494 6c3f ed45 0f3f 8531 333f 1b20 043f
00000310: a646 b53f 07c1 843f 07f4 543f ff4f 7d3f
00000320: 901a 803f 2fe8 833f a604 383f afac 1c3f
00000330: 979a 873f 7bd1 533f c030 373f 9702 803f
00000340: 3271 5c3f 08eb 4a3f c72c 783f 1e7a 543f
00000350: 580a 593f e92e 823f c4dd 563f c8e4 223f
00000360: 66cb 4d3f 0e7a 313f 3241 4b3f 07e6 563f
00000370: abe8 4f3f 674b 2b3f 68e4 253f 7499 523f
00000380: 4e6c 8c3f 1608 823f 040f 713f 34cf 903f
00000390: 5a97 7c3f 2797 1e3f 29a7 1d3f ea50 2e3f
000003a0: 21cc 803f 0356 603f 2bb1 563f d0b1 0e3f
000003b0: a1c7 383f f97f 1f3f 12bd 2e3f 7d9c 103f
000003c0: 3194 773f ee62 273f a181 6e3f 9ab0 413f
000003d0: a4b2 2c3f e21d 5c3f c943 de3e 9793 0a3f
000003e0: 3ef4 603f a5ff 0e3f 09e7 1a3f 396c 483f
000003f0: 43f6 423f 6cf5 803f 8842 8c3f b660 743f
0.730151 0.8253051 0.80389845 0.81271076 1.6543827 0.7197517 0.97615325 0.63752073
0.92961353 0.6730978 0.6653185 0.675505 0.7144691 1.1054826 1.0408998 0.715721
0.57193464 1.0231436 0.9283366 0.73817706 0.8393737 0.8117232 0.75501096 0.66694415
0.49969 1.2941588 0.95092374 0.71784186 0.9325317 0.8499979 0.72581476 1.11039
1.3873571 0.6224907 1.3998146 0.6064458 0.56918126 0.7772661 0.5700527 0.64423954
0.89205575 0.64605004 0.76344424 0.69782394 0.7818191 0.86704993 0.6669939 0.64048594
0.7064907 0.63663024 0.6479569 0.776374 0.95141625 0.95901626 0.8465485 0.41239482
0.98772556 1.0353389 1.1541301 0.75336134 0.76429945 0.6260557 0.69961286 0.71292263
0.8394892 0.68439955 0.5588559 0.6767929 0.8347715 0.89931446 0.84836704 1.2338848
0.71407723 1.0568993 0.62640935 0.81419384 0.73572457 1.1873121 0.9206598 1.0570996
1.2936863 1.0926354 0.4078579 1.0600121 0.74901205 0.5873979 0.61453664 0.66113335
1.05569 1.071101 0.6122684 1.0483334 0.755227 0.4047211 0.6762169 0.7449355
0.92307407 0.5106443 0.63686794 1.0232661 1.0021838 0.94814014 1.0447505 0.8829625
0.9241927 0.702419 0.77997 0.8793678 0.85803235 0.6368795 0.82364935 0.86118203
0.95176345 0.67360854 0.56541806 0.7140068 0.9457281 0.8140464 1.1897873 0.5952276
0.5607846 1.0601733 0.5112313 0.68601716 0.6253712 0.9921936 1.0290757 0.44417244
0.7063538 1.0532584 0.7702838 0.845252 0.9206523 0.75058526 0.7087405 0.83940184
0.63509834 0.8998531 1.1961291 1.1326286 0.71253914 1.0195283 0.53367394 0.54116356
0.9407367 0.55800235 0.67847425 0.7049128 0.79713166 0.68779385 1.4682088 0.6412515
0.7177954 0.98953 0.7094737 0.5955016 0.6799235 0.99798393 0.9910518 0.6398196
1.1369865 0.71529865 0.53852296 0.85308856 0.6835466 0.9905952 0.88862896 0.746448
0.82532656 0.52647763 0.8689913 0.7418077 0.7691161 0.87885505 1.1453233 0.81816226
0.94334716 1.0216163 0.9572271 0.8303244 0.70144254 0.79099447 0.4136873 0.7556381
1.0704378 1.0512693 0.75083643 0.8889612 0.77924025 0.6675068 0.69845825 0.83220184
0.92414594 0.55966073 0.69997436 0.5161149 1.4162185 1.0371407 0.83184856 0.9895019
1.0008106 1.0305232 0.7188209 0.61200994 1.0594052 0.82741517 0.7155876 1.000079
0.8611022 0.7926488 0.96943325 0.82998836 0.8478141 1.0170566 0.8393214 0.6363034
0.80388486 0.69326866 0.79396355 0.83944744 0.812144 0.6691193 0.64801645 0.822654
1.0970552 1.0158718 0.9416354 1.1313233 0.98668444 0.6194939 0.6158319 0.68092215
1.0062295 0.87631243 0.83864087 0.5574007 0.7217961 0.62304646 0.6825725 0.5648878
0.967105 0.6538533 0.9316655 0.756601 0.67460084 0.859831 0.4341109 0.54131454
0.87872684 0.5585883 0.6050878 0.78290135 0.76157016 1.0074897 1.0957804 0.9546007

network.2.bias f4 [256]
00000000: 9632 80be 2925 a93d f25c 583e e33f 2e3d
00000010: cc81 813e 0897 38bd ea85 933e b658 84be
00000020: 233c 583e 1f71 afbb 19f1 483d 1a6b 943d
00000030: 56cd 8f3e 9d2a 623e 8a3a 0d3f dc48 d33d
00000040: b121 953e 3001 6b3f 47fc bc3e 79af 7a3d
00000050: f2cc 663e dd7e 453e 3d27 853e 3fee 4fbc
00000060: 529b ebbb 1361 043f 9812 973e 9c9f 653e
00000070: 96c4 3e3f 7fac cc3e dae4 b23d a622 063e
00000080: 2cca 513e 90aa 2f3b 463e cd3e fd06 a43d
00000090: 22e0 e1be a08b d2be 48dd acbe 1e43 9b3d
000000a0: 804d 903e 0135 9fbd 75c4 9c3e 692b 983d
000000b0: df7b 643e 6fec f73e f8a6 4bbd 773a 933e
000000c0: f842 04bd ea6e c53d 2d2f febd 41c1 443e
000000d0: 26b0 333e 0392 8a3e dc2f 4e3e d92e 6abd
000000e0: db44 a43e 35f8 9a3e 5595 533e aa41 843e
000000f0: 93cd 903d 6a77 19be 50ee e6bc 9698 84bd
00000100: 960f a23e ff2d 92be cd6b 543d 50f3 8dbe
00000110: b666 893d b1dc 803e 1258 3f3e a25e 233e
00000120: 415f 66be 22fc 233e f28d c33d 0d0a 3e3e
00000130: fa82 8a3b 2d09 f03e 51d4 7bbd 1f39 6c3e
00000140: 312d 8b3e dd13 923e e790 8fbd ebda c63e
00000150: 94d7 fa3d 59ec 1bbf 1860 a8be df9b fabc
00000160: 9bbd 003f 1192 453e d8b5 f33d 552f 043f
00000170: bf80 ae3e 0164 97bd 0476 fd3c 3904 dcbd
00000180: cb62 3b3e d3ee 09bf 3e61 f5be f12c b53e
00000190: a68a 263e a3fa c13e b289 2f3e 0f1a dc3e
000001a0: 18fe 193f fff7 e43c 184a fc3e f2c1 763e
000001b0: 1d3a c83d 6d83 b7bc 56ba 063f a246 823e
000001c0: caf1 943e 375d 8c3e 39a7 1b3e 8dfb d23d
000001d0: 70f8 3b3d 98a7 4e3e 42fb 2e3f 1ce8 54be
000001e0: ded0 46be 8305 c13d fc0b 90bc 3eee 003d
000001f0: 1e0c 0f3d 9b77 923d f445 293f 6514 fdbc
00000200: ded1 b53d 8e18 c63e 92f8 2e3d f493 253d
00000210: 1e55 5a3d 3eba 63be 9f2f 923e 3d89 08bd
00000220: 69e7 cebd eddd b43e eca1 1b3e 72b3 7d3e
00000230: 8c4d 3d3e e18e 893e c345 653e e0be a7bc
00000240: 5145 d33e dd44 0cbd 221a b23c e3db b73d
00000250: 3ee8 ac3d 1011 25be ad68 893e f9a5 1dbf
00000260: 3452 093e a30e 4e3e 6b24 bb3e 9c2a dbbe
00000270: 07ef 5abd 9201 1a3f 888f e23e 0f7d 1f3e
00000280: 66fb 9f3e a32d 38bd 3f7c a03d bed5 9c3e
00000290: 0591 fe3d 146b 663e c0ba b93e 141e fb3d
000002a0: fb1b 2b3e d8f6 e2be 5bcb 3d3e 27b2 113e
000002b0: 3a5f e9be 5682 d23e b32d b73e 14b6 6b3e
000002c0: dc8e 633e 7744 d63e 8f9e 2d3f 6c10 dc3e
000002d0: 4f98 3fbd 7028 a33e a67d d83d 91f9 f13e
000002e0: 1830 1c3f 538b 073f b534 b13e ee11 3c3e
000002f0: ba48 babe ddf6 683c 68f3 1c3c 9a59 373f
00000300: 4c8e f93e 59d0 22bf d0c0 0e3e 3ac1 5abd
00000310: 29b4 773e ec39 6f3e 8d91 f13e a169 a83e
00000320: 6936 193f 00b8 bb3e dbab 56bc 090e e8be
00000330: 3266 cb3e d96e 47be dcbd ee3d aa0d 7d3e
00000340: ae04 d33e 19ec 983e 9f78 593e b810 603e
00000350: 4be4 31bc 2601 0a3f 139f 223f 4f52 82bd
00000360: 5c1d 663e d988 253e b5a2 f53d 81ef 6c3e
00000370: 78bb 343e 831f 943e f530 ddbe 41a9 563e
00000380: 5da7 b63e 6c41 2f3f d940 233f 370b b23e
00000390: 2033 fd3e 0743 16be 7fc8 853d c8bf cb3d
000003a0: 2f85 f93e 26ea 513e e839 4c3d efd9 d03d
000003b0: 58c8 913e ef96 d1be 581a 86be c3a0 02be
000003c0: e3a6 a73e 5d2c 57be c181 a13e 9fd8 2b3e
000003d0: b7a1 eb3d 591c c63e 9c85 f5bc 2634 383e
000003e0: 72f4 2b3c b197 01bf bb29 fe3d 720b 0abe
000003f0: 57d4 05be 4752 1d3e a766 273f c434 ef3e
-0.25038594 0.08259041 0.21129206 0.042541396 0.2529434 -0.04506591 0.28813106 -0.2584893
0.2111669 -0.0053540613 0.049058054 0.072469905 0.28086346 0.22086568 0.5516745 0.10316631
0.29127267 0.91798687 0.36911222 0.0612025 0.22539118 0.19286676 0.260065 -0.01269108
-0.0071901465 0.51710624 0.29506373 0.22424167 0.74518716 0.39975354 0.08735056 0.13099155
0.20487279 0.0026804544 0.40086573 0.080091454 -0.44116312 -0.4112215 -0.33762574 0.07581161
0.28184128 -0.077737816 0.30618635 0.07430155 0.22312878 0.48422572 -0.04971978 0.28755543
-0.03229043 0.09640296 -0.12411342 0.19214346 0.17547664 0.27064523 0.20135444 -0.057173584
0.32083783 0.30267492 0.20662434 0.25831348 0.0707046 -0.14986959 -0.028189808 -0.06474416
0.31652516 -0.28550717 0.05186062 -0.27724695 0.06709044 0.25168374 0.1868594 0.15954068
-0.22497274 0.1601415 0.09548558 0.18558522 0.0042270394 0.46882 -0.061481778 0.23068665
0.27182916 0.2853078 -0.0701006 0.38838896 0.122481495 -0.6090751 -0.32885814 -0.030591903
0.50289315 0.19294001 0.11899918 0.5163472 0.340826 -0.07392121 0.030940063 -0.10742993
0.18299405 -0.5388004 -0.47925752 0.3538585 0.16263828 0.37886533 0.1714237 0.4298863
0.6015334 0.027950285 0.4927528 0.24097422 0.09776709 -0.022401536 0.52628076 0.25444514
0.2909072 0.27414867 0.15200509 0.10301886 0.045891225 0.2018112 0.6835214 -0.20791668
-0.19415614 0.094248794 -0.01758384 0.031477205 0.034923665 0.07151719 0.66122365 -0.030893514
0.088779196 0.3869061 0.042717524 0.040424302 0.05330383 -0.22239015 0.28551957 -0.033334006
-0.10102732 0.35325566 0.15198487 0.24775484 0.18486613 0.2686682 0.22389893 -0.020476758
0.41263822 -0.03424536 0.021740977 0.08977487 0.08442734 -0.1611979 0.26837674 -0.6158138
0.13410264 0.20122771 0.36551222 -0.42805946 -0.05345061 0.60158646 0.4425013 0.1557505
0.3124649 -0.044965398 0.07836198 0.30631822 0.12430004 0.22501785 0.3627529 0.12261596
0.16709892 -0.44328952 0.18534605 0.14228116 -0.45580465 0.41115063 0.35777053 0.23018676
0.22222465 0.4184911 0.67820066 0.4298128 -0.046776112 0.3186679 0.105708405 0.47260717
0.61010885 0.52946967 0.34610525 0.18366215 -0.3638361 0.014219013 0.009579517 0.71621096
0.48741376 -0.63599163 0.1394074 -0.05340693 0.2418982 0.23361939 0.4718136 0.32893088
0.5984865 0.36663818 -0.013102497 -0.45323208 0.39726406 -0.19475879 0.116573066 0.24712244
0.41214508 0.29867628 0.2123742 0.21881378 -0.010857652 0.53908 0.6352398 -0.06363355
0.22472137 0.16165484 0.119939245 0.23138238 0.17649639 0.28930292 -0.43201414 0.20963003
0.35674563 0.684592 0.63770825 0.3477418 0.49453068 -0.14674006 0.06532382 0.09948689
0.48734424 0.20499477 0.04985991 0.101978175 0.28473163 -0.40935466 -0.26191974 -0.12756638
0.32744512 -0.21013017 0.31544307 0.16781853 0.11505454 0.38693503 -0.029970936 0.17988643
0.010495292 -0.5062209 0.12410303 -0.13480929 -0.13069282 0.15363418 0.6539101 0.46719944

network.2.running_mean f4 [256]
00000000: cd82 1d3e b284 3c3e 7a01 1b3e df38 253c
00000010: 9d58 cc3c 4cf0 683d 380b 2b3e 9953 393e
00000020: bd53 063e 542b a53c 5c7a 873d 2ba8 d63d
00000030: ac3c ac3e 51c5 df3d bd28 b83e 735f 843d
00000040: b7ba a73e ce00 043f d6d0 573e fab1 ca3d
00000050: f5f6 163e 6a5a d03d 5d3c 033e 84d5 523f
00000060: 0420 c03f b066 a63e fea8 2b3e 482f 0a3f
00000070: f368 593f 1f71 333f f846 5c3e f62c 373c
00000080: 0cd3 ad3c 81f7 803f df80 f33d cefc 583f
00000090: 4b6a b03e 6245 bb3e 4b66 563f 3afe 723e
000000a0: c947 be3d 3c21 3f3e 1d43 7d3e 2631 473d
000000b0: 0d4f 963e 274d 573e e88f b63f ebb3 f23e
000000c0: 91f8 963e 76b6 ea3d f25f 253e 7195 e73d
000000d0: 23b1 1c3e ea77 8a3d 3be0 b23e ec21 b43f
000000e0: a2ea e73d 2c88 863d b888 2e3d 35bd 063f
000000f0: c2a7 5a3e 7823 033e 9ee7 3a3d 4c22 803e
00000100: 59c1 a93e 5dcc 0c3f 1a4b 203f 1258 073f
00000110: 6080 5a3e 8334 dc3d 2f1d d33d 830c 8c3c
00000120: 68e4 123f 2c2b d03c b928 a13d 1669 0b3e
00000130: 8738 803d e2a0 c63e 6ef0 fd3c b042 893d
00000140: c0c2 c33c 682d f63d dcd4 a83f 3700 a53e
00000150: 7d48 7c3d 95a9 753f e5ae 943d a4a6 1e3e
00000160: 38c9 9e3e be63 063d 3fb0 a03e 8a94 9f3e
00000170: 1509 403e 4ecb bd3f aa58 e93f 0f2e fe3e
00000180: 84f4 b03d 398d 2f3f 4201 543f d590 cb3d
00000190: e58b 8e3c 321e 2e3e a0a3 1e3d 453c be3e
000001a0: 433e 1d3f a650 723e 43bb f33e d067 fa3d
000001b0: e337 2c3d 547a f63d be27 e53e 7917 793e
000001c0: 6fd9 1b3e fc82 483f becb 2f3e 4cd8 783e
000001d0: 102e a73b 7710 653e 923a 8c3d 3e40 2f3d
000001e0: 328a 473e 375a 003d f660 d73e 0e39 3c3d
000001f0: 61f4 af3d c291 493c 15b6 043f 8abb b93f
00000200: 1aff 2e3f 94ec 9c3e d3ae 453c 9438 c03c
00000210: a2df aa3c f57d 333d fa6b 423f 64dd 343e
00000220: 4617 ad3f f24f f93e 7009 b43b 409d fd3c
00000230: a6d1 113e d1fa 013e 675f f23d ac10 ba3f
00000240: 361a f73d a132 903e 6de9 9f3e 0b77 033e
00000250: e3cd 583d e2b8 533e 25d5 e53c fd7b 193f
00000260: fc51 773e ecae 913d e39f 473e 6fae 593d
00000270: 6d71 d63d 95d8 f43e e3ed 4c3e d16a ef3d
00000280: 1dd0 903d b699 273e a24a aa3e aeab 103f
00000290: cb64 633f 3a2c 393d 7299 d43e fa6d 6a3d
000002a0: f845 a83d 3471 253e b7f4 d63d e158 133e
000002b0: ebba df3e 0639 963e ddaf 173e 6a49 ce3e
000002c0: b0d0 063e 227f e33d 46df 2d3f 45d8 943e
000002d0: 935c b13d 35ba 463e 7b3b 2d3f 1c13 353f
000002e0: e732 c03e 4ad6 743e ca58 993e 6fe2 fb3d
000002f0: 0bd4 a33e d758 e93f 3f2a b33d aa62 273f
00000300: 950b 903e dd7c 5d3f 1b67 ab3d ec0f 793e
00000310: 8cdc d33c 8474 263d a928 bb3e d8dc 833e
00000320: 3b9f c83e 911a 8b3d 1d5b 1a3e 300a dc3e
00000330: a412 5a3e 1a89 7a3d fdc4 1a3f 9777 083e
00000340: 2b9c c23e 04e0 663e 76f3 603d dd60 e73d
00000350: 4d98 633d adae e23e cbe8 243f 8c96 5e3f
00000360: 659b 703e b1f3 8f3e e688 aa3d e7a0 113e
00000370: e37a a73e 1d99 263f 9481 203f cd15 3a3e
00000380: 100b b53d d1ee 1f3f 10c1 fb3e eeea 193e
00000390: 10f5 a23e 8f55 6d3f 51ec 893d 5c07 a93e
000003a0: 92aa f43e cff8 e33d 5126 983c 2964 073f
000003b0: 4958 393f fa93 c03e 7c57 e43e e874 e43d
000003c0: 5fdb 153e 9465 f73e 1709 133e 69b4 513e
000003d0: 25da b43e 1d7c aa3e 4d9c a63f acc4 123e
000003e0: 1e23 a63e f655 113f ca91 083f e7df e83d
000003f0: ffaf f33e 2f9d ec3c 5974 cc3d ce84 a93d
0.15381928 0.18409994 0.15137282 0.01008436 0.024944598 0.05686979 0.16703498 0.18098296
0.13117881 0.020162262 0.06615135 0.10481294 0.3364004 0.10926307 0.3596858 0.06463518
0.3275964 0.5156373 0.21075758 0.098972276 0.14742644 0.10173495 0.12815996 0.8235705
1.500977 0.3250022 0.16763684 0.53978395 0.84925765 0.70094484 0.21511447 0.011180153
0.021218799 1.0075532 0.118898146 0.8476075 0.34456095 0.36576372 0.83749837 0.23729792
0.09291036 0.18665022 0.24732633 0.048630856 0.29357186 0.21025525 1.4262667 0.47402892
0.29486516 0.11460583 0.16149881 0.113078006 0.15301947 0.06761153 0.349367 1.4072852
0.113240495 0.065689415 0.042610854 0.52632457 0.21353057 0.12806499 0.045631044 0.25026166
0.33155325 0.54999334 0.62614596 0.5286876 0.21338034 0.10752203 0.10308301 0.01709581
0.5737977 0.025411211 0.07869095 0.13614306 0.06260782 0.3879462 0.030998435 0.06702173
0.023896575 0.12020379 1.318996 0.32226726 0.061592568 0.95961887 0.07259921 0.15493256
0.31012893 0.032809965 0.31384465 0.31168014 0.18753465 1.4827669 1.8230183 0.49644515
0.08640388 0.68574864 0.8281442 0.09939734 0.017400691 0.17003706 0.038730264 0.37155357
0.6142313 0.23663577 0.47603807 0.12226832 0.042045485 0.12035051 0.44756883 0.2432536
0.15219663 0.78324866 0.17167565 0.2430126 0.0051019266 0.22369562 0.06847109 0.042785875
0.19486311 0.031336036 0.42066163 0.04595285 0.085915335 0.012302818 0.51840335 1.4510357
0.68358004 0.30649245 0.012065607 0.023464479 0.02085859 0.043821294 0.7594601 0.17662579
1.3522727 0.48693806 0.005494289 0.030958772 0.14240131 0.12693335 0.11834603 1.4536338
0.12065546 0.28163627 0.31232777 0.1283838 0.052930724 0.20675996 0.028055737 0.59954816
0.24152368 0.07113442 0.19494586 0.05314487 0.10470853 0.4782149 0.20012622 0.116902955
0.070709445 0.1636723 0.33260065 0.5651196 0.8882567 0.045208193 0.4152332 0.057233788
0.082164705 0.16156465 0.104958944 0.14389373 0.43697295 0.2934038 0.1481318 0.40290385
0.13165545 0.11108233 0.67918813 0.2907125 0.08660235 0.1940697 0.67668885 0.70732284
0.37538835 0.2390987 0.29950553 0.12299048 0.31997713 1.8230237 0.08748292 0.65384924
0.28133836 0.8651865 0.08369275 0.2432248 0.025862 0.04063846 0.3655446 0.25754428
0.39183983 0.067921765 0.1507382 0.42976522 0.21296173 0.061165906 0.6045683 0.1332687
0.38009772 0.22546393 0.054919682 0.11297772 0.055565167 0.44273892 0.64417714 0.86948466
0.23496778 0.2811561 0.083268926 0.14221536 0.32710943 0.6507738 0.6269772 0.18172379
0.08840001 0.6247378 0.49170732 0.15031025 0.31827593 0.9270868 0.06734527 0.33013427
0.47786385 0.11131441 0.018572958 0.5288721 0.7240034 0.37612897 0.44597995 0.111551106
0.14634465 0.48319685 0.14358936 0.20478977 0.3532268 0.33297816 1.3016449 0.14332837
0.32448667 0.5677179 0.53347456 0.11370831 0.47595212 0.028883545 0.09983129 0.082772836

network.2.running_var f4 [256]
00000000: e560 533e 154b fe3d acc2 0a3e 9e03 8e3b
00000010: 4588 913c 9ff5 bc3c 68a0 063e 4ec2 433e
00000020: e3c0 003e a821 2e3c ab58 e93c 4ee8 1e3d
00000030: 7540 7e3e 7c41 763d a64e d83e 6363 e63c
00000040: f254 0b3e b1ce 8a3e 7de7 eb3d e94b 8f3d
00000050: 74ab 0d3e 52c6 c83d a6a2 c73d 6f1c 2f3f
00000060: 0691 813e e142 cf3e fa0e 303e 5e69 cf3e
00000070: a926 733f 946a a03f 3ad4 283e 631a 763b
00000080: e791 5c3c 0e35 413e cba5 fd3d ae55 593e
00000090: 3761 bb3e ce8e 903e bcd5 653f 1224 8a3e
000000a0: b5ac 3a3d d33e 213e 1fda 533e ca59 f73c
000000b0: d6eb 5d3e c0d0 763d 53ba 4b3e cb82 093f
000000c0: fe7c 203e fa68 d83d 8021 e43d 8dbd fa3d
000000d0: da0c 193e 3915 373d 266c f63e d50e 9a3e
000000e0: 5e46 a63d 5e8c 253d 53b8 223d c5e5 933e
000000f0: 0302 093e d610 be3d 658b 0c3d 937a 033e
00000100: d11f 903e 0e4c 6f3e e3a8 823e cbb0 bd3e
00000110: 11c7 353e e28a 853d 12e5 bd3d 1ceb 193c
00000120: a9e9 243f 7ceb 853c 4034 833d dc10 b73d
00000130: 49b7 253d d5e8 e13e 0a91 923c 509c 403d
00000140: 5a8f 183c b204 0a3e 082e 623e 293e ca3e
00000150: ef25 1c3d f207 b53f 8045 573d 1927 803d
00000160: de7c cd3e 68f0 bc3c 3d9d 493e ed71 943e
00000170: 2c87 ca3d 8b04 af3e 0e3b 3a3e 91fa a53e
00000180: 4071 413d b2a6 653f 2c27 753f dc71 1a3d
00000190: 8eb9 103c d68b fc3d 7ab5 e53c 3a30 d23e
000001a0: 4923 363f eb04 993e a84f 8f3e 9ba2 e93d
000001b0: b932 c53c 735d 423d b3b5 b43e 2159 993e
000001c0: 8dd1 2a3e 808b c73e 5cb8 a83d 1422 5c3e
000001d0: 5edd ac3a 0c64 833e 6e8c 483c 74e1 073d
000001e0: b03d 5e3e 50ce 2a3c 52c2 923e 0302 a93c
000001f0: 2f17 513d d52c 683b f060 1e3f aef8 803e
00000200: dc04 493e d668 d73e d6f0 be3b fec5 413c
00000210: 8599 7d3c 9df9 3b3d 796d cc3e a4d6 013e
00000220: 8ad8 143e 52aa 413f 5150 db3a 691c b43c
00000230: 462e 813d 5520 053e f1b9 2b3d 9d41 793e
00000240: 3f63 853d e3f7 783e 9688 2a3e 1fee 153e
00000250: 9686 e33c e712 283e e39f a33c cf32 5d3f
00000260: 42de 343e c8ab 553d 2ff1 9b3d 87bb 583d
00000270: 1d6e 903d 2fb7 ca3e 3bf8 313e f6d6 833d
00000280: 34e7 883d 2dd8 b63d 4833 5a3e 12a7 873f
00000290: 6a60 203f 3907 f13c 9eb3 0d3f 6354 ec3c
000002a0: 229a 5f3d 1f93 463e 4912 a93d 2ab7 dc3d
000002b0: ceca ad3e e77f 753e c48c 213e 4a7d 883d
000002c0: ca6d e13d 1845 333d e8a2 343f 4d0e 383e
000002d0: 789e 8c3d 1fff d03d bc33 a83e 3ec7 dc3e
000002e0: ba03 e03e 1f32 633e f538 423e 893c 9e3d
000002f0: 657a 6e3e a955 543e 0eb0 853d cbab e33e
00000300: 1074 883e c421 9c3f 17d9 e53c 445c 253e
00000310: c945 903c 5f74 153c c62e 443e 522c b33e
00000320: f07b dc3e 3888 e23c 0ab7 1f3e 05cc 953e
00000330: e114 713e d223 ce3c 7bb5 333e 4de8 fd3d
00000340: 9108 2e3e 9272 263e 553f 363d ecef 4d3d
00000350: 3d9f e83c 549a 073f 0c94 143f d012 503f
00000360: ae3c a63e 60e8 ba3e 7fdd 133d 7a97 033e
00000370: d67e c33e ccb9 ce3e 6b94 993e 6976 5d3e
00000380: 6c06 733d d609 4b3f 9332 113f e55e 2c3e
00000390: b4e3 ad3e 2cf2 523f 6eba 2b3d 1672 213e
000003a0: 435c 043f 9ee3 c03d 6df4 303c cc51 063f
000003b0: 50f1 323f db43 aa3e 46dc 513e 6bdf d33d
000003c0: 7ecf 133e f37f 223f 67d3 cf3d 9097 403e
000003d0: 0db0 523e 9d67 a43e 0141 853e 9414 723d
000003e0: 60f7 933e 1650 5a3f ced5 be3e 0e65 a83d
000003f0: 38b4 473f 4f20 9e3c 7819 e53c c7f4 aa3c
0.20642431 0.124166645 0.13550824 0.0043339273 0.017765174 0.02306634 0.13147128 0.1911709
0.1257358 0.010628141 0.028484663 0.03879576 0.24829276 0.060121045 0.42247504 0.028123563
0.13606623 0.27110818 0.11518762 0.069969006 0.13834935 0.098034516 0.097478196 0.6840276
0.25305957 0.40480712 0.17193213 0.40510076 0.94980866 1.2532525 0.16487208 0.0037552349
0.01346252 0.18867895 0.12385138 0.2122409 0.36597607 0.2823395 0.8977926 0.26980644
0.045574863 0.15746622 0.20688675 0.030194182 0.21671996 0.060257673 0.19895296 0.537152
0.1567268 0.10566898 0.11139202 0.12243185 0.14946309 0.044697974 0.48129386 0.3008944
0.0811889 0.040417068 0.039726567 0.28886238 0.13379674 0.09280555 0.034312624 0.12839727
0.28149274 0.23368856 0.25519475 0.37048945 0.17751719 0.065206304 0.09272207 0.009394433
0.6441904 0.01634764 0.0640645 0.089387625 0.040457997 0.4412295 0.017891426 0.04702407
0.009311521 0.13478354 0.22087872 0.3950055 0.038122114 1.414305 0.052556515 0.06257457
0.4013433 0.023063853 0.19688888 0.28993168 0.09889063 0.34183154 0.1818659 0.3241773
0.047227144 0.8970748 0.95762897 0.03770624 0.008833302 0.12331359 0.028040636 0.4105242
0.7114759 0.29886565 0.2799046 0.11407968 0.024072038 0.0474524 0.35294876 0.29950812
0.166815 0.38973618 0.08238289 0.21497375 0.0013188531 0.25662267 0.012240512 0.033173993
0.2170322 0.010425165 0.2866388 0.020630842 0.0510475 0.0035427113 0.61866665 0.25189728
0.1963076 0.4207217 0.0058270497 0.01182699 0.015478496 0.045892347 0.3992727 0.12679535
0.14535728 0.75650513 0.001673231 0.021986203 0.06307654 0.13000615 0.041925374 0.24341436
0.0651307 0.24313311 0.16653666 0.14641617 0.027774137 0.1641346 0.0199737 0.8640565
0.1766291 0.052165776 0.076143615 0.052913215 0.070522524 0.39592883 0.17379849 0.06437485
0.066847235 0.08927951 0.21308625 1.0597861 0.62647116 0.02942239 0.553522 0.028848832
0.054590352 0.1939206 0.08255441 0.10777123 0.3394379 0.23974572 0.15776354 0.06664522
0.11007269 0.043767065 0.70561075 0.17974205 0.06866163 0.102049105 0.3285197 0.4312076
0.43752843 0.22187088 0.1896704 0.0772639 0.23288877 0.20735802 0.065277204 0.44467005
0.2665105 1.2197804 0.028057618 0.16148478 0.017611401 0.009121983 0.19158468 0.3499475
0.43063307 0.027652845 0.15597168 0.29257217 0.23543121 0.025163565 0.17549698 0.123978235
0.16995455 0.16254643 0.044493992 0.050277635 0.028396243 0.5296986 0.580384 0.81278706
0.3246817 0.36505413 0.036099907 0.12850752 0.38182706 0.40376127 0.29996046 0.21627201
0.059332296 0.79311883 0.56717795 0.16833074 0.33962786 0.82400775 0.04192584 0.15766177
0.5170328 0.094184145 0.010800463 0.5246856 0.69899464 0.33254895 0.20494184 0.10345348
0.1443462 0.63476485 0.10147744 0.18807817 0.2057497 0.321103 0.26026157 0.059101656
0.2889967 0.8527845 0.37272495 0.082224 0.78009367 0.019302515 0.027966246 0.020868672

network.4.weight f4 [128, 256]
00000000: d8e2 82bc 03d9 08bd 9b3c e1be e279 93be
00000010: 5e24 dc3c de62 b3be 57d8 88be a68e 5cbe
00000020: 2285 15bf c0a4 a0bd ace7 a3bd 5fcd 38be
00000030: 952f 243e ec3d d6bc 6995 8d3d e43b 1fbd
00000040: 0c3c 8b3d 798e 3a3c 6e92 743d e44e 983c
00000050: ad0e 0e3e 8b5e 1abf 10d3 b7be d670 31be
00000060: bfc3 673d a305 063d 1bb5 413c 26c4 a7bd
00000070: 4ec7 a6be 5c64 213e 3125 13be 113e babe
00000080: 4e32 ffbb 9d09 27bd ccdc 16bf b472 403e
00000090: 3dd5 813d f91f f8bc 598a 403d d3f8 c63d
000000a0: 3674 98be 768a 913c b1c7 173e ef15 b83d
000000b0: 2400 27bb 0907 4fbc 7bdc 333e 5f4e f43c
000000c0: d3ad 453d f307 f13c b04f f6bd 0921 e93d
000000d0: 12a2 fd3d 2f21 9ebe 21d1 d63d 2672 57bd
000000e0: 52e9 b23d 9ad2 47be ce2b 83bd 2824 cd3d
000000f0: f281 a0bd 67e4 e0bc 5b02 cfbe eba5 063e
00000100: 2b99 27bd 6957 34bd 53b9 4cbd 2439 f83d
00000110: c98e 433d f66a 32ba 48e9 56bd 59a3 1bbf
00000120: 4414 2a3c df2f 47bf a384 173d 2d7e 673d
00000130: a009 62bb be3a 9dbd 1147 acbe a416 7dbd
00000140: 1369 49be 1229 fcbe 38bb 59bc 3aa1 0f3d
00000150: 1271 b03e 3cc5 91bd b8dc 4fbe 4a48 703c
00000160: a69f b7be 642f 30bf 06c1 c3bb 0370 65bd
00000170: c731 57bd 192e 8ebc 5d5a 82be 7ad7 053d
00000180: 87c4 43be f167 9ebd 85a6 0ebc 1803 80bd
00000190: 39eb e1be eadd 7fbe 28a8 e9be e4d2 583c
000001a0: 5cf3 8cbf 1593 0bbc 31c2 dc3d 42be 2ebe
000001b0: 944d a63d 3176 6dbc 5fd1 c53d a956 543d
000001c0: 98a4 013d 5f04 c5bd 6634 a6bd 396b 6bbe
000001d0: f45f 86be 3d42 adbe 4cb2 793d 145c 0bbe
000001e0: 46f0 77be 49ed efbd ecc5 0b3e 36cd 76be
000001f0: 2e66 3abe a439 bcbc 235a f0be 11a6 b3bd
00000200: 3c44 dfbc be95 593d 628e 1abe c280 96be
00000210: 2b47 36be 190f c03b a27b 993b 1af0 ec3c
00000220: 08a7 f2ba e9e3 a53e 78b8 9abe 0f08 26bf
00000230: 2efa d23d 5632 943d 6492 93bd f904 213e
00000240: 0e46 bfbd 0578 56be 9c97 683d 61ff 68be
00000250: 0064 e6be fd95 593d 671c d0bd 734b babc
00000260: 605e 29be 1582 0bbf f323 d23c ed51 96bd
00000270: 4e7c 62bd eeb7 d93d 9ebb 22be 7d9c 63bd
00000280: 405e 63bf 3a13 d83d 12ce 9bbd 8405 8abd
00000290: 2361 aabd 73e4 5a3d d624 853a e9d2 aa3d
000002a0: bd35 efbe 167e 8b3c 22ca a8bd d6e8 82bd
000002b0: 7968 843c 3550 0cbf 7ca8 a23c a59a b7bd
000002c0: ec05 903e 1a28 a3bd 11a3 d53c efc9 c3bd
000002d0: 0b95 513d 2eee 34bd 4b1c 413e fceb 1fbd
000002e0: dc95 20bf 770d 07bf 9e3e ee3d e83f 5e3d
000002f0: ee2d 903d 58bb fabd 2056 5abe 0eca 023c
00000300: 4b36 28be c745 1c3b 37dc d53d b9e7 b1bd
00000310: 2e3c e8bd 0fe3 fdbd af2a 05be 0dcb 04bc
00000320: 5fbe e0bd d36c 71bd a7d7 52be b0cd 1a3e
00000330: d68b 0cbf c77b 913c f2f8 2bbd f00e 66bd
00000340: 0781 67be 1a1b 19be 8830 4e3c 7fc6 a0bd
00000350: a9d8 8e3c 6dd8 a0bd 336e 66be ede4 d0bd
00000360: cb22 03be 987b 0b3d 1053 043e 98e4 58be
00000370: be16 81be 7ad4 cdbd adb1 9dbd 717c 00bf
00000380: e849 a8be 8341 b339 a6fb 68be 3957 b2bd
00000390: 309d b5be 4d68 3cbc 98fc 073e 051e c4bc
000003a0: 8281 a43d ec9e 68be f428 eabd 39cf 91be
000003b0: 7a76 0dbe 4d23 7abd 6243 13bb a96f 3a3c
000003c0: ba34 04be 2529 733d d435 0ebe aaa4 033c
000003d0: 3e8f 1abe 8981 74bb e881 b53d 1347 dbbd
000003e0: a397 943d e8ae 8a38 b4a4 5d3d 42b1 bf3d
000003f0: 1f87 9a3d 3352 053e 4084 f33d e136 e1bb
-0.015977308 -0.033410084 -0.4399155 -0.28803927 0.02687281 -0.35036367 -0.26727554 -0.21538791
-0.5840627 -0.078439236 -0.08003172 -0.18047093 0.16033776 -0.026152574 0.06913263 -0.038875476
0.067985624 0.011386507 0.05970996 0.018592305 0.13872786 -0.6030051 -0.35903215 -0.173282
0.056583162 0.03272022 0.011822964 -0.08191709 -0.32573932 0.1576094 -0.14369656 -0.36375478
-0.007787979 -0.040780652 -0.5893066 0.18793756 0.063395 -0.030288683 0.04700694 0.09715428
-0.29776162 0.017766219 0.1482227 0.089885585 -0.0025482262 -0.012635955 0.17564575 0.029822526
0.048261475 0.029422736 -0.12026918 0.11383254 0.12384428 -0.30884692 0.10489107 -0.052599095
0.087359086 -0.19513932 -0.064048395 0.10016662 -0.07837285 -0.02745266 -0.40431485 0.1314923
-0.040917557 -0.044028673 -0.049981426 0.12120274 0.047743592 -0.00068060996 -0.052468568 -0.60796124
0.010380808 -0.7780742 0.036991727 0.056516815 -0.00344906 -0.0767722 -0.3364797 -0.06178917
-0.19668989 -0.49250084 -0.013289265 0.035065867 0.34461266 -0.071176976 -0.20299041 0.014665673
-0.3586399 -0.6882231 -0.005973938 -0.056015026 -0.052537706 -0.017355965 -0.25459567 0.032676198
-0.19117938 -0.07734669 -0.008706694 -0.0625059 -0.44124773 -0.24986997 -0.45636106 0.013233874
-1.1011767 -0.008518954 0.107792266 -0.17064765 0.081202656 -0.014493511 0.09659075 0.051840458
0.03165111 -0.09619974 -0.08115463 -0.22990121 -0.2624508 -0.33839598 0.060961053 -0.13609344
-0.24212751 -0.117151804 0.1364972 -0.2410172 -0.18203041 -0.022976704 -0.4694377 -0.08771909
-0.027254216 0.05312132 -0.15093377 -0.2939511 -0.17800586 0.005861175 0.0046839276 0.028923083
-0.0018512914 0.32400444 -0.30218863 -0.64856046 0.10301624 0.07236163 -0.07205656 0.15724553
-0.09339534 -0.20944221 0.05678521 -0.2275367 -0.4499817 0.053121556 -0.10161667 -0.022741055
-0.16539907 -0.54495364 0.025651908 -0.07339845 -0.055294327 0.10630785 -0.15891883 -0.05556916
-0.8881569 0.10550542 -0.07607664 -0.06739333 -0.083193086 0.053440522 0.0010158073 0.08341009
-0.46720687 0.017027896 -0.08241679 -0.06392066 0.016163098 -0.54809886 0.01985573 -0.08965043
0.28129518 -0.07966633 0.026078733 -0.0956 0.05116753 -0.04417246 0.18858449 -0.03904341
-0.6272867 -0.5275492 0.11633037 0.054260164 0.070400104 -0.12242764 -0.21321917 0.007982744
-0.16426961 0.0023845301 0.10442393 -0.08686776 -0.11339603 -0.123968236 -0.13004564 -0.008105052
-0.109738104 -0.058941673 -0.20590077 0.15117526 -0.5490087 0.017759217 -0.04198546 -0.05616659
-0.22607814 -0.14951745 0.012584813 -0.0785036 0.017437296 -0.0785378 -0.22502975 -0.10199914
-0.12806241 0.034053415 0.12922311 -0.21180952 -0.25212663 -0.10050292 -0.076999046 -0.5018988
-0.32868886 0.0003419035 -0.22752246 -0.08708043 -0.35471487 -0.011499477 0.1327995 -0.023940096
0.08032514 -0.22716874 -0.114335924 -0.2847841 -0.13814726 -0.06106882 -0.0022470583 0.011379161
-0.12910739 0.05936541 -0.13887721 0.008034864 -0.15093705 -0.0037308654 0.08862668 -0.10706916
0.07255485 6.6129316e-05 0.05411215 0.09359981 0.075453036 0.13019638 0.11890459 -0.006872997

network.4.bias f4 [128]
00000000: 9eda 38be 5fa0 2940 fc1b dbbd e436 02bf
00000010: 426b b93f 3f8a f4bf 68c5 6bbe df11 913f
00000020: f663 d7bd e01f 92bf 5cbb e7bd cb7a 7dbe
00000030: f786 19bf 4d4d 5e40 cbd9 19bf e573 31bf
00000040: cb81 bd3f d6c4 20bf 32eb 0340 8546 fdbe
00000050: a535 d7bc 4185 683f 8b68 2c40 8102 6d40
00000060: 1147 2abf f813 2640 1416 0abf 82d1 9240
00000070: a748 0140 a76d 823e 92d1 3d3e c1df 303f
00000080: 22d4 2e3f 776f 7a3f 91cf 1240 c932 2abf
00000090: c1b4 ebbe 616a 213f f0ac 22bf 8e3d a93d
000000a0: 7782 f03e 1296 35bf 9bd5 853e b392 f4be
000000b0: 27ae 8abe f128 8ebe c30f a4be 1901 f6be
000000c0: ddd9 a8be 3aa6 3dbf 3921 acbe 4165 0cbe
000000d0: 3fb9 41bf 7a96 063f a0c4 f23d 479e 5e40
000000e0: a811 e53f 4633 ea3f 5897 c93f db6f 2e40
000000f0: 8cbb d93e 7cf7 c13e 5f3a 31bf eda5 0e40
00000100: f012 923e 81fd 00bf 781a 0abf 5a2d e43d
00000110: 9df9 3140 9b5f babf 4d23 03c0 7971 be3f
00000120: 819a ae3e 9d43 6dbe a784 72be 3e2b 1440
00000130: ce11 ffbe de3b 543d a32b 37bf 21c9 623e
00000140: 8e70 e13e 8e69 3cbe 9d06 0c3f 6a7f b7be
00000150: 7171 3dbe a340 263d f07c 6a40 b74d 3c3e
00000160: d39a 1e40 1ab8 443f 2d72 e7be 17d6 563f
00000170: bb1a 2ebf c8d1 d33d 8fea 07bf f95c e5bc
00000180: 3130 913e 42ef 8ebd a6ce 743f 28c3 703f
00000190: c49d aa3f d3be e0be 5929 aebe 42cb 3f40
000001a0: 4c57 01bf 322e 193e 5de8 f5bd 779b 0840
000001b0: 6aaf b1be 2804 c4bb ded6 403f 1c9c 443f
000001c0: e820 37bf c451 fe3e e0c4 03c0 d286 36bf
000001d0: 9a98 c5be f033 f93f 6204 043f 2793 bcbe
000001e0: 0560 52bf e191 6740 a017 853f b92e 73be
000001f0: 621d 343f bc27 28bf 565c 7240 8d2e 2dbf
-0.18052146 2.6504133 -0.10698697 -0.50865006 1.4485857 -1.9104689 -0.23024523 1.1333579
-0.10517113 -1.1415977 -0.11315033 -0.24753873 -0.59971565 3.473468 -0.6009795 -0.69317466
1.4805235 -0.6280035 2.0612302 -0.49467865 -0.026270697 0.9082833 2.6938808 3.7032778
-0.6651469 2.5949688 -0.5393994 4.5880747 2.0200593 0.25474283 0.18536976 0.6909142
0.6829244 0.9782633 2.2939188 -0.6648374 -0.46036342 0.63052946 -0.6354513 0.08263694
0.46974537 -0.70932114 0.2613953 -0.47768173 -0.27085993 -0.2776561 -0.32043275 -0.48047712
-0.32978716 -0.74081767 -0.33619097 -0.137105 -0.7567329 0.5257336 0.118539095 3.4784105
1.7896013 1.8296897 1.5749311 2.725577 0.425259 0.37884128 -0.6922969 2.2288773
0.28530073 -0.50386816 -0.5394664 0.111414626 2.7808602 -1.4560426 -2.0490296 1.4878379
0.34102252 -0.23170324 -0.23683415 2.3151393 -0.4981827 0.051814906 -0.7155096 0.22147037
0.44031185 -0.18399641 0.5469759 -0.35839397 -0.18500306 0.040588986 3.6638756 0.18389021
2.4781997 0.76843417 -0.45204297 0.83920425 -0.6800954 0.10342747 -0.53092283 -0.027998434
0.2835708 -0.069792286 0.9562782 0.94047785 1.3329396 -0.43895587 -0.3401592 2.9967809
-0.5052383 0.14959028 -0.120072104 2.1344888 -0.34704143 -0.005981941 0.7532786 0.76800704
-0.71534586 0.49671757 -2.0588913 -0.7129947 -0.38592988 1.9468975 0.5156919 -0.36831018
-0.82177764 3.6182787 1.0397835 -0.23748292 0.70357335 -0.6568563 3.7868857 -0.67649156

network.6.weight f4 [128]
00000000: 2f8f 1e3f 7a43 f13e 0e6f 323f fe7d 333f
00000010: 85eb ca3e 8b08 463f 7a8a 223f 8d43 343f
00000020: 1b0d 443f 17ec 1b3f ae6e 263f 7ea7 0c3f
00000030: eab1 343f 6b85 a73e 03ce 323f 42d5 3d3f
00000040: 6364 cf3e d46c 573f 2abf cf3e 7710 973e
00000050: 3f61 193f 6733 cf3e b3fc b43e b1ad db3e
00000060: 67a5 4f3f 57c4 de3e 72c0 613f f0e6 9e3e
00000070: 9a52 b63e f46b 233f 0c8a 213f 4e03 033f
00000080: 6652 0f3f 7763 ed3e f4be e73e 5586 f83e
00000090: 1132 493f 2e23 2b3f 099d 0a3f 0633 373f
000000a0: cca5 383f a981 133f c228 053f a81b 503f
000000b0: e821 223f 8ad7 2f3f 27fd 513f 2d63 133f
000000c0: 2690 3c3f 846f 123f 1dcf 023f 7f9a 133f
000000d0: dcaa 953f de43 ee3e 52a4 fb3e 43c4 ae3e
000000e0: 143f e63e e98c 293f ee4e c93e 5d3e cc3e
000000f0: 91bb 173f 23ac 313f 842d 633f f5ef de3e
00000100: 380b 343f 5280 893e bf51 533f 7a85 3f3f
00000110: fd36 c43e 4533 563f 68a2 4e3f e178 c43e
00000120: 2fb9 cc3e f090 013f 380c 433f 83a8 093f
00000130: 3a67 3c3f 2d17 1a3f d55f 4a3f 4a75 1d3f
00000140: 3b86 1a3f 866b 303f fe33 c43e b390 203f
00000150: e2f3 133f b39a 1a3f 67f3 ad3e af61 463f
00000160: 8976 da3e 8e52 0b3f 96ae 613f 5e4d 123f
00000170: e601 8b3f 7e5d c53e 71e1 4a3f 065e 143f
00000180: 8282 003f e923 d83e f789 f03e 31da f53e
00000190: 5dee 123f 997e e13e b2a4 3c3f 8fe8 d93e
000001a0: ba89 163f da57 e13e a92b 3a3f 6337 e13e
000001b0: c11e 2f3f 0fce 2a3f 3d34 fa3e e59d fa3e
000001c0: 26f0 6d3f 08dc b63e 9b4d 483f c826 413f
000001d0: 7b65 113f 78ac f73e aa90 1f3f 549c 263f
000001e0: 580b c33e 1c8d b73e 4823 ca3e 23fa 663f
000001f0: cf59 093f 424f 643f 48f9 9d3e b122 503f
0.6193723 0.47121793 0.69700706 0.70114124 0.39632812 0.77356786 0.6349255 0.70415574
0.765825 0.6090712 0.65012634 0.5494307 0.70583975 0.32718977 0.698456 0.7415353
0.40506276 0.84150434 0.40575534 0.2950475 0.5991401 0.40468904 0.35349044 0.42905954
0.8111176 0.4350917 0.88184273 0.31035566 0.35609895 0.638366 0.6310127 0.5117692
0.55985105 0.46364948 0.45262873 0.48539987 0.7859202 0.66850555 0.54145867 0.7156223
0.72127986 0.5761972 0.52015316 0.812922 0.63332987 0.6868826 0.82026905 0.57573205
0.73657453 0.5720141 0.5109728 0.5765762 1.1692767 0.46536154 0.49148804 0.3413411
0.4497 0.66230637 0.3931803 0.3989133 0.5927058 0.69403285 0.88741326 0.43542448
0.7032962 0.26855713 0.8254661 0.74813044 0.38323203 0.8367198 0.8071656 0.38373473
0.39985034 0.5061178 0.7619052 0.53772753 0.7359501 0.60191613 0.7905248 0.61507094
0.6036107 0.6891407 0.38320917 0.62720793 0.5779401 0.603923 0.33974764 0.77492803
0.4266856 0.54422843 0.8815702 0.571493 1.0859954 0.3854789 0.79250246 0.5795597
0.5019914 0.42214897 0.4698026 0.4801803 0.57394964 0.440419 0.73688805 0.4256024
0.58803904 0.44012338 0.7272287 0.4398757 0.684063 0.6672067 0.4886798 0.4894859
0.9294456 0.35714746 0.78243417 0.754498 0.5679547 0.4837377 0.62330115 0.6508229
0.38094592 0.35849845 0.39480042 0.9022543 0.5365266 0.8918344 0.3085425 0.81302935
