models/player_projector_final.pth (torch, 219089 bytes, 20 tensors)

network.0.weight f4 [256, 33]
000000 9f a5 81 3d 5e ff a1 3d d7 76 96 3e 97 a0 43 bd
       0.06330418 0.079100356 0.29387543 -0.047760572
000010 44 6d 5c 3c 36 39 70 bd 55 bb 56 bd 7e 19 ba bd
       0.013453785 -0.05864831 -0.052424747 -0.090868935
000020 75 bb b2 bd 59 d4 d5 3d e3 de 46 be ed 85 96 3b
       -0.08727161 0.10440893 -0.19420962 0.004593602
000030 f2 8f 9e 3d d4 51 bc bd e4 8b 0b 3d 5b 39 fc bd
       0.07742299 -0.09195295 0.034068957 -0.12315627
000040 4b 95 fc 3d 7b fd 82 bf a4 54 17 3d 76 20 59 bd
       0.12333163 -1.0233606 0.036945954 -0.053009473
000050 e4 a5 ef bd 55 35 93 bc 06 83 bd bd 44 db 4c bc
       -0.11701563 -0.017969767 -0.09253506 -0.012503449
000060 6a 5c 8c 3b 52 2c 88 bd 5a 1b 74 3d 52 4d b5 3e
       0.0042834776 -0.066490784 0.059596397 0.35410553
000070 46 84 5e be 06 20 e9 be 4d 7b f7 39 a7 e8 8c 3c
       -0.21730146 -0.45532244 0.00047203377 0.017200781
000080 24 e0 16 bc d3 1f 35 be 42 95 ee bd ff 2c 67 bd
       -0.009208713 -0.17687921 -0.116495624 -0.056439396
000090 e1 e5 94 be 02 68 a1 3e 92 0b f2 bd fa fa 61 3d
       -0.29081634 0.31524664 -0.11818613 0.05517099
0000a0 8b e7 af 3d ee 5f 16 bd 8e 14 4d bd dc 2a 90 3d
       0.08589085 -0.03671258 -0.05006843 0.07039425
0000b0 fb 73 8e ba c3 77 89 3d 30 fe 61 be 29 a5 49 3d
       -0.0010868305 0.06712296 -0.22069621 0.049229775
0000c0 5a 25 8d be 2b 32 cd 3d b5 15 e8 bc 58 96 0e 3c
       -0.2756756 0.100193344 -0.028330663 0.008702837
0000d0 f8 40 a5 3e 1f 04 3a bd 15 a7 be 3d fa 79 b9 3d
       0.3227613 -0.045414086 0.09309212 0.09056468
0000e0 62 2a fe bc a8 34 31 3e a6 ea c8 be 3f 29 21 3e
       -0.03102607 0.17305243 -0.39241523 0.1573839
0000f0 1d 85 54 3f a6 ad 42 bc c9 9c e1 3d 54 75 03 bf
       0.83015615 -0.011882221 0.110162325 -0.51350904
000100 df e3 38 bf ad 9c 9e 3d 13 2b 8c be a1 cb d3 bd
       -0.72222704 0.07744727 -0.27376613 -0.103415735
000110 51 1b 61 bc 14 5d ae bd 30 eb 98 bd 7f b1 0c 3e
       -0.013739423 -0.08513847 -0.074667335 0.13739584
000120 78 c9 54 be 36 c8 fe 3d 19 ff e9 bd 40 00 e2 bd
       -0.20779979 0.12440531 -0.11425609 -0.11035204
000130 c1 df 2c 3e 1c ec 0d bf 4e 1f d5 bc c5 50 1c 3e
       0.1688223 -0.554384 -0.026015904 0.15265186
000140 8e 95 27 3e 36 e2 2c be 31 6f 7a be dd 1b 52 be
       0.16365644 -0.16883168 -0.24456479 -0.20518441
000150 dc f7 bd 3d af 98 8d 3d db f7 40 bd f5 f7 bc 3d
       0.09275791 0.06913888 -0.047111373 0.092269816
000160 4b 7d 10 be 45 0f 1d 3e 9d cd 0f 3e e0 ab 83 bd
       -0.14110295 0.15337856 0.14043279 -0.06429267
000170 23 89 0b bf 2b 98 a1 3e 08 b6 1d 3e 47 1f f2 3e
       -0.5450613 0.31561407 0.1540147 0.47289488
000180 49 3a 14 be 2e 39 1d be 26 47 94 bd f4 06 2c 3d
       -0.14475359 -0.15353844 -0.07240133 0.04199882
000190 a5 b4 b3 3c 07 f0 a9 bd 5d 67 28 bf 2e e4 fc 3b
       0.021936724 -0.08297735 -0.6578272 0.007717631
0001a0 ab cc b5 3e 1a 7e 9f 3c 39 a3 09 bd 2b 20 ca bb
       0.35507712 0.01946931 -0.033602927 -0.0061683855
0001b0 db f6 f2 3d 10 eb 3c bc 23 a2 0d be 96 23 3d 3d
       0.1186349 -0.011530653 -0.13831381 0.046176516
0001c0 f0 db c4 3a 87 ba bd bd 1c 7d c1 bc d9 63 9e 3c
       0.001501916 -0.09264093 -0.023619227 0.01933472
0001d0 e3 54 14 3d d7 26 90 3d f6 8d 8d bb 0b 9d 14 bd
       0.036213767 0.07038658 -0.0043199016 -0.03628258
0001e0 a7 df b5 3d 09 df e9 bc 00 f9 74 bd c4 1e 20 3e
       0.08880549 -0.028548734 -0.059807777 0.15636736
0001f0 99 e9 2b 3d 10 bf 15 be 9a e5 0a bf 2b f7 4d bd
       0.041970823 -0.14623666 -0.54256594 -0.050284546
000200 80 84 b0 3e 43 69 e1 bb 9a 5a 5b bc 2e ec 54 bc
       0.3447609 -0.0068790033 -0.0133883 -0.012995763
000210 87 66 c2 bc 2f 51 4b 3c 79 e0 74 3c 37 72 13 bc
       -0.02373053 0.012409492 0.014946097 -0.008999399
000220 34 e6 c3 3b b9 da 7c bc 50 f2 1e 3c 84 64 9c bb
       0.00597837 -0.015433007 0.0097013265 -0.0047727246
000230 48 46 34 bc 34 e1 a7 bb e1 8c 1f bc 20 97 e0 3b
       -0.0110030845 -0.005123282 -0.009738178 0.006853953
000240 6f 89 3a bc 88 ae ca 3b 5b 9a a9 ba 0c eb 86 bc
       -0.011385306 0.0061853565 -0.0012939678 -0.016469501
000250 15 4c 41 3c ef 98 81 bc 05 43 44 bf d8 76 67 3a
       0.0117979245 -0.015819995 -0.76664764 0.000882966
000260 4a d9 3f 3f 91 6a 83 bc df 91 06 3c 74 32 59 bb
       0.7494093 -0.016042026 0.008213489 -0.0033141645
000270 67 a2 3c 3c 1d 52 6a bb 4d 9d 8c bc 47 68 3c 3d
       0.011513329 -0.003575451 -0.01716485 0.045997884
000280 06 81 13 bc 22 97 12 bb ce 6c 28 bc f1 cb c9 39
       -0.00900293 -0.0022367914 -0.010279847 0.00038489656
000290 d5 57 30 bc e7 09 74 bf f9 27 f6 be 6c d0 34 3f
       -0.010763128 -0.9532761 -0.48077372 0.70630527
0002a0 b2 b4 46 3d 18 c8 10 bd 7b 1d fc bc 95 f0 35 3e
       0.04851217 -0.035347074 -0.030775776 0.17767556
0002b0 c7 55 20 bd 86 ff c9 bd 75 8a 8b 3d f3 d9 d5 bc
       -0.039144304 -0.0986319 0.06813518 -0.026104903
0002c0 e3 67 21 bd cb 89 d5 3c 7a 1f 1b bb 97 c9 0a 3d
       -0.039405715 0.026066681 -0.0023669885 0.033883657
0002d0 06 84 8c 3c 31 25 02 3e 6b d1 9a bd a3 88 8f 3d
       0.017152797 0.127095 -0.075594746 0.07008483
0002e0 46 8a b7 3b 7d 37 90 bd b1 0a 9d 3d d9 f8 dc bc
       0.0056012003 -0.070418335 0.07668055 -0.026974129
0002f0 c2 19 e4 bd 8f 63 e3 bb 35 79 8c 3d 76 c1 c4 bb
       -0.111377254 -0.0069393585 0.06859056 -0.0060045077
000300 37 c4 1e 3d ce e8 81 3e d0 d9 bd 3a 5d 9e 40 bb
       0.038761344 0.25372928 0.0014484469 -0.0029391267
000310 41 be fb bb 22 36 ee 3c 2a a9 6c 3e 40 4b 92 be
       -0.007682592 0.029078547 0.23111406 -0.28573036
000320 90 03 24 be 3d 6d 7e 3d d3 f0 26 be 77 18 a5 bd
       -0.16016984 0.062115896 -0.16302805 -0.08061307
000330 f6 e5 43 3e 64 18 b1 bd e4 9c 2d be 58 e7 00 be
       0.19130692 -0.0864723 -0.1695438 -0.1258825
000340 42 5b 0e 3d 02 97 9a bd 07 73 ce 3d b7 7a 21 be
       0.034755 -0.07548334 0.100805335 -0.15769468
000350 ab f2 a2 bd 10 e7 ed be 0f 2a 0a be 2c cc 21 bf
       -0.079564415 -0.4646535 -0.13492607 -0.63202167
000360 fa 65 51 be 71 10 8b bd 3f 50 a8 bd af 07 27 3e
       -0.20449057 -0.06790245 -0.08218431 0.16311525
000370 f9 e5 9d 3d a0 79 4b 3d 03 94 75 bd f4 19 88 3e
       0.077098794 0.049676538 -0.059955608 0.265823
000380 45 44 a7 bd 08 39 1d 3f f1 6b af bb 8f 84 2f 3f
       -0.08167318 0.6141515 -0.005353444 0.68561643
000390 da 91 e0 bd 54 dd 20 3e c7 86 e1 3c 36 00 2a 3f
       -0.10965319 0.1570943 0.027530087 0.6640657
0003a0 c4 81 2a 3e 32 74 bd 3e 73 d9 de 3d 0d ae 18 be
       0.16651064 0.37002712 0.10881319 -0.14910145
0003b0 ba cf 4a 3d 04 d6 96 bd e0 6a 35 bb a9 b2 ab bd
       0.04951451 -0.07365039 -0.002768211 -0.08383686
0003c0 13 32 43 3c 3a d9 b1 3d 1f d1 15 bd cf dc 30 bd
       0.011913794 0.08684011 -0.036576387 -0.04317933
0003d0 62 d8 85 3c 02 d2 64 3c b0 b8 1c 3e 45 aa c7 bd
       0.01633853 0.013966085 0.15304828 -0.09749273
0003e0 2c 43 a1 be 99 e1 99 bd 1f 82 a0 3c d2 85 9b bd
       -0.3149656 -0.075137325 0.019593297 -0.075938836
0003f0 d1 73 09 3e 0d ea 36 be 85 51 c6 bd 61 ab 96 bd
       0.13423087 -0.17862721 -0.09683517 -0.07356907

network.0.bias f4 [256]
000000 7a 13 66 bf 7c 92 28 bf 3d b7 ce be b8 39 81 bf
       -0.8987347 -0.6584852 -0.40374175 -1.0095739
000010 d2 b4 78 bf fb c1 36 bf 0a 2e c2 be 1f 0e 66 bf
       -0.9715091 -0.7138974 -0.3792575 -0.898653
000020 ec 5b 06 bf 91 e3 69 bf ee 41 78 bf 6a bb a1 be
       -0.5248401 -0.91362864 -0.969756 -0.31588298
000030 86 f7 3a be 7c b0 83 bf 5a 24 3a be 20 5c 36 bf
       -0.18258485 -1.0288234 -0.1817793 -0.7123432
000040 3e 88 fa bc 53 41 a8 3d dc e3 56 be 8f aa 6b bf
       -0.030582543 0.082155846 -0.20985359 -0.92057127
000050 86 80 41 bf 84 6d 3a bf b5 be 0d bf 5a 0f 31 3f
       -0.75586736 -0.7282336 -0.5536912 0.6916405
000060 8d 07 d1 3f 9d 62 01 be e9 47 28 bf 57 a0 4a 3e
       1.6330429 -0.12635274 -0.65734726 0.19787727
000070 65 a0 d3 3d c2 98 c9 be 88 5d 64 be 77 b3 59 bf
       0.10333327 -0.39374357 -0.22301304 -0.85039467
000080 ae 28 47 bf b5 41 94 3f 87 c4 64 bf 50 e7 83 3f
       -0.7779645 1.1582552 -0.89362377 1.0304966
000090 d5 7d fe be 32 35 0c bf 9c 14 6c 3e f6 b6 88 be
       -0.49705377 -0.5476867 0.23054737 -0.26702088
0000a0 b4 c5 f5 be c2 41 cf be fb 81 08 bf 63 3f 3c bf
       -0.48002398 -0.40479857 -0.53323334 -0.7353422
0000b0 64 bc cd be 64 80 52 be 7b e5 ce 3f 3c cc ff bd
       -0.40182793 -0.2055679 1.6163782 -0.124901265
0000c0 9a 35 a2 be bf 94 1b bf 5f 7e bc be 79 6f 7a bf
       -0.3168152 -0.60773844 -0.36815163 -0.97826344
0000d0 c7 65 59 bf 45 2e 29 bf 60 18 76 bf d0 74 c6 3f
       -0.84920925 -0.66086227 -0.96130943 1.5504398
0000e0 a9 4d 17 bf ed b0 2f bf 7b 71 aa bf fb a1 24 3e
       -0.59102875 -0.6862934 -1.3315881 0.16077416
0000f0 b8 93 93 be c2 07 f4 be b5 20 9a bf b5 20 82 be
       -0.28823638 -0.4766217 -1.2041231 -0.25415578
000100 4f e4 0a be 9e 2e c7 3e d5 44 05 3f 05 14 d9 bd
       -0.13563655 0.38902754 0.52058154 -0.105995215
000110 a2 37 ee be 34 38 e1 be c8 a0 f9 be 3a c9 68 bf
       -0.4652682 -0.43988192 -0.4875548 -0.9093205
000120 f2 19 0f 3f e5 77 6f bf b5 97 40 bf f4 9a 08 bf
       0.55898964 -0.9354232 -0.75231487 -0.5336144
000130 24 b2 32 bf 90 a8 ca be 2e 6a 94 bf 91 ff 5a bf
       -0.6980307 -0.39581728 -1.1594903 -0.85546213
000140 ea fb b1 bf 54 01 4a bf c7 c8 bc 3f 0b 9c 0e be
       -1.3905003 -0.78908277 1.4748772 -0.13926713
000150 1f dc 46 bf 82 56 2c 3f ac 61 82 bf 64 db 7d be
       -0.7767963 0.673195 -1.0186057 -0.24790722
000160 8b f1 58 bf 26 54 56 bf 76 61 7c bc 58 ea a8 be
       -0.84743565 -0.8372215 -0.015404096 -0.3299129
000170 7c 4e b5 be 11 e1 c9 3f 5b af 06 40 b5 ca 35 3e
       -0.3541144 1.577181 2.1044528 0.17753108
000180 e6 69 27 bf 1f 5f 50 3e 12 a6 27 3f cf bd 98 be
       -0.65395963 0.20348786 0.6548778 -0.29832312
000190 12 91 68 bf 4a 69 b6 be 51 15 5e bf bf 92 97 be
       -0.9084636 -0.35627204 -0.86751276 -0.29604146
0001a0 57 62 28 be c6 5c 8b be df b6 6c bd 45 85 24 bf
       -0.16443764 -0.27219218 -0.057791587 -0.64265853
0001b0 23 29 27 bf 6a 7a 09 bf 1a d0 04 bf 90 23 63 be
       -0.65297145 -0.53702414 -0.5188004 -0.22181535
0001c0 69 1e eb be 69 41 0a 3f 32 fa c2 be ad 6f 64 be
       -0.4592164 0.5400606 -0.3808151 -0.22308226
0001d0 43 23 93 bf b9 70 fa be 06 c1 19 bf b6 87 9a bf
       -1.1495136 -0.48914126 -0.60060155 -1.2072666
0001e0 5e 3c 1b bf d9 a6 9b bf 63 04 a9 bc fb 48 55 bf
       -0.6063899 -1.2160293 -0.020631975 -0.83314484
0001f0 05 3a 00 bf d0 6c b8 bf b6 ca c3 be 0c ba c3 3f
       -0.5008853 -1.4408207 -0.38240594 1.5291152
000200 18 af 25 3f 28 32 0f bf fa 1d 55 bf 0b 99 50 bf
       0.64720297 -0.5593591 -0.83248866 -0.81483525
000210 6c fc a8 bf 1d 5a 9b bf cc 7f 3a 3f 20 dd 95 bf
       -1.3202033 -1.2136875 0.7285125 -1.1708107
000220 7d 55 c7 3f 34 8c 28 bf 4b d8 5b bf aa 8f 55 bf
       1.5572964 -0.65838933 -0.8587691 -0.8342234
000230 54 67 f6 be f8 7a 37 bf 7c 65 28 bf 5f c8 c5 3f
       -0.48125708 -0.7167201 -0.6577985 1.5451773
000240 e0 9d b9 be 53 21 dc bd ea c0 72 3d 71 99 2c bf
       -0.36253262 -0.107485436 0.05926601 -0.67421633
000250 94 01 43 bf e3 c4 ee be 7a d2 7e bf b1 eb 26 3c
       -0.76174283 -0.46634588 -0.9953991 0.010188029
000260 60 4b 9b bd 8b eb 18 bf 9b 14 04 bf f6 cb 99 bf
       -0.07582736 -0.5973441 -0.5159394 -1.2015369
000270 5f 5e f3 be 55 93 f1 3d e0 15 03 bf 0f 2b 0f bf
       -0.47532937 0.117956795 -0.51205254 -0.5592508
000280 5c 48 4b bf 8e 7b f7 be 38 72 23 be 60 f0 a2 be
       -0.79407287 -0.48336452 -0.1596154 -0.31824017
000290 65 34 1a 3f ff 2d 4a bf 63 2e 3b 3d 09 fe 57 bf
       0.602362 -0.78976434 0.045698535 -0.84372
0002a0 73 25 40 bf 58 9a 30 bf b2 52 53 bf a2 b8 c5 be
       -0.7505714 -0.6898551 -0.8254806 -0.38617426
0002b0 4e a4 62 be f8 04 20 be fc 7d 6c bf cb 48 13 be
       -0.2213299 -0.15626895 -0.92379737 -0.14383237
0002c0 82 5e e5 be b1 c8 66 bf 51 5d a9 be cf 6d 83 be
       -0.44798666 -0.9014998 -0.33079007 -0.25669715
0002d0 e3 f9 4a bf 05 ec 48 be d5 35 e2 3e 42 c4 0e 3f
       -0.79287547 -0.19621284 0.44181696 0.55768216
0002e0 9e 59 30 bf 16 88 28 bf 23 ee a8 be f0 c3 19 bf
       -0.68886745 -0.6583265 -0.32994184 -0.600646
0002f0 e5 72 05 bf 75 33 10 40 98 29 33 bf 9d 7b c9 3e
       -0.5212844 2.2531407 -0.6998534 0.39352122
000300 ea 85 b9 be a1 00 15 3f 4f d1 9a be ba d4 f1 bd
       -0.3623498 0.58204085 -0.30237815 -0.118081525
000310 b6 de 7f bf 81 c3 89 bf a1 aa aa 3e 41 f4 1f bf
       -0.99949205 -1.0762788 0.33333305 -0.62482077
000320 b3 12 06 bf 26 0e f6 be f5 b0 12 bf 74 55 ac be
       -0.5237228 -0.4805767 -0.57301265 -0.33658946
000330 98 bb e0 be 56 f7 9a bf 54 b5 e8 3e 51 5b 42 bf
       -0.43893123 -1.2106731 0.45450842 -0.7592059
000340 d3 96 50 bc 31 05 c4 bd c8 00 5c bf f6 1a 21 bf
       -0.012731272 -0.09571303 -0.8593869 -0.62931764
000350 82 ca b6 bf 43 6b 95 be ea 74 8b 3e f2 18 09 3f
       -1.428055 -0.29183397 0.27237636 0.5355369
000360 4b 20 08 bf 4e dc 25 be 02 3e f4 be 7d e2 11 bf
       -0.53174275 -0.16197321 -0.47703558 -0.5698622
000370 d2 36 72 3d 61 c1 83 3e c7 b9 2d 3f f9 85 21 bf
       0.059134312 0.25733474 0.678616 -0.6309505
000380 72 c4 4c bf de be 5e be 92 3f 5c be a5 a0 49 bf
       -0.7998725 -0.21752498 -0.21508625 -0.7876075
000390 3a 31 ec be fb 08 23 3f dc b2 4e bf da 79 a3 be
       -0.46131307 0.6368558 -0.8074167 -0.31928903
0003a0 3c eb 80 3e 4c 8f 19 bf 0a 9d 7e bf 14 e0 4f 3e
       0.2517947 -0.5998428 -0.9945837 0.20300323
0003b0 7e d6 ee bd b9 b1 34 bf a3 8e 82 3e 86 8a 44 bf
       -0.11662005 -0.70583683 0.25499448 -0.7677387
0003c0 e1 61 38 bf 48 3d e5 be 8e 86 05 bf 6c 43 34 be
       -0.7202435 -0.44773316 -0.5215844 -0.17603844
0003d0 6d 6c 6c 3e 11 a5 ec be 3d b3 c3 3f 53 1c c2 be
       0.23088236 -0.46219686 1.5289074 -0.37912235
0003e0 80 d0 4b be a6 79 e1 bc 55 92 85 be 25 dd 44 bf
       -0.19903755 -0.027523827 -0.26088205 -0.7689994
0003f0 e9 39 e5 be 6c 70 7c bf 7f a2 52 bf 39 3f 06 bf
       -0.44770744 -0.9860904 -0.822792 -0.5244022

network.2.weight f4 [256]
000000 6f f2 47 3f fb ee 51 3f 5b c0 3d 3f 95 a7 44 3f
       0.781043 0.8200528 0.74121636 0.7681821
000010 a1 9b ce 3f b1 7e 33 3f f3 49 81 3f 42 2f 23 3f
       1.6141244 0.7011519 1.0100693 0.63743985
000020 dd 73 5d 3f 00 2c 28 3f 29 aa 26 3f 82 67 2c 3f
       0.8650492 0.6569214 0.65103394 0.6734544
000030 b2 05 34 3f 4f c0 8f 3f bc a6 85 3f cc cf 3c 3f
       0.7032119 1.1230563 1.0441508 0.7375457
000040 2d 8a 1b 3f 06 b8 84 3f ef ea 67 3f 04 03 2e 3f
       0.60757715 1.036866 0.90592855 0.6797335
000050 ad bb 58 3f c2 59 3d 3f f6 21 32 3f d2 42 1d 3f
       0.8466137 0.73965085 0.6958307 0.61430085
000060 83 fa dc 3e d6 f3 a4 3f aa aa 6c 3f 46 22 2f 3f
       0.43159875 1.2886913 0.9244791 0.6841167
000070 18 95 71 3f 58 e5 56 3f 79 bd 2c 3f 1f 59 8b 3f
       0.94368124 0.839437 0.6747661 1.0886573
000080 a4 05 b1 3f b9 00 0d 3f 57 c2 b5 3f c2 73 11 3f
       1.3829846 0.5507923 1.4199933 0.5681726
000090 41 de 09 3f 2e b4 37 3f ea cf 07 3f 80 26 13 3f
       0.5385476 0.7175931 0.53051627 0.5748062
0000a0 0b c0 5d 3f 4e ac 18 3f b8 96 4b 3f cf c5 29 3f
       0.8662116 0.59637916 0.79526854 0.66317457
0000b0 5a 19 46 3f 14 2c 60 3f 74 dc 1d 3f db b8 37 3f
       0.77382433 0.8756726 0.6166451 0.7176644
0000c0 4e c5 1e 3f 44 82 2d 3f a1 78 1f 3f a1 7a 3c 3f
       0.62019813 0.67776895 0.6229344 0.73624617
0000d0 c4 e0 63 3f b6 77 68 3f 77 fd 49 3f 95 6b bb 3e
       0.8901484 0.90807664 0.7890238 0.36605516
0000e0 63 fe 6a 3f ef c2 7f 3f ba 05 89 3f 4f 85 23 3f
       0.91794413 0.9990682 1.0704873 0.6387529
0000f0 05 de 2c 3f 98 79 11 3f 56 fc 33 3f fb 05 25 3f
       0.67526275 0.5682616 0.7030691 0.6446225
000100 17 a7 56 3f ae de 25 3f c7 91 06 3f 96 a8 1f 3f
       0.8384871 0.6479291 0.5256619 0.62366617
000110 c1 03 63 3f 75 52 5b 3f 0b 4b 4c 3f 0d 4b 97 3f
       0.88677603 0.85672694 0.79802006 1.1819779
000120 51 bf 24 3f 1f 4c 85 3f 97 1c 1f 3f e8 69 33 3f
       0.64354426 1.0413855 0.62153 0.70083475
000130 8c a3 31 3f c2 28 94 3f 2e 00 60 3f 4f a6 88 3f
       0.6939018 1.1574938 0.87500274 1.0675753
000140 11 4e a9 3f 2e 66 84 3f d2 88 a8 3e 94 f3 84 3f
       1.3226949 1.0343683 0.32916886 1.0386834
000150 ae de 39 3f 9b c6 13 3f 2a f4 1e 3f 03 9d 19 3f
       0.7260541 0.5772492 0.62091315 0.60005206
000160 ae 9b 8b 3f 54 1a 8a 3f 54 9d 14 3f 5c 0f 7f 3f
       1.0906885 1.0789285 0.58052564 0.9963281
000170 c5 a7 40 3f 46 cd ac 3e 7f b3 1d 3f ad 8f 29 3f
       0.75255996 0.3375036 0.61602014 0.66234857
000180 fb b7 5a 3f 52 3a fd 3e 2a 4f 0d 3f 05 d3 86 3f
       0.8543698 0.49458557 0.5519892 1.0533148
000190 97 f9 89 3f e8 34 6e 3f 61 64 88 3f 02 33 5a 3f
       1.0779294 0.9304948 1.0655633 0.8523408
0001a0 8c 36 6c 3f a3 43 30 3f 26 e7 43 3f d3 dc 55 3f
       0.9227073 0.68853205 0.7652458 0.83540076
0001b0 42 45 4d 3f 4c bf 0f 3f 4a d0 63 3f 26 9a 50 3f
       0.80183804 0.5615127 0.889897 0.8148521
0001c0 6e a2 6f 3f a8 d4 2d 3f 3b c0 f0 3e 0c 46 19 3f
       0.93607223 0.6790261 0.4702166 0.5987251
0001d0 d1 51 66 3f 36 ee 3f 3f 68 61 92 3f 1f f5 1c 3f
       0.8996859 0.74972856 1.1435976 0.61311525
0001e0 56 3a 02 3f 06 12 87 3f 69 01 fe 3e 71 0f 27 3f
       0.50870264 1.0552375 0.4961045 0.65257937
0001f0 04 68 1b 3f a3 69 7d 3f e2 42 86 3f d3 4b c0 3e
       0.6070559 0.98989314 1.0489161 0.3755785
000200 f4 b4 27 3f dc 3c 84 3f 5f 37 30 3f 4a db 4b 3f
       0.6551049 1.0331073 0.6883449 0.79631484
000210 0a d7 62 3f 5d 60 46 3f 95 da 24 3f 97 98 5a 3f
       0.88609374 0.7749079 0.6439603 0.85389084
000220 74 67 05 3f 58 cf 5d 3f f0 b8 95 3f f3 bb 93 3f
       0.5211098 0.86644506 1.1697063 1.1541733
000230 c3 e4 27 3f ee ec 7d 3f 29 a9 fb 3e 22 7b e5 3e
       0.6558344 0.9918965 0.49152496 0.44820505
000240 59 0b 73 3f a6 e3 0e 3f 60 cb 18 3f 8c 4b 23 3f
       0.9493919 0.55816114 0.59685326 0.6378715
000250 85 d4 4d 3f 89 34 2a 3f a0 ec bb 3f ac 0f 25 3f
       0.80402404 0.6648641 1.4681587 0.6447704
000260 80 01 28 3f 3f 23 74 3f 62 71 3a 3f 21 f4 17 3f
       0.6562729 0.9536628 0.7282926 0.59356886
000270 89 b6 22 3f 82 17 85 3f 5f bb 81 3f cc 86 17 3f
       0.63559777 1.0397799 1.0135306 0.5919006
000280 f9 fe 95 3f 1e 65 27 3f 95 2a 07 3f 3c f8 64 3f
       1.1718436 0.6538867 0.5279935 0.89441276
000290 7e 5f 30 3f c4 68 71 3f 41 1b 6b 3f 39 c4 45 3f
       0.6889571 0.94300485 0.9183846 0.77252537
0002a0 22 df 58 3f b4 ba 07 3f e8 7f 4e 3f 61 40 37 3f
       0.84715474 0.5301926 0.8066392 0.7158261
0002b0 e8 fc 37 3f 76 9a 58 3f d0 19 8c 3f 53 b6 38 3f
       0.7187028 0.8461069 1.0945377 0.72153205
0002c0 85 55 5e 3f 12 0b 86 3f 9b 8a 75 3f b4 f5 42 3f
       0.8684924 1.0472128 0.9591462 0.76156163
0002d0 d7 8c 25 3f 4e 62 3e 3f af f4 b2 3e 7a fd 2e 3f
       0.6466803 0.7436875 0.34952304 0.68355525
0002e0 49 2c 8a 3f e3 52 8a 3f 3b 5e 30 3f d8 51 5c 3f
       1.0794765 1.0806545 0.68893784 0.86062384
0002f0 5d 9c 35 3f 2a cc 20 3f 11 1b 34 3f 8a 0d 58 3f
       0.70941716 0.6281153 0.703538 0.8439566
000300 c1 8f 6f 3f 41 39 11 3f 89 19 24 3f 47 70 05 3f
       0.93578726 0.5672799 0.64101464 0.52124447
000310 6a 58 b1 3f 42 b5 88 3f aa 60 5d 3f bb 47 80 3f
       1.3855107 1.0680315 0.8647562 1.002189
000320 be 65 83 3f 97 d7 8a 3f 92 c3 32 3f a9 3e 13 3f
       1.0265424 1.0847043 0.69829667 0.57517487
000330 64 33 8a 3f ef 51 57 3f 52 e6 27 3f e1 54 6f 3f
       1.0796933 0.84109396 0.65585816 0.9348889
000340 0d 81 56 3f f7 b8 48 3f c3 75 86 3f 67 e8 4d 3f
       0.83790666 0.78407234 1.0504688 0.8043274
000350 f5 5d 53 3f d8 f5 81 3f 48 3f 55 3f 2b 56 1b 3f
       0.8256524 1.015315 0.83299685 0.60678357
000360 88 5b 48 3f 5d 8a 28 3f 59 3e 45 3f c5 85 4a 3f
       0.78264666 0.65836126 0.7704826 0.79110366
000370 ab 2b 4f 3f cb 18 24 3f 50 84 22 3f 50 c5 49 3f
       0.8092601 0.6410033 0.6348314 0.788167
000380 8b 83 8c 3f e0 9a 85 3f 6c 7a 76 3f 3e ce 96 3f
       1.0977644 1.0437889 0.9628055 1.178169
000390 cf 08 7d 3f 19 63 1a 3f 5a 4a 22 3f 86 f0 27 3f
       0.98841566 0.6030746 0.633947 0.65601385
0003a0 d3 10 7b 3f 31 93 5f 3f 83 b1 45 3f f9 d4 02 3f
       0.98072547 0.8733397 0.77223986 0.5110622
0003b0 a9 93 32 3f 66 56 1d 3f 74 05 1f 3f 39 7f 01 3f
       0.6975656 0.6145996 0.62117696 0.5058475
0003c0 9c 70 6c 3f c3 6e 19 3f 73 0b 6e 3f b2 1d 32 3f
       0.9235933 0.59934634 0.9298622 0.6957656
0003d0 ea 9e 1d 3f ec bd 53 3f 5c fe ae 3e 1d ba 18 3f
       0.6157061 0.8271167 0.34178436 0.59658986
0003e0 d2 0b 5d 3f b6 0e f9 3e 88 4d 21 3f 1d a6 35 3f
       0.8634616 0.48644036 0.6300893 0.70956594
0003f0 ed f7 2e 3f 7e 70 6c 3f 42 28 90 3f 23 be 76 3f
       0.68347055 0.9235915 1.1262286 0.96383876

network.2.bias f4 [256]
000000 30 62 4c bd 83 0e ef 3d 2a 3d 14 3e df 94 90 3d
       -0.049898326 0.1167269 0.14476457 0.07059645
000010 74 b3 89 3e 7e 92 5c bd df d1 c5 3e 47 1f 44 be
       0.26894724 -0.053850643 0.3863668 -0.19152556
000020 88 0a 34 3e fe 0a 9a 3c 43 6f 87 3e 91 20 d0 3d
       0.17582142 0.01880407 0.26452073 0.101624615
000030 77 c2 94 3e e5 f1 90 3e a2 00 0d 3f 1a 89 d3 3d
       0.29054615 0.2830955 0.5507909 0.103288844
000040 b2 6b 7d 3e 77 34 6c 3f c2 d0 a6 3e 3e 59 90 3d
       0.24748114 0.92267555 0.32581145 0.070482716
000050 3b 06 56 3e 22 91 1d 3e 19 e7 65 3e fc c2 1e 3d
       0.20900814 0.15387395 0.22451438 0.03876017
000060 55 1f 26 bb d4 da f9 3e a3 9b 9c 3e 38 0f 3f 3e
       -0.0025348265 0.48799765 0.3058749 0.18658149
000070 90 99 45 3f 71 67 e4 3e 4e 0f 20 3d ec 98 12 3e
       0.7718744 0.4461017 0.039077096 0.14316148
000080 b9 55 51 3e 43 3a 89 bd ed 76 e2 3e 19 01 a2 3d
       0.20442857 -0.06700566 0.44231358 0.079103656
000090 51 7a c4 be f7 af d1 be 20 72 86 be 71 5f d4 3d
       -0.3837457 -0.40954563 -0.26258945 0.103697665
0000a0 bc da 99 3e a9 cc e6 bd 6b 13 bc 3e 46 bc 28 3d
       0.30049694 -0.112695046 0.36733565 0.041195177
0000b0 05 53 a0 3e 6f 8c f9 3e a1 01 9c bd 95 df b0 3e
       0.3131334 0.48739955 -0.07617498 0.3454558
0000c0 10 1f 10 bd df 8e d8 3d 73 58 de bd 72 a9 40 3e
       -0.035185874 0.105741255 -0.10856714 0.18814638
0000d0 0f ae 46 3e 99 48 75 3e 21 6b 5e 3e 30 1f 0a bd
       0.19402336 0.23953475 0.21720554 -0.03372115
0000e0 90 de a5 3e c4 4d 7c 3e 70 0e 4d 3e 69 3a 94 3e
       0.32396364 0.2463904 0.20025039 0.28950813
0000f0 0c fc 69 3d 5a 9b 6a bd a2 e2 da 3c 0b 40 56 bd
       0.057125136 -0.05727706 0.026719395 -0.05230717
000100 89 41 b2 3e f5 1d 52 be ee b9 9b 3d 53 d3 76 be
       0.34815624 -0.2051924 0.07603823 -0.24104051
000110 08 37 41 3e 58 9a 7a 3e a3 08 2b 3e f9 a7 21 3e
       0.18868649 0.2447294 0.16702513 0.15786733
000120 49 1f 69 be 4e 1e 1a 3e 09 3f 71 3d 2b 61 2f 3e
       -0.2276584 0.15050623 0.058898006 0.1712691
000130 7e b4 9f 3d 5b 12 f7 3e 58 60 d2 3c b3 22 81 3e
       0.07798098 0.48256192 0.025680706 0.25221786
000140 50 5b 8f 3e 72 19 89 3e 88 41 6a bd fe fc b9 3e
       0.27999353 0.26777226 -0.0571914 0.3632583
000150 89 62 f5 3d bf cf 1e bf 92 ca 51 be cc c4 8e 3d
       0.11981685 -0.62035745 -0.2048743 0.0697113
000160 57 8a fc 3e 65 57 55 3e 70 82 c9 3d a2 02 f7 3e
       0.49324295 0.2083412 0.09839332 0.48244196
000170 b1 04 9e 3e 52 77 39 bd 47 38 88 3d bf 0a 50 bd
       0.30862954 -0.04527981 0.06651359 -0.0507915
000180 f7 83 4d 3e a1 d0 02 bf 2f 4b fd be df 08 cb 3e
       0.20069872 -0.5109959 -0.49471423 0.39655206
000190 84 6c 14 3e b4 f2 b8 3e 9b 14 06 3e 7d 60 c7 3e
       0.1449452 0.36122668 0.13093798 0.38940802
0001a0 2c 26 1b 3f dc 12 93 3d cd a2 0f 3f a1 1a 5a 3e
       0.6060512 0.071813315 0.5610779 0.2129922
0001b0 9a 95 94 3d 32 16 02 3d 49 7b 13 3f 3b 95 6c 3e
       0.07255097 0.03175945 0.57609993 0.23103802
0001c0 ae 3c 8c 3e 33 f0 8d 3e ea a3 d0 3d 7d 82 15 3e
       0.27390045 0.2772232 0.10187514 0.14600559
0001d0 24 18 5a 3d c3 54 05 3e b3 78 31 3f e0 30 a8 bc
       0.05324568 0.13020615 0.693248 -0.020531118
0001e0 d0 25 2e be 93 50 2b 3e 48 b6 87 bc 61 8e 31 3b
       -0.17006612 0.16729955 -0.01656641 0.002709292
0001f0 0e ec a2 bb 52 93 f5 3d 17 b7 2e 3f 10 08 2d bd
       -0.0049719876 0.1199099 0.6824812 -0.042244017
000200 54 8c 06 3e 44 f5 d1 3e 47 2c c4 3c 38 b2 5f 3d
       0.13139468 0.41007435 0.023946894 0.054613322
000210 c2 f0 93 3d 6b ac 63 be 25 17 96 3e a8 32 f4 bb
       0.07223655 -0.22233741 0.29314533 -0.0074523278
000220 ad 30 a9 bd 42 0f af 3e b3 7f 10 3e b2 2e 7e 3e
       -0.08261237 0.34191328 0.14111213 0.248225
000230 2e 08 6f 3e cb 3e 78 3e 93 f0 42 3e 1c 48 2d 3c
       0.23342964 0.24242704 0.19037084 0.010576274
000240 a5 77 bb 3e d1 d1 0a 3d 91 35 df 3c fc 4a 21 3d
       0.3661472 0.033891503 0.027247222 0.03937815
000250 01 76 c1 3d d1 d6 c7 bd 81 56 88 3e c7 7c 13 bf
       0.094463356 -0.0975777 0.26628497 -0.5761227
000260 f0 06 e1 3d dd 18 6b 3e 83 7b bc 3e 1d e9 cc be
       0.10987651 0.22958703 0.36812982 -0.400216
000270 74 92 2f bd bc 94 09 3f 71 b3 dd 3e 81 ea 00 3e
       -0.042864278 0.53742576 0.43300965 0.12589456
000280 b3 b7 90 3e 77 5d 8a bc 01 6f 12 3d a9 38 8b 3e
       0.2826515 -0.01689027 0.035750393 0.27191666
000290 a6 01 08 3e 81 1e 55 3e 11 0f c7 3e fc 15 e5 3d
       0.13281879 0.20812418 0.38878682 0.11185834
0002a0 10 ba 45 3e cd 30 bf be ed 00 1e 3e e2 a2 0b 3e
       0.19309258 -0.3734192 0.1543004 0.13636354
0002b0 1a 5c e7 be 6d e5 b3 3e 08 09 ac 3e 1d 6f 3b 3e
       -0.45187455 0.35135975 0.3360064 0.18304105
0002c0 c9 12 3e 3e 43 c2 db 3e 59 7c 2a 3f 87 98 ec 3e
       0.18561853 0.42921647 0.6659599 0.4621012
0002d0 20 22 97 3c cf d4 95 3e dc cb e7 3d 4a 9d f1 3e
       0.01844889 0.29263923 0.1131818 0.47190315
0002e0 ed 60 1d 3f e6 de 05 3f 7e bb 97 3e 7b 39 31 3e
       0.6147602 0.5229324 0.29635233 0.17307083
0002f0 ba d0 c7 be 76 b6 3f 3d 7b cb be bb 02 80 43 3f
       -0.39026433 0.046804868 -0.0058225966 0.763672
000300 da 59 f2 3e de e9 1f bf 09 be ff 3d 20 36 0f 3b
       0.47334176 -0.6246623 0.12487418 0.002185233
000310 c9 e4 69 3e 2d 67 b2 3e de 15 f7 3e 43 73 95 3e
       0.22841181 0.34844342 0.4825887 0.291895
000320 d3 cd 1d 3f 7f 81 bf 3e cc 26 d4 3c 3f 27 d8 be
       0.6164219 0.37403485 0.025897406 -0.42217442
000330 f0 9f bf 3e 91 7b cb bd c0 4a 20 3e d0 8c 51 3e
       0.3742671 -0.09935678 0.15653515 0.20463872
000340 ae 11 ea 3e b4 3c 92 3e 96 d5 4f 3e bb 86 1c 3e
       0.45716614 0.28561938 0.2029632 0.1528577
000350 eb 28 72 3c c9 eb 0b 3f 08 8e 22 3f bd fb 82 bc
       0.014780263 0.54656655 0.6349797 -0.015989179
000360 b8 0d 56 3e 32 e0 1d 3e a2 09 86 3d 05 24 38 3e
       0.20903671 0.15417555 0.06544806 0.1798249
000370 32 a9 65 3e 61 bf 9f 3e 87 58 b3 be be b2 4a 3e
       0.22427824 0.31200698 -0.35028479 0.19794747
000380 6c 41 a2 3e f0 69 36 3f 2c a3 23 3f 73 2f bb 3e
       0.31690538 0.712554 0.63920856 0.36559638
000390 ac 0d 04 3f e2 8b be bd 5a 1d 84 3d 84 ce 22 3e
       0.5158336 -0.09304024 0.06450911 0.15899092
0003a0 7e 45 f5 3e 20 47 67 3e 9e 20 3b 3c 45 ef da 3d
       0.4790458 0.22585726 0.011421351 0.10690168
0003b0 99 d9 c7 3e 4a 64 bc be 33 4b 73 be a4 34 2f bd
       0.390332 -0.36795264 -0.23759155 -0.04277481
0003c0 70 8d 9d 3e 20 2e 72 be 9c 3a a8 3e b9 76 12 3e
       0.3077197 -0.23650408 0.32857215 0.14303102
0003d0 0d c1 11 3e cf db a6 3e 88 1e 92 bd 8a 47 f9 3d
       0.142338 0.32589576 -0.071347296 0.12171848
0003e0 a9 67 c4 3d cd f4 02 bf e4 ea 4e 3e a5 98 09 be
       0.09590084 -0.51154786 0.20206791 -0.13437136
0003f0 c9 d3 ad bd 3d 53 e7 3d 9a c1 2b 3f ca 52 fd 3e
       -0.084876604 0.11295173 0.6709229 0.49477226

network.2.running_mean f4 [256]
000000 4d 90 1f 3e 73 aa 3a 3e 72 eb 33 3e 27 38 7e 3c
       0.1558239 0.18229084 0.17570284 0.015516317
000010 00 6a e7 3c e0 f2 45 3d 0b 0b 3e 3e b5 5a 68 3e
       0.028248787 0.048327327 0.185589 0.22690852
000020 67 17 1a 3e bd 5f 6e 3c c6 ab 1f 3e 96 83 e5 3d
       0.1504799 0.014549193 0.1559287 0.11206739
000030 71 05 c2 3e 10 05 d8 3d 7a 79 d0 3e 0a 02 4a 3d
       0.37894776 0.105478406 0.4071768 0.04931835
000040 b0 f5 92 3e 46 ea 01 3f 50 43 7e 3e 6c e6 08 3e
       0.2870307 0.507481 0.24830365 0.13369149
000050 e3 7a fa 3d 6c d2 da 3d a3 30 04 3e 96 16 7a 3f
       0.1223047 0.10684666 0.12909178 0.97690713
000060 18 d1 d0 3f b8 02 b3 3e 43 d6 14 3e 5b bb fc 3e
       1.631381 0.34963012 0.1453486 0.4936169
000070 37 d5 6e 3f f6 63 3f 3f 08 fe 4e 3e ee 91 5f 3c
       0.9329409 0.74761903 0.20214093 0.013645632
000080 cb ca c9 3c b0 0e 95 3f 2c a8 00 3e 21 70 88 3f
       0.024632832 1.1645107 0.12564152 1.0659219
000090 bb 77 a8 3e 10 37 c7 3e 9c 00 57 3f 03 70 6c 3e
       0.32903847 0.38909197 0.83985305 0.23089604
0000a0 74 0d ce 3d 29 70 66 3e 09 11 82 3e 41 e9 59 3d
       0.1006116 0.22503723 0.25403622 0.053200964
0000b0 b2 91 a8 3e f2 72 53 3e 0e 75 ce 3f 66 cf 0a 3f
       0.32923657 0.20649317 1.6129472 0.54222715
0000c0 c6 52 88 3e e0 6c 04 3e 61 88 2f 3e 3c 7d 07 3e
       0.2662565 0.12932158 0.17141868 0.13231367
0000d0 fc da 3b 3e 0f 68 7e 3d 74 ab b8 3e 5b d5 c6 3f
       0.18345255 0.062110957 0.36068308 1.5533861
0000e0 84 bd 1b 3e 15 0e a2 3d 20 c0 3d 3d 1e e9 0a 3f
       0.15209013 0.07912842 0.046325803 0.5426196
0000f0 3e 58 58 3e ad 7d 08 3e 7d 64 4e 3d e9 ed 87 3e
       0.21127412 0.13329192 0.0503888 0.265487
000100 37 6a b6 3e 85 f7 16 3f 84 98 23 3f c4 da 12 3f
       0.3562791 0.58971435 0.63904595 0.5736506
000110 99 4c 60 3e c6 23 c2 3d 9b ea 1e 3e a6 a5 9c 3c
       0.2190422 0.094794795 0.15519182 0.019121956
000120 95 56 30 3f dd c4 c2 3c 88 f7 b3 3d e9 6d fd 3d
       0.68882114 0.023775512 0.08787447 0.12374479
000130 f2 1e 76 3d db 47 cb 3e b2 48 b2 3c f8 bb dc 3d
       0.060088105 0.3970326 0.02176318 0.1077804
000140 6b c2 9b 3c 3d 52 05 3e 49 2b bd 3f 67 bd a9 3e
       0.019013604 0.13019653 1.4778835 0.33152315
000150 23 d0 90 3d 7f 95 8d 3f 7c 7a 89 3d 54 21 2e 3e
       0.07070949 1.1061248 0.06712815 0.17004901
000160 06 e5 94 3e c9 c1 0c 3d 50 c5 a6 3e a5 1e 94 3e
       0.2908098 0.034364495 0.32572412 0.2892963
000170 bd d3 50 3e 9b 20 ca 3f 8b ba 06 40 8d 75 0a 3f
       0.20393272 1.57912 2.1051357 0.5408562
000180 9b 75 ae 3d 2a c2 3d 3f bc 9c 71 3f af 8f ec 3d
       0.08518525 0.74124396 0.9437978 0.11550843
000190 0a 06 41 3c 60 1d 3c 3e 76 af ad 3c f9 8b bf 3e
       0.011781225 0.1837058 0.02120183 0.37411478
0001a0 56 6b 10 3f 45 4c 6b 3e 27 0c 06 3f b7 3f 1d 3e
       0.5641378 0.22978313 0.52362293 0.15356337
0001b0 18 1c 49 3d b7 87 0c 3e be c8 e6 3e 46 ab 9c 3e
       0.049099058 0.13723646 0.4507503 0.3059942
0001c0 91 d4 4c 3e d3 5a 5e 3f fb b4 30 3e 0e dc 9c 3e
       0.20002963 0.86857337 0.17256539 0.30636638
0001d0 e7 20 82 3b 3c c9 5d 3e 11 25 c6 3d 37 7e 2e 3d
       0.0039712074 0.21658796 0.096750386 0.042600837
0001e0 38 10 74 3e a8 02 a5 3c 76 31 ca 3e 77 62 2d 3d
       0.23834312 0.020142868 0.3949086 0.04233023
0001f0 10 bf d3 3d cb 08 85 3c cd 19 01 3f be d2 c3 3f
       0.10339177 0.016239544 0.50429994 1.5298688
000200 ef b5 49 3f 59 8b ad 3e 40 2e a2 3c 29 18 02 3d
       0.78793234 0.33895376 0.019797444 0.031761322
000210 e3 25 d6 3c 3a eb 55 3d de b7 59 3f 41 de 32 3e
       0.026141113 0.052226283 0.85046184 0.17467596
000220 86 2c c7 3f 04 c6 02 3f 8b 3f ce 3b e8 09 12 3d
       1.5560462 0.510834 0.006294196 0.03565398
000230 33 b6 28 3e 96 e7 16 3e 4b b9 fa 3d bf 7a c5 3f
       0.16475753 0.1473678 0.12242373 1.5428084
000240 69 5b f1 3d b3 a1 ba 3e bf d7 a0 3e 77 d1 12 3e
       0.11785013 0.36451492 0.314146 0.14337717
000250 07 ba 59 3d 96 74 6f 3e 65 1c 0b 3d 92 3c 35 3f
       0.053155925 0.23384318 0.033962626 0.7079555
000260 42 de 8d 3e b4 d5 a2 3d bc 7f 4a 3e 53 ce 5a 3d
       0.27708632 0.07950917 0.1977529 0.053419422
000270 92 dc d3 3d 1b d0 fc 3e d3 fd 55 3e 67 7f 16 3e
       0.10344805 0.49377522 0.20897608 0.14697038
000280 be b1 8b 3d 94 86 13 3e b4 85 99 3e 58 4b 12 3f
       0.06821011 0.14406806 0.2998482 0.57146215
000290 04 bc 6f 3f 9e a9 4a 3d 7f 3b f8 3e 30 b6 ab 3d
       0.93646264 0.049478166 0.48482892 0.08384359
0002a0 f4 b1 a5 3d 7f 89 28 3e c3 60 c3 3d 6b 60 13 3e
       0.080905825 0.164587 0.0953994 0.1439225
0002b0 63 24 08 3f 39 1b a1 3e 71 78 1a 3e 3a 5b d2 3e
       0.5318052 0.31466082 0.15085007 0.41085225
0002c0 fe fc 01 3e 9e 45 bd 3d 2c e0 37 3f 7e a8 a1 3e
       0.12694165 0.09241794 0.71826434 0.31573862
0002d0 93 14 ea 3d 22 d5 47 3e bb ee 2b 3f 1d f8 53 3f
       0.114297055 0.19514897 0.6716115 0.82800466
0002e0 c0 0b af 3e f7 1e 59 3e 48 7c 85 3e 0a d8 d7 3d
       0.34188652 0.21203218 0.26071382 0.10539253
0002f0 e3 58 c4 3e ba 3e 10 40 17 a3 a0 3d 4a 25 49 3f
       0.38349065 2.2538285 0.07843607 0.78572524
000300 eb e7 9a 3e 87 2f 81 3f 15 aa cd 3d b4 96 6b 3e
       0.30255064 1.0092629 0.10042206 0.23006707
000310 3f 78 08 3d 9a cc 70 3d 51 ee de 3e e4 f6 78 3e
       0.0333178 0.058788873 0.43541196 0.24312931
000320 be b8 fb 3e 25 0a ac 3d d7 44 cd 3d 65 7d 00 3f
       0.49164385 0.084003724 0.10022896 0.50191337
000330 d4 cb 6a 3e 68 90 59 3d 83 05 21 3f 08 66 12 3e
       0.22929317 0.053116232 0.62899035 0.14296734
000340 58 65 c3 3e 0f c0 87 3e de 88 0f 3d 10 37 c3 3d
       0.38163257 0.26513717 0.035042636 0.09531987
000350 27 c9 88 3d a0 ea 04 3f 83 a8 2f 3f 7f b8 8a 3f
       0.06678992 0.5192051 0.68616503 1.0837554
000360 99 c8 4a 3e d1 d7 b7 3e 35 75 a2 3d bc 1b 35 3e
       0.19803084 0.35906842 0.07932512 0.17686361
000370 c5 da ba 3e 9b 26 29 3f ca 7c 41 3f 26 28 38 3e
       0.36495033 0.6607453 0.7558104 0.17984065
000380 ce 79 ae 3d 76 b0 2b 3f 2a 31 0e 3f e5 b5 06 3e
       0.08519326 0.67066133 0.5554377 0.13155325
000390 da d0 ac 3e ce 4b 86 3f 94 08 56 3d 02 b8 87 3e
       0.3375309 1.0491884 0.052254274 0.26507574
0003a0 4d cb 07 3f c0 c2 c2 3d 2b 6e b0 3c 51 a6 11 3f
       0.5304459 0.09509802 0.021536907 0.56894404
0003b0 00 00 38 3f 45 6d bc 3e 74 07 da 3e 3b e5 e5 3d
       0.71875 0.36802116 0.4258381 0.11225363
0003c0 a3 ff 1b 3e d0 f1 e5 3e be 75 21 3e 5d 89 57 3e
       0.15234236 0.4491105 0.15767571 0.21048494
0003d0 6f a1 c6 3e 34 f5 b0 3e 20 46 c4 3f 89 27 31 3e
       0.3879504 0.34562075 1.53339 0.17300238
0003e0 18 66 a3 3e c7 32 2b 3f 88 0f b9 3e 98 09 03 3e
       0.3191383 0.66874355 0.36144662 0.12796628
0003f0 2f f7 00 3f 3c 7a 1a 3d d2 38 0b 3e b7 7c da 3d
       0.5037717 0.037714228 0.13595894 0.10668319

network.2.running_var f4 [256]
000000 f0 b7 62 3e 71 e5 0f 3e 88 a2 30 3e 60 30 12 3c
       0.22140479 0.14052369 0.17249501 0.008922666
000010 92 38 d3 3c 4d aa ac 3c 47 a5 39 3e a3 9b 8f 3e
       0.02578381 0.0210773 0.18129455 0.2804843
000020 31 f9 2e 3e ce f5 25 3c 7b 19 b8 3d 38 9f 48 3d
       0.17087246 0.010129405 0.08989235 0.048979968
000030 78 10 a2 3e e7 ce 81 3d 64 66 07 3f ee 04 e3 3c
       0.3165319 0.063382916 0.5289061 0.027712312
000040 2e c7 0d 3e f8 ed 89 3e 7d 0d 27 3e b1 51 cd 3d
       0.13845512 0.26939368 0.16313739 0.10025347
000050 ad 64 03 3e 33 91 00 3e 94 d2 e2 3d 3f 83 61 3f
       0.12831374 0.12555389 0.11075321 0.8809089
000060 b1 14 bc 3e 26 ff fd 3e 22 11 19 3e 2d 42 db 3e
       0.36734536 0.49608725 0.14947942 0.42823926
000070 91 42 93 3f 13 3f bc 3f 7e 97 34 3e f1 7b b6 3b
       1.150469 1.4706749 0.17635915 0.005568974
000080 64 7c 9a 3c 8d e8 8f 3e 68 67 22 3e 72 97 97 3e
       0.018858142 0.2810711 0.15859759 0.2960773
000090 39 3f c0 3e 6e 29 ab 3e 81 98 59 3f e0 e1 8b 3e
       0.37548235 0.33430046 0.8499833 0.27320766
0000a0 2b b7 81 3d bb 5d 61 3e 4a c4 6d 3e d3 4e 22 3d
       0.06333765 0.22008412 0.2321941 0.039625954
0000b0 4b 24 8b 3e 07 3e 7f 3d 38 2c 8f 3e 7d 18 2e 3f
       0.27176127 0.062315013 0.27963424 0.68006116
0000c0 07 52 1b 3e a3 fd 0e 3e 9d 04 04 3e e3 b7 02 3e
       0.1516801 0.13963942 0.12892385 0.1276546
0000d0 71 ba 43 3e 9e 02 40 3d af ec 09 3f 1b 21 c5 3e
       0.1911409 0.046877496 0.53876776 0.3850182
0000e0 ac ef f5 3d ed dd 5f 3d 58 c7 38 3d c1 6f 9b 3e
       0.120086044 0.054655004 0.045111984 0.303587
0000f0 31 05 13 3e c0 c8 d5 3d 4b fb 21 3d ed 90 20 3e
       0.14357449 0.10438681 0.039546292 0.15680285
000100 b0 97 99 3e 70 94 8a 3e 40 60 93 3e e1 4e ed 3e
       0.2999854 0.27066374 0.2878437 0.46349242
000110 32 52 39 3e 2f 25 7b 3d 1a 8d 33 3e f7 8a 7f 3c
       0.18097761 0.061314758 0.17534295 0.015597097
000120 b0 d0 38 3f b9 18 93 3c aa 76 ac 3d 7c 87 ad 3d
       0.7219343 0.017956125 0.08421071 0.08473107
000130 c9 fe 3f 3d 1b cb fd 3e 47 98 63 3c c6 af cf 3d
       0.04687384 0.4956902 0.013891286 0.10140948
000140 4e fe ed 3b 8a ea 3a 3e c4 48 b1 3e c7 00 f3 3e
       0.0072629815 0.18253532 0.34625828 0.4746153
000150 3a b0 4b 3d 19 a0 e8 3f fe 84 65 3d e6 72 a3 3d
       0.04972861 1.8173858 0.056035034 0.079808995
000160 29 23 c2 3e ea 67 01 3d 18 1b 66 3e f1 f0 98 3e
       0.3791745 0.03159324 0.22471273 0.29871324
000170 2d ae f2 3d aa b5 df 3e 59 fd 60 3e 47 2b de 3e
       0.11849628 0.43693286 0.21971644 0.43392393
000180 1e 2a 82 3d b0 5d 81 3f e0 ab 89 3f a0 55 57 3d
       0.063556895 1.0106716 1.0755577 0.052571893
000190 11 55 a7 3b b3 06 2b 3e 83 44 7c 3c 7b 27 f1 3e
       0.0051065763 0.16701774 0.015397194 0.47100434
0001a0 37 e5 21 3f 8d a2 a4 3e 37 91 ab 3e 2a 45 37 3e
       0.6324038 0.32155266 0.33509228 0.17897478
0001b0 a8 10 fa 3c ae 46 69 3d 27 2a c2 3e 68 11 f8 3e
       0.03052552 0.05695217 0.37922785 0.4845078
0001c0 02 c0 82 3e cb db d8 3e 1c 37 cb 3d 46 87 a0 3e
       0.25537115 0.4235519 0.09922621 0.31353205
0001d0 ef 60 27 3b dc 3d 90 3e a2 2d b0 3c 39 4f 0d 3d
       0.0025539955 0.28172195 0.021506134 0.03449938
0001e0 c0 c2 a1 3e cd 49 da 3b d9 38 90 3e 4e 15 f4 3c
       0.31593895 0.00666163 0.2816837 0.029795315
0001f0 e6 32 98 3d 7f 14 b8 3b 9d 06 18 3f 0e 1d c2 3e
       0.07431583 0.0056176777 0.5938509 0.37912792
000200 97 a2 7e 3e 3a db 01 3f a7 c4 16 3c 2d a3 a3 3c
       0.2486671 0.5072514 0.009202159 0.01997527
000210 72 12 c1 3c c8 f0 69 3d 3a 0e fd 3e 67 a6 12 3e
       0.023568366 0.057114393 0.49424917 0.1432129
000220 2e 7e 49 3e 23 44 6a 3f a3 76 f2 3a e7 f5 04 3d
       0.1967704 0.9151022 0.0018498491 0.032461073
000230 f4 95 b3 3d 4b f3 2f 3e 01 50 62 3d fa 8a a7 3e
       0.08768836 0.17182653 0.05525208 0.32723218
000240 02 df 9f 3d 7f ef ca 3e 17 fd 4c 3e 2c 4c 43 3e
       0.07806207 0.39635846 0.20018421 0.19072026
000250 d6 d9 09 3d c9 bd 45 3e b0 4d 01 3d 43 2b 91 3f
       0.03365501 0.19310679 0.03156823 1.1341327
000260 5e 65 5e 3e 35 92 8a 3d f8 78 ac 3d 4e db 62 3d
       0.21718356 0.06766168 0.084215105 0.055384926
000270 1d 7c a0 3d 77 26 fe 3e ff 61 57 3e a7 75 ad 3d
       0.07836173 0.4963872 0.21033476 0.08469706
000280 fb 41 8c 3d 1e ce d2 3d cb cd 50 3e da 3b 9c 3f
       0.06848522 0.1029322 0.20391004 1.2205765
000290 41 de 1e 3f 6a ed 17 3d 31 db 36 3f a8 da 3c 3d
       0.6205788 0.03709165 0.7142821 0.046106964
0002a0 aa 15 87 3d 33 ab 53 3e f6 72 a0 3d a2 8e ed 3d
       0.06595929 0.20670776 0.07834427 0.11599471
0002b0 8c 31 f5 3e eb 0f 94 3e bb e2 37 3e 93 f4 88 3d
       0.47889364 0.28918394 0.17957585 0.06687274
0002c0 f9 1b f3 3d c1 a3 19 3d 80 d9 49 3f e8 c8 57 3e
       0.1187057 0.037509684 0.78847504 0.21072733
0002d0 19 bd d3 3d c9 45 e5 3d 81 c4 bc 3e 96 cc 14 3f
       0.10338802 0.11194951 0.3686867 0.58124673
0002e0 52 b7 c4 3e fd c1 3e 3e c4 fa 30 3e ff 4f 8a 3d
       0.38421112 0.18628688 0.1728316 0.06753539
0002f0 5d d0 aa 3e 25 dd 77 3e 7f 20 81 3d 1f 88 19 3f
       0.33362094 0.24205454 0.06305026 0.5997333
000300 49 09 9f 3e 4a 87 d3 3f 16 a5 17 3d 8d 9f 4d 3e
       0.31061772 1.6525662 0.037022673 0.20080395
000310 17 bb ef 3c ac 8a 8a 3c b8 b4 88 3e c3 c1 a1 3e
       0.029264016 0.016911827 0.26700377 0.3159314
000320 e6 5b 1f 3f f2 41 08 3d 0d 7b ca 3d d0 d3 bf 3e
       0.622496 0.033266015 0.09886751 0.37466288
000330 f4 c3 95 3e 22 fd c9 3c 88 9f 4e 3e 10 87 18 3e
       0.29251063 0.024656836 0.20178044 0.14895272
000340 e2 fe 2b 3e 62 a0 72 3e a1 fa 08 3d d3 e5 2d 3d
       0.16796449 0.23693994 0.033442143 0.042455506
000350 33 51 2c 3d da 14 3f 3f e2 00 25 3f 2c 4d 96 3f
       0.042069625 0.7464119 0.6445447 1.1742301
000360 11 cd 8e 3e 3f 91 11 3f bb e2 4f 3d df f8 4e 3e
       0.27890828 0.5686225 0.050753336 0.20212124
000370 06 bd dc 3e 09 ee dd 3e e3 85 cc 3e 6a 51 82 3e
       0.43112963 0.4334567 0.39945897 0.2545274
000380 7f 27 80 3d 44 c8 6e 3f 19 a1 3a 3f 3f 32 10 3e
       0.06257533 0.9327433 0.72902066 0.14081667
000390 c4 28 c6 3e 87 2a 83 3f 45 5a 70 3d 24 c3 05 3e
       0.38702977 1.0247353 0.058679838 0.13062721
0003a0 c6 50 25 3f 32 46 b6 3d c7 ec 7d 3c 7c 1c 2b 3f
       0.64576375 0.089001074 0.015498347 0.6684034
0003b0 4b 61 3c 3f 7e ae 87 3e 07 ee 4a 3e ad ab 04 3e
       0.7358596 0.26500314 0.19817363 0.12956114
0003c0 11 09 31 3e 41 43 22 3f cb e1 0c 3e e0 2e 5f 3e
       0.17288615 0.6338387 0.13758008 0.21795225
0003d0 fa c0 86 3e 6c 00 af 3e e3 84 ca 3e 96 d7 9d 3d
       0.26319104 0.3418001 0.3955451 0.077071354
0003e0 b0 70 a0 3e 6e 0a 8b 3f c7 4b 45 3e 76 cd de 3d
       0.31335974 1.0862558 0.19267188 0.10879032
0003f0 63 10 71 3f 12 68 d7 3c 2b 32 4d 3d 62 6a d9 3c
       0.9416563 0.026294742 0.050096672 0.026539985

network.4.weight f4 [128, 256]
000000 20 68 1c 3c 1c 57 bd bc 38 13 14 bf 37 e4 b8 be
       0.00954631 -0.023112826 -0.57841825 -0.36111614
000010 80 d3 c9 3c e2 93 f4 be 46 3f 3f be 3c 44 0a be
       0.024636984 -0.47769076 -0.1867648 -0.13502592
000020 57 fb 2c bf e1 b2 85 bd 2c 92 6e bd 21 c8 1b be
       -0.67571014 -0.06528259 -0.05824487 -0.15213062
000030 d5 c6 0c 3e d0 ef 13 be a4 e5 07 3d fc 4f 4a bb
       0.13747723 -0.1444695 0.033177987 -0.0030870428
000040 6b 9a 6e 3d 00 c1 ad ba f3 2d 80 3c fd 12 f0 bc
       0.058252733 -0.0013256371 0.01564691 -0.02930593
000050 7e a7 1f 3e b3 9a 04 bf 6d 50 e7 be 86 d7 1c be
       0.15591237 -0.5179855 -0.45178548 -0.1531659
000060 b1 81 c1 3d fc 9a 57 3d 74 28 16 bd a6 05 33 be
       0.09448565 0.05263804 -0.036659673 -0.17482623
000070 88 a0 b0 be 81 f5 c0 3d 30 f1 38 bd ac 75 f3 be
       -0.34497476 0.09421826 -0.04515189 -0.47550714
000080 b1 81 7c 3d 57 5c 2f be f3 a0 41 bf b7 e4 36 3e
       0.06164712 -0.17125069 -0.75636214 0.17860685
000090 df 53 6d 3d 06 1f 8a bc ae f5 d2 3d cc a7 0e 3d
       0.057941314 -0.016860496 0.10300766 0.034827992
0000a0 84 43 d5 be 73 4f b8 bc 5d ba e7 3d 46 fa ed 3c
       -0.41653073 -0.022498822 0.11314843 0.029050004
0000b0 75 35 24 bd 9f 0c ae 3c f7 57 43 3e aa 0b 83 3d
       -0.040090043 0.021246253 0.19076525 0.06398709
0000c0 e1 92 01 bc a0 8c 3f 3b 20 ea fa bd a3 8d ec bc
       -0.007908554 0.0029228106 -0.12251687 -0.028876131
0000d0 a0 4c 32 3e c7 d6 11 be ae 3a de 3d b8 fb de ba
       0.17412043 -0.14242087 0.10851036 -0.0017012274
0000e0 fc 99 16 3d c2 99 80 be 70 8a 41 be f9 05 f2 3d
       0.036767945 -0.25117308 -0.18900466 0.118175454
0000f0 f5 ed 83 bd c1 c3 92 bd 96 96 0b bf 17 6c 09 3e
       -0.06441871 -0.07166243 -0.5452665 0.13420139
000100 95 75 4b b9 51 18 e7 bc 08 32 3f be b5 84 b5 3d
       -0.00019403391 -0.028209837 -0.18671429 0.088632025
000110 24 51 aa 3c 9c 24 87 bd 2f 76 8c bd ba fa 06 bf
       0.020790644 -0.065987796 -0.06858479 -0.5272633
000120 69 19 ae 3d 6e aa 2e bf 81 31 26 3c 6f a2 28 3d
       0.0850094 -0.68228805 0.010143639 0.041170534
000130 90 c2 e6 3c 2e 54 e4 bd b2 9c ab be 79 88 bd bd
       0.028168947 -0.111488685 -0.33517987 -0.09254546
000140 9a 16 1f be e3 45 08 bf 4c 2e 40 3c 5a fb 91 3d
       -0.15535966 -0.5323164 0.011729788 0.0712802
000150 17 8d 80 3e cc b6 be bd 66 9e 99 be b9 61 4f bc
       0.25107643 -0.093122095 -0.3000366 -0.012657576
000160 06 25 95 be f3 95 2e bf 56 8a 80 bd 52 26 af bd
       -0.2912981 -0.68197554 -0.062763855 -0.08552231
000170 38 59 81 bd 0a 0b c1 3d 51 be 6a be c5 b3 2a 3e
       -0.06315845 0.09425934 -0.22924162 0.16670139
000180 ba b4 73 be 24 9a cd bd 40 51 2c bd c2 f5 83 bd
       -0.2379941 -0.100391656 -0.042069674 -0.06443359
000190 3b 27 c6 be dc fb e2 be 26 92 a1 be 72 1d d7 3c
       -0.38701805 -0.44332778 -0.31556815 0.026259158
0001a0 d6 36 98 bf bf 02 39 3d bd 71 77 3d 81 29 3d be
       -1.1891735 0.045168635 0.060411204 -0.18472864
0001b0 f1 52 91 3e 61 bf 71 bc 94 77 0b 3e 1e 7e de 3c
       0.28383592 -0.014755101 0.13619834 0.027159747
0001c0 12 5b 08 3e 48 07 fe bd 92 01 d9 3c d6 b2 8c be
       0.1331599 -0.124037325 0.026490007 -0.2748019
0001d0 cc d0 3f be 71 85 8a be 04 e2 7d 3d 8e 70 9c be
       -0.18731993 -0.27054933 0.061983123 -0.30554622
0001e0 f2 1e 6d be a2 0e b2 bd a3 a7 7c 3e 9c 0e 62 be
       -0.23156336 -0.08694197 0.24673323 -0.22075886
0001f0 09 a8 98 be c5 7f d3 bc eb 17 15 bf 5e 02 20 be
       -0.298157 -0.025817761 -0.5823962 -0.15625903
000200 11 ed af bd f2 9d d2 3c 1d ed e3 bd 22 43 bd be
       -0.08590139 0.02571008 -0.1112921 -0.3696528
000210 5c 37 50 be 09 21 f1 bb ce ae 30 3c d0 a3 13 3e
       -0.20333618 -0.0073586744 0.010783864 0.14417958
000220 a8 5b 81 bd c0 ac 7c 3e fa 0a ab be 56 2e 19 bf
       -0.0631631 0.24675274 -0.33406812 -0.5983633
000230 49 d5 6f bd db 49 13 3d 79 ba 2b 3d 29 af 85 3e
       -0.058553014 0.035959106 0.04192588 0.261102
000240 55 5d 99 be ce 81 e5 be c7 ab 48 3c 54 76 ba bd
       -0.2995402 -0.44825596 0.012247986 -0.091046005
000250 5b 97 01 bf 1b 99 48 3d 19 b4 cd bd 0a b3 7e bd
       -0.50621575 0.048974138 -0.100441165 -0.062182464
000260 a1 c3 20 be c8 e6 19 bf 79 e0 b2 3d 8b d3 d8 bb
       -0.15699627 -0.6011777 0.08734221 -0.0066170148
000270 b6 4a 31 bd be 7e a9 3d 6b b6 ae bd 29 5c 4b bd
       -0.04328414 0.08276127 -0.08530887 -0.049648438
000280 b6 f6 70 bf 99 41 2c 3e af f9 38 be 36 20 0a bb
       -0.9412645 0.16821899 -0.18063997 -0.0021076328
000290 d5 bd c0 bd 71 b0 9d 3d 91 41 1e bd 70 78 5a bc
       -0.094112076 0.07699669 -0.038636748 -0.013334379
0002a0 bd 9d d2 be 0b 16 5c 3c ea 15 2d 3d 85 83 37 bd
       -0.4113597 0.01343299 0.042257227 -0.04480316
0002b0 26 99 ef 3c f3 5c 1b bf 7d 1d 33 3c c6 51 32 be
       0.029247832 -0.60688704 0.0109323235 -0.17414007
0002c0 07 92 b2 3e e3 7a d0 bd 1a d1 10 3c 15 6a 8c bd
       0.34877035 -0.10179689 0.008838916 -0.06856171
0002d0 3d 7d fd bd 3b fd 05 3d a4 44 df 3d 8a 41 dd bc
       -0.12377403 0.032712203 0.10901764 -0.02700879
0002e0 bb cc 38 bf f0 d1 42 bf c2 ee 4e bc cc d5 e4 3d
       -0.72187394 -0.7610159 -0.0126301665 0.11173591
0002f0 c9 fa 84 3d da a7 78 be 93 a9 81 be 21 c7 60 3d
       0.06493146 -0.2428278 -0.25324687 0.054877404
000300 62 7d 62 be 4c 61 99 bc d4 75 ce 3d 06 34 a6 bd
       -0.22118142 -0.018723153 0.10081068 -0.081153914
000310 6c 71 17 be a6 1b 13 be 77 d3 c2 3b 2a ef 9c bd
       -0.14789361 -0.14366016 0.0059456187 -0.076628044
000320 e8 ff 2e be b5 ff 31 bc aa d7 b8 be 52 f8 2c 3e
       -0.17089808 -0.010864188 -0.3610204 0.16891602
000330 f4 3d 32 bf 57 78 65 bd 5d 78 be bc c1 5e 8a bc
       -0.6962578 -0.05602297 -0.023250753 -0.016890885
000340 92 57 5a be aa e2 f3 bd 9b dd 31 3d a5 e5 71 bd
       -0.21322468 -0.11908467 0.04342423 -0.059056897
000350 00 55 08 3d b9 c1 04 bd 59 ff a2 bd be 95 c6 bd
       0.033284187 -0.03241131 -0.0795886 -0.0969653
000360 92 85 b9 bd 8f e1 97 3d 95 ee 3e 3e 50 1b 59 be
       -0.0905868 0.07416069 0.186457 -0.21201825
000370 18 4b 4a be 73 9a da bd 94 d1 90 bd c9 75 33 bf
       -0.19755208 -0.1067399 -0.07071224 -0.701016
000380 40 18 e9 be ab 50 4b bc 24 dc 8b be 2a 1f 73 bd
       -0.45526314 -0.012409369 -0.2731639 -0.059355892
000390 d1 5a a6 be b7 79 8e 3c f3 93 22 3e 61 a6 af bd
       -0.32491162 0.017392023 0.1587675 -0.08576656
0003a0 05 44 ed 3d 29 55 84 be 17 12 f6 bd 9b 90 87 be
       0.11585239 -0.25846222 -0.12015169 -0.26477513
0003b0 95 5a ec bd ec ff 7e bd 6e 9b bf 3c 49 fe c3 bc
       -0.11540715 -0.062255785 0.023389544 -0.023924964
0003c0 df 4d f0 bd e5 63 e6 3d 98 75 54 be b9 a4 31 3c
       -0.11733603 0.11249522 -0.20747983 0.010842496
0003d0 c8 20 93 be ea 87 8f bb fa 4d a7 3d db 83 2f bd
       -0.28735948 -0.004380216 0.0816917 -0.042850357
0003e0 3e ba 9b 3d f0 ea 1e bd 39 97 60 3d 0f 5d 04 3e
       0.07603882 -0.038798273 0.054831717 0.12926124
0003f0 f8 81 f8 3d bd a6 ac 3d 62 7c d5 3d f3 af 68 bd
       0.121341646 0.0843024 0.10424115 -0.056808423
